tasks/attack_war/defender_list/defender_fgsm/defense_war-model.pth (torch, 251649 bytes, 12 tensors)

conv1.weight f4 [6, 3, 5, 5]
0	0xbd0ddbda	-0.034633495
1	0xbdd63ed1	-0.104612
2	0xbd08943f	-0.033344503
3	0xbd88d28e	-0.06680785
4	0xbd6baab9	-0.05753586
5	0xbcb0cf08	-0.021583095
6	0xbe19edeb	-0.15032165
7	0xbc158d78	-0.009127967
8	0xbdcf1462	-0.101113096
9	0xbd8a9fce	-0.067687616
10	0xbdc2cafc	-0.095113724
11	0xbdb4f444	-0.088356525
12	0xbdb46c8e	-0.08809768
13	0xbe005fe8	-0.12536585
14	0xbe3cd679	-0.1844119
15	0xbdb9472c	-0.09046778
16	0x3bd92e91	0.0066278656
17	0x3d6f2c58	0.0583919
18	0xbe372a03	-0.1788712
19	0xbe5c7c89	-0.21531881
20	0xbd9d8b6c	-0.07692608
21	0xbd820037	-0.06347697
22	0xbda3e004	-0.08001712
23	0xbdc88eaf	-0.0979284
24	0xbe49b08d	-0.19696255
25	0xbc8fa405	-0.017534265
26	0x3d8b36b0	0.0679754
27	0xbd5ac528	-0.05341068
28	0x3c22e365	0.00994191
29	0x3d332f66	0.043746375
30	0x3d582674	0.052771047
31	0x3d4f3937	0.050591674
32	0xbc4afd95	-0.01238956
33	0x3d83b5ee	0.06431185
34	0x3d5fa36f	0.05459922
35	0xbe35457d	-0.17702289
36	0xbe2d64bf	-0.16932963
37	0x3c906580	0.017626524
38	0x3d87a278	0.06622785
39	0x3cbd2da2	0.023093048
40	0x3d562d2f	0.052289184
41	0xbd81abfc	-0.063316315
42	0xbcd9bdaa	-0.026579697
43	0xbda80a21	-0.08205057
44	0xbd587879	-0.052849267
45	0xbc6af84b	-0.014341424
46	0x3addceaa	0.0016922553
47	0xbd1044f5	-0.035222013
48	0xbd753b47	-0.059870984
49	0x3cf2d6ff	0.029643534
50	0x3e803e25	0.25047413
51	0x3e89ab92	0.2688871
52	0x3e9678d7	0.29389068
53	0x3e5514e6	0.20808753
54	0x3e65ab7c	0.22428697
55	0x3ad03d61	0.0015887433
56	0x3dc1386e	0.09434591
57	0x3d61e57b	0.05515049
58	0x3d5d16af	0.05397671
59	0xbcae1138	-0.021248445
60	0x3e3cbb3e	0.18430802
61	0x3deab677	0.11460584
62	0x3ce1b8c2	0.02755392
63	0x3dedf0fc	0.1161823
64	0x3d024394	0.03180273
65	0x3dd25fa8	0.10272151
66	0x3dd58ed7	0.10427635
67	0x3e0b4e95	0.13604195
68	0x3e414e32	0.18877485
69	0x3e35f226	0.17768154
70	0xbc8870c4	-0.016655333
71	0xbb2b585c	-0.0026145196
72	0x3de748ec	0.112932056
73	0x3e49c41e	0.19703719
74	0x3e677ebb	0.22606938
75	0x3df51604	0.1196709
76	0xbd543932	-0.05181236
77	0xbd11df25	-0.035613198
78	0x3db52ab2	0.08846034
79	0xbd1efb16	-0.038813673
80	0xbde9b7de	-0.11412023
81	0x3cf7e26d	0.030259335
82	0x3dcf8243	0.10132267
83	0xbe543799	-0.20724334
84	0xbcb0956d	-0.021555627
85	0x3dda97ab	0.106734596
86	0x3dd8ac62	0.105797544
87	0x3e28ef68	0.16497576
88	0x3e77e858	0.24209726
89	0x3d674e88	0.056471378
90	0xbd830628	-0.063976586
91	0x3c7a1001	0.015262605
92	0x3e50a8b1	0.2037685
93	0x3e37f751	0.17965437
94	0xbdd5f7e9	-0.10447676
95	0xbe57660b	-0.2103502
96	0xbe6bedc4	-0.23039919
97	0xbe95d0be	-0.2926082
98	0xbeb28e68	-0.34874272
99	0xbe801a75	-0.25020185
100	0x3e2b44e2	0.16725495
101	0x3d703fdc	0.05865465
102	0xbcc4086f	-0.023929803
103	0xbbc92dd9	-0.0061394987
104	0xbde5613b	-0.11200186
105	0x3e172fa3	0.14764266
106	0xbe40a220	-0.18811846
107	0xbdeb2105	-0.11480907
108	0xbcfd9ca1	-0.030958476
109	0x3c6b1f4a	0.014350722
110	0x3dad8339	0.08472294
111	0x3e8517a2	0.25994593
112	0x3e0de5d4	0.13857204
113	0x3e7c26e4	0.2462421
114	0x3e256749	0.16152681
115	0xbdb633bc	-0.08896586
116	0x3d571133	0.052506637
117	0x3de98ec5	0.11404184
118	0x3d84e9e5	0.06489924
119	0x3da9dc65	0.0829399
120	0xbc9c2395	-0.019059936
121	0xbe3e2891	-0.18570162
122	0xbeb34bd1	-0.3501878
123	0xbe3e79ec	-0.18601197
124	0xbe5f4ea7	-0.21807347
125	0xbd33f6e7	-0.043936636
126	0xbcd61188	-0.026131406
127	0x3c48ac97	0.01224818
128	0x3d0cd745	0.034384985
129	0xbd5385d2	-0.051641293
130	0x3c1a3fbf	0.009414612
131	0xbc912c30	-0.017721266
132	0xbdfa2d40	-0.12215662
133	0xbd3c0039	-0.04589865
134	0x3dec231a	0.115301326
135	0x3dedb8dc	0.11607525
136	0x3dc2eadd	0.09517453
137	0x3e2da6f6	0.16958222
138	0x3e2eac66	0.17057952
139	0x3e370c94	0.17875892
140	0x3d4a4e49	0.049391065
141	0x3db7a031	0.08966101
142	0x3e80c083	0.25146875
143	0x3dd0e018	0.101989925
144	0xbcf64576	-0.030062418
145	0xbe0715a0	-0.13191843
146	0xbe1cabeb	-0.15299957
147	0xbe6f40ed	-0.23364611
148	0xbea56371	-0.3230243
149	0xbe88df5d	-0.26732913
150	0xbe63ff47	-0.2226535
151	0xbe3991f0	-0.18122077
152	0x3e2e9ce0	0.1705203
153	0x3e561710	0.20907235
154	0xbca25ea4	-0.019820519
155	0xbe7c9daa	-0.24669519
156	0x3d8b0a05	0.067890204
157	0x3dd14194	0.10217586
158	0x3e00c41a	0.12574807
159	0xbe696740	-0.22793293
160	0xbde95d28	-0.11394721
161	0xbeabf3fb	-0.3358458
162	0xbdb75757	-0.08952206
163	0xbdd42961	-0.10359455
164	0xbe0a9bf4	-0.13536054
165	0xbdcee492	-0.1010219
166	0xbe5f6441	-0.21815588
167	0x3d5975cc	0.053090855
168	0xbe3d465c	-0.18483871
169	0x3db22bf1	0.086997874
170	0x3e3563a5	0.17713793
171	0xbdd9ec53	-0.106407784
172	0x3e544404	0.20729071
173	0x3e4ad334	0.1980713
174	0x3de0c994	0.10975948
175	0x3d086087	0.03329518
176	0xbdb40e05	-0.087917365
177	0x3d8111f0	0.063022494
178	0x3e398d46	0.18120298
179	0xbebbe6c1	-0.3669949
180	0xbe01c860	-0.12674093
181	0xbd57a47c	-0.0526471
182	0x3eb53a4f	0.35396048
183	0x3e0cc203	0.13745885
184	0xbe21de11	-0.15807368
185	0xbd98315b	-0.07431289
186	0xbeb5c288	-0.35499978
187	0xbd0258e7	-0.031823065
188	0xbe75c07d	-0.2399921
189	0xbe3bb225	-0.18329675
190	0x3e3982c7	0.18116294
191	0x3dd25282	0.10269643
192	0xbdc1f119	-0.09469814
193	0xbc8a2514	-0.016863383
194	0xbe0e898b	-0.13919656
195	0xbc778bf2	-0.015109049
196	0xbdd780d0	-0.10522616
197	0x3e105988	0.14096653
198	0xbc855f9c	-0.016280942
199	0x3e6ddf35	0.23229678
200	0xbdd2517e	-0.1026945
201	0x3d9c0a65	0.0761917
202	0x3de08806	0.109634444
203	0x3cfc6d94	0.03081397
204	0xbe9b0d20	-0.3028345
205	0x3c9a9f3c	0.018874757
206	0xbdd2f8e6	-0.1030138
207	0x3ec4625f	0.383563
208	0x3e59d8dd	0.21274133
209	0xbe4bb420	-0.19892931
210	0xbd2e4ec4	-0.042555586
211	0xbe45a8f7	-0.19302736
212	0x3dfb8e35	0.12282983
213	0xbb078162	-0.0020676483
214	0xbe3d2390	-0.18470597
215	0x3dc69301	0.096960075
216	0xbe08df22	-0.13366368
217	0xbd34772f	-0.044058975
218	0x3e0e33ab	0.13886897
219	0xbdb20c44	-0.08693746
220	0x3d92a714	0.07160774
221	0x3e410cb6	0.18852505
222	0x3df40b53	0.119162224
223	0x3da2e92a	0.07954629
224	0xbc6d7b0b	-0.014494668
225	0x3e89b874	0.2689854
226	0xbcb6095f	-0.022221265
227	0x3d5661ee	0.052339487
228	0x3cdfd6d3	0.027324116
229	0x3c521744	0.01282293
230	0x3e044717	0.12917744
231	0x3ec3b9a0	0.38227558
232	0x3e1a578c	0.15072459
233	0x3e232b14	0.15934402
234	0x3e03293c	0.12808698
235	0xbc2ec1f5	-0.01066636
236	0x3e454a6f	0.19266675
237	0xbd27a73b	-0.040930968
238	0xbdc3787e	-0.095444664
239	0xbc59b20f	-0.013287081
240	0x3db284ce	0.08716737
241	0x3def5248	0.11685616
242	0xbde7ae42	-0.11312534
243	0xbddb84d8	-0.10718697
244	0x3c3591af	0.011082097
245	0xbe73b47b	-0.23799317
246	0x3b447861	0.0029978978
247	0xbe2e150a	-0.17000213
248	0xbe1c8540	-0.15285206
249	0xbe0dc594	-0.13844901
250	0xbe0acd5b	-0.135549
251	0xbd9d7536	-0.07688372
252	0x3d2fac84	0.042889133
253	0xbd526033	-0.051361274
254	0xbdbb0ddc	-0.09133503
255	0xbe07e451	-0.1327069

conv1.bias f4 [6]
0	0xbdc26ce3	-0.09493425
1	0xbe02357f	-0.1271572
2	0x3cace947	0.021107329
3	0xbd5d529b	-0.054033857
4	0xbeb5a62d	-0.35478345
5	0x3cfaf86d	0.030636037

conv2.weight f4 [16, 6, 5, 5]
0	0xbe8323a8	-0.2561314
1	0xbe72d91c	-0.23715633
2	0xbe4e9a2c	-0.20176
3	0xbd14feaa	-0.03637568
4	0x3d9b3205	0.075779
5	0xbe47b58d	-0.1950285
6	0xbddf0269	-0.108891316
7	0xbd77c213	-0.060487818
8	0x3e209a94	0.15683967
9	0x3ed82e96	0.42223042
10	0xbdaaa6fb	-0.0833263
11	0xbc9bdeb9	-0.0190271
12	0x3c515a93	0.012777942
13	0x3e067ffa	0.13134757
14	0x3ef3197c	0.4748038
15	0xbc5a8209	-0.013336667
16	0x3df3a454	0.118965775
17	0x3c254d16	0.0100891795
18	0xbd5d9665	-0.054098506
19	0xba7e71ab	-0.0009706269
20	0xbee3f8b1	-0.44525674
21	0x3d9b3788	0.07578951
22	0x3d9ec4a9	0.07752354
23	0xbb14ea0b	-0.0022722508
24	0xbe09081d	-0.13382001
25	0xbe548162	-0.2075248
26	0xbe8d77e2	-0.27630526
27	0x3d88b424	0.06674984
28	0x3db685a0	0.08912206
29	0x3df9fb41	0.12206126
30	0xbe0df038	-0.13861167
31	0x3e231fa4	0.15930039
32	0x3e1ef566	0.155233
33	0xbe5c85fe	-0.21535489
34	0x3d662e38	0.05619642
35	0x3e77b0e1	0.24188568
36	0xbc7ac9c7	-0.0153068965
37	0xbea1eb63	-0.31624898
38	0xbe031265	-0.12799986
39	0x3cf99243	0.03046525
40	0x3d123a78	0.03570029
41	0xbd69b703	-0.0570593
42	0xbd6446b7	-0.0557315
43	0x3deb3d82	0.11486341
44	0xbbe7fc63	-0.0070796474
45	0xbd89a653	-0.06721177
46	0xbd97d6af	-0.074139945
47	0xbc71040e	-0.014710439
48	0xbdbf4fe0	-0.09341407
49	0xbdb23984	-0.087023765
50	0xb9213223	-0.00015372834
51	0xbe2e7118	-0.1703533
52	0xbe957f85	-0.29198852
53	0xbdfe1bbe	-0.12407635
54	0xbda302fb	-0.07959553
55	0x3db78cfd	0.08962438
56	0xbbcbddd8	-0.006221514
57	0x3d6d62e4	0.057955638
58	0x3dd64c1f	0.10463738
59	0x3e157ad3	0.14597635
60	0x38c658c3	9.457909e-05
61	0xbda32914	-0.079668194
62	0x3d85650f	0.06513416
63	0x3ddd1d4b	0.10796603
64	0x3e09a1ce	0.1344063
65	0xbd3fc28f	-0.046816405
66	0xbc62d044	-0.0138436
67	0xbccfb707	-0.025355829
68	0xbd15a769	-0.036536608
69	0x3d11e2aa	0.035616554
70	0x3e114b0c	0.14188784
71	0xbba74471	-0.0051045944
72	0x3d6ef402	0.058338173
73	0x3e0ddd46	0.1385394
74	0x3e803f88	0.2504847
75	0xbd2e4858	-0.04254946
76	0xbd6c1967	-0.057641413
77	0xbb697a88	-0.0035626013
78	0x3d605286	0.0547662
79	0x3e96241c	0.29324424
80	0x3da89bb2	0.082328215
81	0xbbe43784	-0.006964626
82	0xbdeab440	-0.11460161
83	0xbded0140	-0.11572504
84	0x3e1aee3f	0.15129946
85	0x3cf57e73	0.029967522
86	0xbca96820	-0.020679533
87	0x3ae51a15	0.0017479087
88	0x3c0838b8	0.008314304
89	0x3e6467a1	0.22305156
90	0x3e32cbc3	0.17460541
91	0xbd3abdd8	-0.045591205
92	0xbe412272	-0.18860796
93	0x3d3daa57	0.046305027
94	0x3cdbaf23	0.02681691
95	0x3db0c3e5	0.08631114
96	0x3d03f454	0.03221543
97	0xbd0d1ad2	-0.034449406
98	0xbdd1820f	-0.10229885
99	0x3d2d063e	0.04224228
100	0x3b7dc10a	0.0038719797
101	0xbe4cb435	-0.19990619
102	0xbc157f40	-0.009124577
103	0xbdf445a9	-0.11927349
104	0xbe48ef1a	-0.1962246
105	0xbe5d4db2	-0.2161167
106	0xbdfb05d3	-0.1225697
107	0x3e3cbf8b	0.18432443
108	0xbcbc7f4d	-0.02300992
109	0x3e15ba05	0.14621742
110	0x3de0dff9	0.109802194
111	0xbc921548	-0.017832413
112	0x3e25a375	0.16175635
113	0x3e03149d	0.12800832
114	0x3e7b9770	0.24569488
115	0x3e125fce	0.14294359
116	0xbe11dbd8	-0.1424402
117	0xbe229185	-0.15875824
118	0xbdd65793	-0.10465922
119	0x3deaa706	0.114576384
120	0xbe72413b	-0.23657696
121	0xbebb90e1	-0.3663397
122	0x3d8afbe8	0.067863286
123	0x3e8b4d08	0.27207208
124	0xbdfb990d	-0.122850515
125	0xbecb8cdc	-0.39755905
126	0xbe7586b1	-0.23977162
127	0x3c8979f7	0.01678179
128	0x3de0a6b6	0.109692976
129	0xbc348bbe	-0.011019645
130	0x3db4d345	0.08829359
131	0x3dc88d77	0.09792607
132	0x3e0f0fb1	0.1397083
133	0x3dc7b2a5	0.097508706
134	0x3d9ad455	0.0756003
135	0xbd9fa68d	-0.07795439
136	0xbde03eb9	-0.109494634
137	0x3e1fd6ab	0.15609233
138	0xbd393c02	-0.045223244
139	0xbd6eaa7a	-0.058268048
140	0xbdbefc79	-0.09325499
141	0x3da12221	0.07867838
142	0x3de43b77	0.111441545
143	0xbe120981	-0.14261438
144	0xbe13a396	-0.14417872
145	0x3d982c7b	0.07430359
146	0xbe0f213f	-0.13977526
147	0x3e8be16b	0.27320418
148	0xbd59187c	-0.053001866
149	0x39ea85d7	0.00044731676
150	0x3e86a68c	0.2629894
151	0x3dd15a1f	0.10222267
152	0xbbcd8ddb	-0.006273014
153	0x3d26709a	0.04063473
154	0x3e1f8b3d	0.15580459
155	0xbc7b502c	-0.015338939
156	0x3d95a7bf	0.07307386
157	0xbd85ebd7	-0.065391235
158	0x3df28969	0.11842615
159	0x3ebcd9ba	0.36884862
160	0x3b8615ee	0.0040919697
161	0xbbf894d1	-0.0075860997
162	0x3dbfa331	0.09357298
163	0x3e02c707	0.12771235
164	0x3e2c7b8e	0.16844007
165	0xbd8d7fab	-0.06909116
166	0xbd5fd049	-0.054641996
167	0xbdc1aa7b	-0.09456345
168	0x3c4a13c3	0.012333813
169	0xbd97e339	-0.07416386
170	0x3dab0322	0.08350207
171	0xbda02328	-0.078192055
172	0xbd86a5ab	-0.065745674
173	0x3c905d75	0.017622689
174	0x3c89b2ab	0.016808828
175	0xbe77bae9	-0.24192394
176	0xbe05ec97	-0.13078533
177	0xbd838137	-0.0642113
178	0xbdc233aa	-0.094825104
179	0x3c290ba5	0.010317718
180	0x3bffffb8	0.0078124665
181	0xbdf1d533	-0.11808243
182	0xbe2117b5	-0.157317
183	0xbd148915	-0.036263544
184	0x3dbb8edb	0.09158107
185	0xbe3dbd63	-0.18529277
186	0x3d05d787	0.032676246
187	0x3d2e54fc	0.042561516
188	0x3df8a1b2	0.12140216
189	0x3c58b747	0.0132272905
190	0xbe34fd09	-0.1767465
191	0xbc7d4b56	-0.015459856
192	0x3d5fab4e	0.05460673
193	0xbba5fe98	-0.0050657503
194	0x3dfd688c	0.12373456
195	0xbe323911	-0.17404582
196	0x3df40e95	0.11916844
197	0x3da0886c	0.078385204
198	0xbd0effd4	-0.034911945
199	0xbd423f99	-0.047423933
200	0x3dc2532d	0.09488521
201	0x3db6cfe7	0.08926373
202	0xbd0f00f7	-0.03491303
203	0xbe88d6bf	-0.26726338
204	0xbe6d8f17	-0.23199116
205	0xbd90d542	-0.07071926
206	0x3dc000d3	0.09375157
207	0x3da76e9a	0.081753924
208	0xbeaf4394	-0.34231246
209	0xbe6fc23e	-0.23413941
210	0x3db8b48b	0.09018811
211	0x3e0d1ca2	0.13780454
212	0x3e06850a	0.13136688
213	0x3e508b0d	0.20365544
214	0x3e917a5d	0.28413668
215	0x3d0c31df	0.03422725
216	0xbe09d4ff	-0.13460158
217	0xbdb31a98	-0.08745307
218	0xbe175bc9	-0.14781107
219	0x3dc85269	0.097813435
220	0xbe88e2a7	-0.26735422
221	0x3d028f5a	0.031874992
222	0xbda10c33	-0.07863655
223	0x3e12c884	0.14334303
224	0x3dfaea22	0.122516885
225	0x3d5f6d26	0.05454745
226	0x3cf447b0	0.02981934
227	0xbd9bc059	-0.07605047
228	0xbd30dca1	-0.043179158
229	0x3cbee043	0.023300296
230	0xbe0cf12c	-0.13763875
231	0xbe0ff223	-0.14057212
232	0x3d1cc00a	0.03826908
233	0xbe0171bc	-0.12641042
234	0x3dfc901a	0.12332173
235	0xbdb49c81	-0.08818913
236	0xbdcd1a54	-0.10014787
237	0xbd20ace8	-0.039227396
238	0xbde06958	-0.10957593
239	0xbdb13bb2	-0.08653964
240	0xbe08c1ba	-0.13355151
241	0xbdbc5357	-0.09195583
242	0xbd3e4e9e	-0.046461694
243	0xbcf3d71c	-0.029765658
244	0xbd1993b4	-0.037494376
245	0xbe040769	-0.12893452
246	0xbdf89137	-0.121370725
247	0x3dffd5f5	0.12491981
248	0xbd6d999d	-0.058007825
249	0x3d4aae4e	0.049482636
250	0x3d16b3b4	0.036792472
251	0x3e5ed215	0.21759827
252	0x3d9c1205	0.076206245
253	0x3e34ab0d	0.17643376
254	0x3e921d77	0.28538105
255	0xbca2ad20	-0.019857943

conv2.bias f4 [16]
0	0x3e045371	0.12922455
1	0xbf45500e	-0.7707528
2	0xbe2276ab	-0.1586558
3	0x3e8ad2b0	0.27113867
4	0x3ce65018	0.028114364
5	0x3e0bb966	0.13644943
6	0x3e3ac948	0.18240845
7	0x3e2f6b8a	0.17130867
8	0x3dab78f9	0.08372683
9	0x3d2598f8	0.040429085
10	0xbdef4591	-0.116831906
11	0xbf594fc5	-0.84887344
12	0x3d8890d4	0.06668249
13	0xbe005981	-0.12534143
14	0xbe7bd36f	-0.24592374
15	0xbde7f34b	-0.11325701

fc1.weight f4 [120, 400]
0	0xbea101d2	-0.314467
1	0xbed09385	-0.40737548
2	0xbe9f8c56	-0.31161755
3	0x3d7eca0d	0.06220441
4	0xbca0758f	-0.019587306
5	0xbe804306	-0.25051135
6	0xbe9ecb74	-0.31014597
7	0xbe7b536b	-0.2454354
8	0xbcfcb612	-0.030848537
9	0xbd2e6e5e	-0.042585723
10	0xbceabf63	-0.028655713
11	0xbea7a1ed	-0.32740727
12	0x3d1cf454	0.038318947
13	0xbd981927	-0.074266724
14	0xbbd279aa	-0.006423195
15	0xbe22fc44	-0.15916544
16	0xbe64e71e	-0.22353789
17	0x3e34a8bc	0.17642492
18	0x3e699bfb	0.22813408
19	0x3ef5c441	0.48001292
20	0xbf02a925	-0.51039344
21	0xbc0a2a32	-0.008432912
22	0xbd122c34	-0.035686687
23	0xbb588089	-0.0033035597
24	0xbde30d65	-0.11086539
25	0xbbeafc4e	-0.0071711903
26	0xbca7884b	-0.020450732
27	0x3df900f1	0.12158383
28	0x3e4ac904	0.19803244
29	0xbd36b154	-0.044602707
30	0xbd05d461	-0.032673243
31	0xbdd91e35	-0.10601465
32	0xbda8caac	-0.082417816
33	0x3d826eed	0.06368814
34	0xbe4620c3	-0.19348435
35	0xbe6268e0	-0.22110319
36	0xbe8c1cdb	-0.27365765
37	0x3dbdcd70	0.092677
38	0x3db748a1	0.089494
39	0x3cd8de32	0.026473138
40	0x3e404415	0.18775971
41	0xbe2609f7	-0.16214739
42	0x3e06f485	0.13179214
43	0x3d830ae0	0.063985586
44	0x3d0c37f5	0.034233052
45	0x3daa4565	0.08314017
46	0xbf411435	-0.7542146
47	0xbeae49e0	-0.34040737
48	0xbde1b5a7	-0.110209756
49	0x3ddf2fc6	0.10897784
50	0x3dd7df7d	0.10540674
51	0x3e11c877	0.14236628
52	0xbf113053	-0.5671436
53	0xbeb7e3e6	-0.3591606
54	0xbe8787a0	-0.2647066
55	0xbe2be5ee	-0.1678693
56	0xbe60d05a	-0.2195448
57	0xbe27bcbb	-0.16380589
58	0xbe59dfa3	-0.21276717
59	0xbead278f	-0.33819243
60	0x3e9cb8e3	0.30609807
61	0x3e4f9238	0.20270622
62	0x3cb14ce5	0.021643111
63	0xbe11ba67	-0.14231263
64	0x3bd0f879	0.0063772765
65	0x3e810c5e	0.25204748
66	0x3f07e7b2	0.53087914
67	0x3e80e457	0.2517421
68	0x3e8076a4	0.25090516
69	0x3e1584ec	0.14601487
70	0xbcba192b	-0.02271708
71	0x3ea079ee	0.31343025
72	0xbc129232	-0.0089459885
73	0xbe87ff55	-0.2656199
74	0xbe9fa230	-0.31178427
75	0xbec8287b	-0.39093384
76	0xbccc3b37	-0.02493058
77	0xbd9e45a6	-0.07728128
78	0x3e0ac858	0.13552988
79	0x3e6d061e	0.23146865
80	0xbe1d111f	-0.15338562
81	0xbd935e73	-0.07195749
82	0x3e4010c3	0.18756394
83	0x3dcca214	0.099918514
84	0x3dbad0dc	0.09121868
85	0xbe42f3f4	-0.19038373
86	0xbcfa49a4	-0.030552693
87	0xbd51d8a6	-0.051232003
88	0x3d85ebe1	0.06539131
89	0x3dcad869	0.09904558
90	0xbf0ea7cc	-0.5572479
91	0xbcc7674f	-0.024341254
92	0x3d4ba29f	0.049715634
93	0xbe520f4a	-0.20513645
94	0xbd9a549a	-0.07535668
95	0xbebd9b57	-0.37032577
96	0xbeca4849	-0.39508274
97	0x3e81b084	0.25329983
98	0xbee57cf6	-0.448219
99	0xbc039a88	-0.008032449
100	0x3e7d28be	0.24722573
101	0xbd9a1f92	-0.07525553
102	0xbe2249f9	-0.15848531
103	0x3e4ffd65	0.20311506
104	0xbf020bd8	-0.5079932
105	0x3e2d5888	0.16928303
106	0x3e18ddbd	0.14928336
107	0x3da64ee3	0.08120515
108	0x3c8ea9f8	0.017415032
109	0xbe15f352	-0.146436
110	0xbc2383ca	-0.009980151
111	0x3d46f7e4	0.04857625
112	0x3e26b73f	0.1628084
113	0xbea2e304	-0.31813824
114	0xbea35e4b	-0.31907877
115	0xbc33bf53	-0.010970908
116	0x3c953fe4	0.018218942
117	0x3e9611f3	0.2931057
118	0xbd68b36f	-0.056811746
119	0xbf087ff9	-0.5332027
120	0x3ded6148	0.115908206
121	0xbdaee671	-0.08540047
122	0xbeb95889	-0.3620036
123	0xbda26994	-0.07930294
124	0xbf16e94e	-0.58949745
125	0xbe823dc9	-0.25437763
126	0x3e249e55	0.16076024
127	0xbe65ac59	-0.22429027
128	0xbe0e4343	-0.13892846
129	0xbeaae50f	-0.33377883
130	0xbc064dc9	-0.008197256
131	0x3dc93de1	0.098262556
132	0xbe6d4510	-0.23170877
133	0x3ec80daf	0.3907294
134	0xbe539ad0	-0.20664525
135	0x3eab8ede	0.33507437
136	0x3d6f83a0	0.058475137
137	0x3c4dbafe	0.012556789
138	0x3dc54394	0.0963203
139	0x3d77b816	0.060478292
140	0xbe1dfad4	-0.15427715
141	0x3dd7b82c	0.10533175
142	0xbb0fc1b1	-0.0021935517
143	0xbd849a5d	-0.06474755
144	0x3e4ff56f	0.20308469
145	0xbef3af2b	-0.4759458
146	0xbeb6a4d4	-0.3567263
147	0xbec07439	-0.3758867
148	0xbd1f4dba	-0.038892485
149	0xbe78302d	-0.24237128
150	0x3d8677ff	0.06565856
151	0x3d601b44	0.054713503
152	0x3c8261c8	0.015915766
153	0x3d65cc39	0.056102965
154	0x3dbfb9d2	0.09361614
155	0xbe0ca73f	-0.13735674
156	0x3d02364e	0.03179007
157	0xbda55d05	-0.08074383
158	0x3da5dd16	0.080988094
159	0xbd59e2fe	-0.053194992
160	0x3d3737a0	0.044730783
161	0x3d39b278	0.045336217
162	0x3d949cdd	0.07256482
163	0x3ddeb85a	0.10875006
164	0x3d3e55ec	0.04646866
165	0xbe4ef4c6	-0.20210561
166	0xbd798e76	-0.060926877
167	0xbb785b34	-0.0037896158
168	0xbd3082e2	-0.04309357
169	0x3c2271d5	0.009914835
170	0xbd936b92	-0.07198252
171	0x3e0e38ba	0.13888827
172	0x3db6b50c	0.08921251
173	0x3de998d0	0.114061
174	0x3dfcdac7	0.12346416
175	0xb7f850ed	-2.9601588e-05
176	0x3e627709	0.22115721
177	0x3d62fb95	0.05541571
178	0x3d87e0a3	0.06634643
179	0xbd1b8a85	-0.0379739
180	0xbc1e4241	-0.009659351
181	0x3e32b6bb	0.17452519
182	0xbbc2a713	-0.005940327
183	0xbe16056c	-0.14650506
184	0xbb200e50	-0.0024422593
185	0x3c96f6a7	0.01842816
186	0x3e4ef868	0.20211947
187	0x3e81eebd	0.25377455
188	0x3df93c70	0.12169731
189	0xbe082909	-0.13296904
190	0x3c759af9	0.014990562
191	0x3db75fd8	0.089538276
192	0x3e134274	0.14380819
193	0xbe0a3dab	-0.13500087
194	0x3ce6cae4	0.028172918
195	0x3ebfc5df	0.3745565
196	0xbde74332	-0.11292113
197	0xbe4bac61	-0.19889976
198	0xbe33e9fc	-0.17569727
199	0xbd9b3fe3	-0.07580545
200	0xbdb5bbbf	-0.088737
201	0x3f3e6532	0.7437316
202	0x3eb383e3	0.3506156
203	0xbe9dd74a	-0.30828315
204	0xbe8360b6	-0.25659722
205	0x3d5fca15	0.05463608
206	0xbea4c455	-0.3218104
207	0xbe7b6f2e	-0.2455413
208	0x3f0dad0f	0.5534219
209	0x3e1f86e6	0.15578803
210	0xbe08404d	-0.13305779
211	0x3e8ca75f	0.27471444
212	0xbe6b2734	-0.22964174
213	0x3e4192a7	0.189036
214	0xbca15bd7	-0.019697113
215	0xbe9a1487	-0.30093786
216	0x3e6f3dce	0.2336342
217	0x3e33226e	0.17493603
218	0x3dd8c1be	0.105838284
219	0x3d979bfd	0.07402799
220	0x3e20003b	0.15625088
221	0x3e753456	0.23945746
222	0x3e06a001	0.13146974
223	0x3d30cf07	0.043166187
224	0x3d838c27	0.06423216
225	0xbe884f25	-0.26622882
226	0x3e120103	0.14258198
227	0xbd1db2d8	-0.038500637
228	0x3cf273e0	0.02959627
229	0xbe881332	-0.26577145
230	0xbe6fa7d3	-0.23403864
231	0x3e171a8f	0.14756225
232	0x3d48e95c	0.049050674
233	0xbccc2496	-0.02491979
234	0xbd9761a3	-0.073916696
235	0x3d6e848b	0.05823187
236	0xbe020fea	-0.12701383
237	0xbd20e8cb	-0.03928451
238	0x3e0b29c6	0.13590154
239	0x3dd706f9	0.10499377
240	0xbe325b85	-0.17417724
241	0xbe29747c	-0.16548342
242	0x3da6a2d6	0.08136527
243	0xbe67823f	-0.22608279
244	0xbe0a439a	-0.1350235
245	0xbd7739f1	-0.06035799
246	0xbe507471	-0.20356919
247	0xbe7ee1cf	-0.24890827
248	0x3e19d6f7	0.15023409
249	0xbd72a4fd	-0.059239376
250	0xbe0a3c53	-0.13499574
251	0xbeb43502	-0.35196692
252	0xbe8a45ba	-0.27006322
253	0xbeeb8d43	-0.46006212
254	0xbec9a716	-0.3938529
255	0x3ee2de66	0.44310302

fc1.bias f4 [120]
0	0x3ea4c938	0.32184768
1	0xbd8a4f1c	-0.0675337
2	0x3e33dcce	0.17564699
3	0x3e540643	0.20705514
4	0x3e1215f1	0.14266182
5	0x3f0fa04b	0.5610396
6	0xbf9cc801	-1.2248536
7	0xbf04ee4e	-0.51926124
8	0xbd3de3af	-0.046359714
9	0xbee9690f	-0.45587966
10	0x3e88af3c	0.26696193
11	0xbda1b8fc	-0.07896611
12	0xbd164849	-0.03669003
13	0x3ea696a1	0.32536796
14	0xbd7fee7b	-0.062483292
15	0x3d9fc3c7	0.078010134
16	0xbc962043	-0.01832593
17	0xbd391a50	-0.04519111
18	0x3eaa5f73	0.33275947
19	0xbbc1ce62	-0.0059144953
20	0x3c8d200b	0.017227193
21	0xbd9897e2	-0.07450844
22	0x3e480bbb	0.19535725
23	0xbd50966f	-0.050924715
24	0xbd772c12	-0.060344763
25	0xbe57e133	-0.21082
26	0x3e087dfa	0.13329306
27	0xbd7bb26d	-0.061449457
28	0x3d3f35fa	0.046682335
29	0x3efe89a3	0.49714383
30	0xbda9efa6	-0.082976624
31	0x3d05f8e6	0.03270807
32	0xbd6c709d	-0.057724584
33	0xbcb0080b	-0.02148821
34	0xbd732fa7	-0.059371617
35	0xbd76f49c	-0.06029187
36	0xbf81e349	-1.0147487
37	0xbc5f683a	-0.013635689
38	0x3e593965	0.212133
39	0xbdd9064a	-0.10596903
40	0xbda3c73a	-0.07996984
41	0xbdd7e229	-0.105411835
42	0xbdc3f0b3	-0.09567394
43	0xbd6af89a	-0.05736599
44	0xbebadefd	-0.36498252
45	0x3edd955c	0.43278015
46	0xbc88a192	-0.016678605
47	0x3ebb162b	0.3654035
48	0x3f33f43d	0.70294553
49	0xbd709387	-0.058734443
50	0x3ed57bbb	0.4169596
51	0x3e67b746	0.22628507
52	0xbdc0afda	-0.09408541
53	0xbd2bf218	-0.041978925
54	0xbdbcb8bc	-0.09214923
55	0xbd93b9b7	-0.07213157
56	0x3ea50941	0.32233623
57	0x3e646863	0.22305445
58	0xbe22c242	-0.15894416
59	0xbd2e621a	-0.042574026
60	0xbd142f67	-0.03617802
61	0x3e9dde1e	0.30833524
62	0xbe7420bd	-0.23840614
63	0x3ea2fb94	0.31832564
64	0x3e6580af	0.2241237
65	0x3d4626f7	0.048377004
66	0x3ef665f3	0.48124656
67	0xbd8daea2	-0.06918074
68	0x3d6e1738	0.058127612
69	0x3ed1a7bf	0.40948293
70	0x3e9664bf	0.29373738
71	0xbd5df424	-0.05418791
72	0xbd441e79	-0.047880623
73	0x3f022160	0.50832176
74	0xbe10d3e6	-0.14143333
75	0x3e189f0e	0.14904425
76	0x3ed87d78	0.42283225
77	0x3f921adb	1.1414446
78	0x3e98ba35	0.29829565
79	0xbeddcd6b	-0.43320784
80	0xbdcc4d12	-0.099756375
81	0xbd5f3e0d	-0.054502536
82	0xbd71c8cc	-0.059029385
83	0xbd5a7660	-0.053335547
84	0xbd8ac8af	-0.067765586
85	0x3ebcbe41	0.36863902
86	0xbd56e92e	-0.05246847
87	0xbfa0b419	-1.2554961
88	0x3e8ebf27	0.27880213
89	0x3f2ee886	0.6832355
90	0xbf8a29bf	-1.079399
91	0x3ef3a83c	0.4758929
92	0x3c63f462	0.013913246
93	0x3ba38db7	0.004991259
94	0xbdde0288	-0.108403265
95	0xbd8e8f9e	-0.069609866
96	0x3eae56ff	0.34050748
97	0xbd859abf	-0.06523656
98	0x3e90f366	0.28310698
99	0xbdbfee69	-0.09371645
100	0x3f07a58c	0.5298698
101	0xbd4c565e	-0.049887054
102	0xbd6cdb7d	-0.057826508
103	0xbb01ac48	-0.0019786526
104	0xbd9c3f15	-0.076292194
105	0xbd9aa6d0	-0.07551348
106	0x3eb30344	0.3496343
107	0x3f73e160	0.9526577
108	0x3e72083f	0.23635958
109	0xbda87620	-0.082256556
110	0xbd98ed00	-0.07467079
111	0x3e620059	0.22070445
112	0x3e9c82c5	0.3056852
113	0xbc52df9c	-0.012870695
114	0xbd660c2b	-0.056163948
115	0x3ea6a3d0	0.32546854
116	0xbe991b2a	-0.29903537
117	0x3e0d3569	0.13789906
118	0xbd13f7a3	-0.036124837
119	0xbe841b2f	-0.2580199

fc2.weight f4 [84, 120]
0	0x3dd4f72d	0.103987075
1	0x3d70b81e	0.058769338
2	0xbe186292	-0.14881352
3	0x3eb0a0dc	0.34497726
4	0x3cde79a3	0.02715761
5	0xbe1cdb82	-0.1531811
6	0xbf0c558e	-0.54818046
7	0x3dab4ca3	0.08364227
8	0x3d9973fb	0.07492825
9	0xbda2cb6a	-0.079489544
10	0x3eb88921	0.3604212
11	0xbdd7ed77	-0.1054334
12	0xbdd87b6c	-0.10570416
13	0x3e66faeb	0.22556655
14	0x3a825822	0.0009944479
15	0x3c71fae2	0.014769288
16	0x3d6c21d2	0.05764944
17	0x3c9ad870	0.018902034
18	0x3eaa77e7	0.33294603
19	0xbeaf935e	-0.3429212
20	0x3dd1ac94	0.10237995
21	0x3de48513	0.111581944
22	0xbed7ab07	-0.4212267
23	0x3d7e86a7	0.062140133
24	0xbd51b833	-0.051201057
25	0x3e37c117	0.17944752
26	0x3e0e8f60	0.1392188
27	0x3de587be	0.112075314
28	0x3d7dd6fb	0.0619726
29	0xbec1bcca	-0.37839347
30	0x3e4f7c84	0.20262343
31	0xbe670287	-0.22559558
32	0x3c959467	0.01825924
33	0xbe02f49e	-0.12788627
34	0xbb213a9a	-0.002460158
35	0x3d528eb1	0.051405612
36	0x3e81e70a	0.2537158
37	0xbec3d257	-0.38246414
38	0x3e24bc40	0.16087437
39	0x3c462cd6	0.012095651
40	0xbdc4d7d8	-0.096114814
41	0x3e8e2208	0.2776034
42	0xbd30c26e	-0.043154173
43	0x3da6f4c8	0.08152157
44	0x3bba0866	0.0056772707
45	0xbd83147a	-0.0640039
46	0xbcc1b6ad	-0.023646677
47	0xbd25dd2d	-0.040494133
48	0x3d432d19	0.04765043
49	0xbdcabb26	-0.09898977
50	0xbdfe4e61	-0.12417293
51	0xbe58904d	-0.21148796
52	0xbd8272ba	-0.063695386
53	0x3dc1cbd3	0.094627045
54	0x3d7cc58f	0.061711844
55	0x3c8b1ebd	0.01698243
56	0xbdf04044	-0.11731008
57	0xbe647e8b	-0.22313897
58	0x3e66a50b	0.22523896
59	0xbc649451	-0.013951377
60	0xbd1ffdc7	-0.03906038
61	0x3dce9ddf	0.10088705
62	0xbe995f20	-0.29955387
63	0x3e14ecfa	0.14543524
64	0xbe5850e5	-0.21124609
65	0xbded690b	-0.11592301
66	0x3f00ec96	0.50361
67	0xbf08f492	-0.53498185
68	0xbe7f7229	-0.24945892
69	0xbdbed6d1	-0.09318317
70	0x3e1af77e	0.15133473
71	0x3c4c3749	0.012464353
72	0x3dc5f04b	0.09664973
73	0x3e5e0e84	0.21685225
74	0x3dd69b13	0.10478797
75	0xbb88a03d	-0.0041694925
76	0xbde06c98	-0.109582126
77	0x3bfbe28b	0.007686918
78	0x3d958d63	0.07302358
79	0xbf11a15b	-0.56886834
80	0x3ce7d475	0.02829955
81	0x3dd5c78c	0.10438451
82	0xbdf3271d	-0.11872695
83	0xbd663a7f	-0.05620813
84	0x3d3a1370	0.045428693
85	0xbe92a3ce	-0.28640598
86	0xbd89704c	-0.06710872
87	0xbf5661b1	-0.83742815
88	0x3efb20d5	0.49048486
89	0x3dd4c2b4	0.10388699
90	0x3d96d1dd	0.07364247
91	0xbe37310d	-0.17889805
92	0x3e5b202c	0.21398991
93	0x3e1651e3	0.14679675
94	0x3d90e5f9	0.07075114
95	0x3de52bdd	0.11190007
96	0xbe3fc6bc	-0.18728155
97	0x3df35287	0.11880975
98	0x3e2f4491	0.17116
99	0x3b8cb07e	0.0042935004
100	0x3e20bf08	0.15697873
101	0x3d892edc	0.06698391
102	0x3d7ddede	0.06198012
103	0x3d6909e1	0.056894187
104	0xbd88896d	-0.06666837
105	0xbcee1a43	-0.029065257
106	0x3dc46458	0.095894516
107	0x3e00013f	0.12500475
108	0xbe01decc	-0.12682647
109	0x3c06b218	0.008221172
110	0xbd04ef3e	-0.03245472
111	0x3b5610c9	0.0032663813
112	0x3e9776ca	0.29582816
113	0xbca9d725	-0.020732472
114	0x3d8cc755	0.06873957
115	0x3ea05240	0.31312752
116	0xbd9eaef7	-0.07748216
117	0x3e1b97d5	0.15194638
118	0x3eb9628e	0.36208004
119	0x3c5f70fa	0.013637776
120	0xbec64d58	-0.38730884
121	0x3ca85823	0.02054984
122	0xbc4d1418	-0.012516998
123	0xbd4b7e80	-0.049681187
124	0xbd1d28bf	-0.038368937
125	0xbe1cb1c0	-0.15302181
126	0xbefa3c34	-0.48874056
127	0xbc91dc0b	-0.01780512
128	0x3d9c1311	0.07620824
129	0xbdb6f373	-0.08933153
130	0x3e98f521	0.2987452
131	0x3cf0e3c0	0.029405475
132	0xbd261af0	-0.040553033
133	0x3ec27f3d	0.379877
134	0x3c531e2a	0.01288561
135	0x3e1f2768	0.15542376
136	0x3da624e1	0.08112503
137	0x3d330313	0.043704104
138	0x3c882c8c	0.016622804
139	0xbe524d90	-0.205374
140	0xbdbf4aa2	-0.09340407
141	0x3dd80e01	0.10549546
142	0xbe12f519	-0.1435131
143	0x3b2a233d	0.0025960945
144	0xbd95afaf	-0.073088996
145	0x3e87fe8b	0.26561388
146	0xbd32ceec	-0.043654367
147	0x3c97664e	0.0184814
148	0x3d7bde5c	0.061491355
149	0x3d2c6580	0.042088985
150	0x3ee0d629	0.4391339
151	0x3ddfe99a	0.10933228
152	0xbcd98610	-0.026553184
153	0x3d7d4142	0.061829813
154	0x3dc0e934	0.0941948
155	0x3dae743e	0.08518265
156	0xbe378bbe	-0.17924401
157	0xbedd84da	-0.4326542
158	0x3d0c236c	0.03421347
159	0x3cc9ea45	0.024647841
160	0xba99fa28	-0.0011747526
161	0xbdeddc46	-0.116142794
162	0x3e935bf3	0.2878109
163	0x3ca7bb31	0.020475002
164	0x3dd72cba	0.10506578
165	0x3e1723b2	0.1475971
166	0x3dbb4caa	0.09145482
167	0xbdba35d6	-0.090923
168	0xbd93c4c6	-0.07215266
169	0x3c86cb04	0.016454227
170	0x3d215224	0.039384976
171	0xbea644e5	-0.32474437
172	0xbd114451	-0.035465542
173	0x3c53e9ab	0.012934129
174	0xbccd013a	-0.025024999
175	0xbd45daf8	-0.048304528
176	0xbd1e2e44	-0.03861834
177	0xbc3b034c	-0.01141436
178	0x3e5f5fbe	0.21813866
179	0xbd910420	-0.07080865
180	0xbdaa959b	-0.08329316
181	0xbd3330d2	-0.04374773
182	0xbd85b6ae	-0.06528984
183	0x3afecd47	0.001943984
184	0xbd3b5ec1	-0.04574466
185	0xbd9d71b9	-0.076877065
186	0x3dba125e	0.090855345
187	0xbf050a72	-0.51969063
188	0xbe582a9d	-0.21110006
189	0x3dda41cd	0.10657082
190	0x3e172c9e	0.14763114
191	0xbda65cfe	-0.081232056
192	0xbd7f1e5e	-0.06228482
193	0x3de76d05	0.11300091
194	0x3e4ba805	0.19888313
195	0xbd891a83	-0.0669451
196	0x3db2bb9c	0.0872719
197	0xbd8d1b58	-0.06889981
198	0xbd91b284	-0.07114127
199	0xbec8dafd	-0.39229575
200	0x3d548a13	0.05188949
201	0x3c9148ef	0.017734973
202	0x3cbcdd22	0.023054663
203	0xbbdc0866	-0.0067148684
204	0xbd7f62ef	-0.06235021
205	0xbeff4685	-0.4985849
206	0xbd535f8c	-0.051604792
207	0xbef8271e	-0.48467344
208	0x3ea7eea9	0.3279927
209	0x3e764bbe	0.24052331
210	0x3b0bf25f	0.0021354181
211	0x3e453a18	0.19260442
212	0x3e97a98e	0.29621547
213	0x3e83d7a2	0.25750452
214	0x3dc1c0f5	0.09460632
215	0x3dd8bc1d	0.10582755
216	0x3d2698bc	0.040673003
217	0xbd51d2de	-0.05122649
218	0x3ec6d2bf	0.38832662
219	0xbd8a987d	-0.06767366
220	0x3eaec813	0.3413702
221	0x3ccfbeee	0.025359597
222	0x3d39052d	0.04517095
223	0xbd2db34d	-0.042407323
224	0xbd92d947	-0.071703486
225	0xbd5f1e90	-0.054472506
226	0x3d156971	0.03647751
227	0x3da3aa21	0.07991434
228	0xbe0138f5	-0.12619384
229	0xbd90c5bf	-0.07068967
230	0xbd873342	-0.066015735
231	0x3d31b73d	0.04338764
232	0x3e1b6048	0.15173447
233	0x3c84e640	0.016223073
234	0x3d1e9c3c	0.038723215
235	0x3d31f171	0.043443147
236	0xbe2f21d0	-0.17102742
237	0x3eafe0fc	0.34351337
238	0x3e7ad95b	0.24496977
239	0x3dc14bed	0.0943831
240	0xbe201c0d	-0.156357
241	0x3c8dc51d	0.017305905
242	0x3dd439d0	0.10362589
243	0x3e89d0d6	0.26917142
244	0xbd85e643	-0.065380596
245	0x3e4acb97	0.19804226
246	0x3ca94881	0.020664455
247	0xbe390442	-0.1806803
248	0x3d454e6d	0.048170496
249	0xbe7c5730	-0.24642634
250	0xbec3338c	-0.38125265
251	0x3d6fe9f5	0.05857273
252	0x3d79d060	0.060989738
253	0xbeb50e17	-0.35362312
254	0x3d0fde83	0.035124313
255	0xbc7c1335	-0.015385439

fc2.bias f4 [84]
0	0x3dff5802	0.12467958
1	0x3e0452cc	0.1292221
2	0x3eefd1c8	0.46839738
3	0xbc6d36a2	-0.0144783575
4	0xbd858415	-0.06519333
5	0x3f8426cc	1.032434
6	0xbe46c39a	-0.19410554
7	0x3ef7cb23	0.4839717
8	0x3efb6693	0.49101695
9	0xbaf9823a	-0.0019036003
10	0x3e88c2ca	0.26711112
11	0xbeb016bf	-0.34392354
12	0xbe16d2a3	-0.14728789
13	0x3e198e3f	0.14995669
14	0xbddb28a2	-0.107011095
15	0x3f38eefe	0.72239673
16	0x3d93932c	0.07205805
17	0x3e1cb01b	0.15301554
18	0x3d6a7daf	0.057248767
19	0x3e8ba418	0.2727363
20	0x3dac10a6	0.08401613
21	0x3f0c378d	0.54772264
22	0xbe9701dc	-0.29493606
23	0xbd988a82	-0.07448293
24	0xbf0105d1	-0.503995
25	0x3d33d23d	0.04390167
26	0x3e900001	0.28125003
27	0x3f0f9ff2	0.5610343
28	0x3e5b43f3	0.2141264
29	0xbdd5dbb1	-0.104422934
30	0xbe2d3f2e	-0.16918632
31	0xbd17900e	-0.037002616
32	0x3f29e14f	0.6635942
33	0xbdab4a72	-0.08363809
34	0x3ea3d2e0	0.31996822
35	0x3e5c6f60	0.21526861
36	0x3eba274f	0.36358115
37	0x3f16d621	0.58920485
38	0xbc023845	-0.007947986
39	0x3ee13fb5	0.43993917
40	0xbdecbbff	-0.11559295
41	0x3e30ec84	0.17277724
42	0x3e7c17f7	0.24618517
43	0x3e82c3e2	0.25540072
44	0xbddffde8	-0.10937101
45	0x3f009d00	0.50239563
46	0x3dc7ff54	0.09765497
47	0x3e342216	0.17591128
48	0x3cab2f4e	0.02089658
49	0x3d8d1217	0.06888216
50	0xbe6ff93c	-0.23434919
51	0x3df1e728	0.11811668
52	0x3d9c006c	0.07617268
53	0x3ec8f021	0.39245704
54	0xbf4b68a8	-0.7945657
55	0xbf09acc1	-0.53779227
56	0x3d887363	0.06662633
57	0x3dd252c9	0.10269696
58	0x3e2117b8	0.15731704
59	0x3d101a09	0.03518108
60	0x3eab53d8	0.33462405
61	0xbc1d365f	-0.009595483
62	0x3ea877ea	0.32903987
63	0x3dee5b36	0.11638491
64	0x3e8a989e	0.27069563
65	0x3ee72c21	0.45150855
66	0x3f1dc176	0.6162332
67	0xbdda8381	-0.10669614
68	0x3d44cb62	0.048045523
69	0x3dc4c939	0.09608693
70	0x3a92a21f	0.0011187232
71	0xbe60835c	-0.2192511
72	0x3ef593b6	0.47964257
73	0x3ee701f5	0.4511868
74	0x3f1c3d3a	0.61030924
75	0x3e9e8a68	0.3096497
76	0x3ec91864	0.3927642
77	0x3f4e4a5f	0.8058223
78	0xbdd356a6	-0.10319261
79	0x3f31deca	0.69480574
80	0xbd078ecc	-0.033095166
81	0xbddcdb9c	-0.10784075
82	0x3e9f3744	0.31096852
83	0x3e563cc9	0.20921625

fc3.weight f4 [10, 84]
0	0xbe0813c1	-0.13288786
1	0xbc6cf57b	-0.014462824
2	0xbd882854	-0.06648317
3	0xbd8247b5	-0.06361333
4	0x3be427e7	0.0069627645
5	0x3cd0dbe4	0.025495477
6	0x3d0ad8b1	0.03389806
7	0xbd738676	-0.059454404
8	0xbbb7cab8	-0.0056088828
9	0x3dad4a70	0.084614635
10	0x39e48cc1	0.0004359242
11	0xbdc016ea	-0.093793705
12	0xbd0d105f	-0.03443944
13	0xbcd227bd	-0.025653714
14	0xbcddddb6	-0.02708326
15	0xbd228c70	-0.039684713
16	0xbd89b771	-0.06724442
17	0xbd8584cb	-0.06519469
18	0x3cd635e4	0.026148744
19	0x3be256ac	0.0069073047
20	0x3d76d30d	0.060259867
21	0xbe2a9b90	-0.16660905
22	0x3c4b6e86	0.012416488
23	0xbdd62da9	-0.10457928
24	0xbd35b907	-0.04436591
25	0xbb6a6cdd	-0.0035770454
26	0xbcd3cb01	-0.025853636
27	0x3d1edb6e	0.038783483
28	0x3aa7589d	0.0012767498
29	0xbe09d888	-0.13461506
30	0x3da59436	0.080849096
31	0xbb385062	-0.0028124084
32	0xbb6bf93c	-0.003600671
33	0xbd47d789	-0.048789535
34	0xbd9d048a	-0.076668814
35	0x3d90371b	0.070417605
36	0xbd15266a	-0.036413588
37	0x3d8074b6	0.06272261
38	0x3d769eb1	0.060209934
39	0xbe0e0941	-0.13870718
40	0xbd586fd8	-0.052841038
41	0xbd87e33f	-0.06635141
42	0xba1a91b7	-0.0005896347
43	0x3b6c95a6	0.003609994
44	0x3db983ac	0.090583175
45	0xbe0e9884	-0.13925368
46	0xbd8d802b	-0.06909212
47	0xbccb3103	-0.024803644
48	0xbd93390a	-0.07188614
49	0xbdd7e366	-0.1054142
50	0xbdcf3e57	-0.10119312
51	0x3d654992	0.055978365
52	0xb96668ea	-0.00021973593
53	0xbcf38b66	-0.029729556
54	0xbdf2f895	-0.118638195
55	0x3d389bfe	0.04507064
56	0xbd569d1a	-0.052395917
57	0x3cd80451	0.026369246
58	0xbcf04640	-0.029330373
59	0xbda98044	-0.08276418
60	0xbe25f46b	-0.1620652
61	0xbe2610a9	-0.16217293
62	0xbdc419ea	-0.09575255
63	0xbd90288e	-0.07038985
64	0xbdc962a1	-0.09833265
65	0x3dbd2cf4	0.0923709
66	0x3d8156c7	0.063153796
67	0xbdda06ff	-0.10645866
68	0xbe02b061	-0.12762596
69	0xbe145238	-0.14484489
70	0x3c7bbec6	0.015365308
71	0xbda23a3c	-0.079212636
72	0xbdc63ada	-0.09679194
73	0xbde75021	-0.1129458
74	0xbd07e78e	-0.033179812
75	0xbd9c02a3	-0.076176904
76	0xbdbd7e11	-0.09252561
77	0x3d245a03	0.040124904
78	0xbdb31ef7	-0.087461405
79	0xbd925a5e	-0.071461424
80	0xbd8076cb	-0.06272658
81	0xbc940686	-0.018069517
82	0xbd6ddfa5	-0.058074612
83	0xbdc00a0a	-0.09376915
84	0xbeb2ab5b	-0.3489636
85	0xbcda35b5	-0.026636938
86	0x3e1dbf3c	0.15404981
87	0xbca36648	-0.019946232
88	0x3cc3728b	0.02385833
89	0x3e84ffb5	0.2597634
90	0x3c37eac6	0.011225408
91	0x3e25207e	0.16125676
92	0x3e14e78a	0.1454145
93	0xbedf08bc	-0.4356135
94	0x3e3f4f7e	0.18682668
95	0x3e4bbcb9	0.1989621
96	0xbcb0a5f4	-0.021563508
97	0x3e54b938	0.2077378
98	0xbe9cc124	-0.30616105
99	0x3e68451d	0.22682615
100	0x3dcf1341	0.10111094
101	0xbe003899	-0.1252159
102	0x3e6fd552	0.23421219
103	0x3e35f145	0.17767818
104	0x3f27fe89	0.65622765
105	0x3e1f8a34	0.15580064
106	0xbe737841	-0.23776342
107	0x3ca2fe44	0.019896634
108	0xbdae7f6d	-0.08520398
109	0xbd388e00	-0.045057297
110	0x3e0737fc	0.1320495
111	0x3e33da01	0.1756363
112	0xbecb9ea3	-0.39769468
113	0x3ac012b1	0.0014654008
114	0x3dcb4b6e	0.099264964
115	0x3e3b87da	0.18313542
116	0x3e3ccfae	0.18438599
117	0xbcff50a5	-0.031166384
118	0x3e5301c4	0.20606142
119	0x3e24a78c	0.16079539
120	0x3e969f3c	0.2941836
121	0xbf05c013	-0.52246207
122	0x3f2b89ca	0.67007124
123	0x3e325ac3	0.17417435
124	0x3e7b4864	0.24539334
125	0x3ea162f7	0.31520817
126	0x3e254756	0.16140494
127	0xbe11e3d7	-0.1424707
128	0x3e1a131d	0.15046354
129	0x3ca25c25	0.019819329
130	0xbe01b47c	-0.12666506
131	0x3ecc0e68	0.3985474
132	0xbdbf2228	-0.09332687
133	0x3f15cef7	0.5851893
134	0x3da91093	0.082551144
135	0x3cc62314	0.024186648
136	0xbef43177	-0.4769399
137	0x3e458d32	0.19292143
138	0xbf3192ee	-0.6936482
139	0xbe092392	-0.13392475
140	0xbeac9f95	-0.337155
141	0xbd8d6a67	-0.0690506
142	0x3e8c7837	0.27435467
143	0xbe8b4aac	-0.27205408
144	0xbd52fd5c	-0.051511154
145	0xbe29242f	-0.16517709
146	0xbdf658cd	-0.12028656
147	0xbd835dca	-0.06414373
148	0x3efec6ff	0.49761197
149	0x3eb6a39d	0.35671702
150	0xbde9c8d9	-0.11415262
151	0xbed4f381	-0.4159203
152	0x3d385d04	0.04501058
153	0x3e31b94e	0.17355844
154	0xbe92eb73	-0.28695258
155	0xbf73e309	-0.95268303
156	0x3bdfe714	0.0068329666
157	0xbf07b7af	-0.53014654
158	0x3eaa5abe	0.33272356
159	0x3c6e39fa	0.01454019
160	0xbe62a6ac	-0.22133893
161	0x3df96e94	0.12179294
162	0xbe25c9e5	-0.16190298
163	0x3e66331a	0.22480431
164	0xbe54dcd0	-0.20787358
165	0xbe148ae7	-0.14506112
166	0xbd5da88a	-0.05411581
167	0x3c989f72	0.018630717
168	0x3e5ac410	0.21363854
169	0xbb95b802	-0.0045690546
170	0x3e1b7324	0.15180641
171	0x3e90a97d	0.2825431
172	0xbcb46042	-0.022018556
173	0x3e2019e6	0.1563488
174	0xbec1fdcf	-0.37888953
175	0x3d21bfbb	0.03948949
176	0x3e727f94	0.2368148
177	0x3f1056f3	0.56382674
178	0xbf414f90	-0.7551203
179	0x3d32fcc8	0.043698102
180	0xbea4a3c6	-0.321562
181	0xbea6fee0	-0.3261633
182	0xbdc45de1	-0.095882185
183	0x3e09035c	0.13380188
184	0xbe44b6f3	-0.19210415
185	0xbba08132	-0.004898214
186	0x3c40643c	0.011742648
187	0x3e1c4be1	0.1526332
188	0xbf3467af	-0.7047071
189	0x3dba6930	0.09102094
190	0x3ea294af	0.31754062
191	0x3d9137e8	0.070907414
192	0xbe581515	-0.21101792
193	0xbea1b614	-0.31584227
194	0x3c4561d0	0.012047246
195	0x3e56deea	0.20983472
196	0xbe1e6bbc	-0.15470785
197	0x3d78a1d0	0.06070119
198	0xbda67ce5	-0.081292905
199	0x3ca2dbed	0.01988026
200	0x3deb6cb6	0.11495344
201	0xbdadec50	-0.08492339
202	0x3cb2c5e4	0.021822877
203	0x3e89e626	0.26933402
204	0xbe810b95	-0.2520415
205	0x3f1461fe	0.57962024
206	0x3d25c1ac	0.040467903
207	0x3da37740	0.079817295
208	0xbe8508a8	-0.25983167
209	0xbedb4665	-0.42827144
210	0xbe19a5db	-0.15004675
211	0x3f142340	0.5786629
212	0xbe0c61ed	-0.1370923
213	0x3e0310b5	0.12799342
214	0xbdd74e10	-0.10512936
215	0xbe7773a0	-0.24165201
216	0x3e59c27b	0.21265595
217	0xbf7b2144	-0.98097634
218	0xbf23b030	-0.63940716
219	0xbceb1460	-0.028696239
220	0xbed727a4	-0.4202243
221	0x3eb02fbd	0.3441142
222	0x3ed92b7d	0.4241599
223	0xbc1fc2e9	-0.00975106
224	0x3e850309	0.25978878
225	0xbe6228dd	-0.220859
226	0x3d8eee2c	0.069790214
227	0x3e804f31	0.25060418
228	0x3e112fe2	0.14178422
229	0x3dc97685	0.09837059
230	0x3e7d3ec4	0.24730974
231	0xbdd7c7f4	-0.10536185
232	0xbe53ec86	-0.20695695
233	0x3e0db9d6	0.13840422
234	0x3f067f5b	0.5253808
235	0x3ea9f8e0	0.3319769
236	0xbe6a117e	-0.22858235
237	0xbe15b5a8	-0.14620078
238	0x3e3e63b9	0.18592729
239	0x3e9bb3c8	0.304106
240	0x3dca2e47	0.09872108
241	0x3ef4ef56	0.4783885
242	0xbebcccee	-0.368751
243	0xbefa86ca	-0.4893096
244	0x3f2c0853	0.672002
245	0xbe757375	-0.23969825
246	0xbdb39821	-0.08769251
247	0x3e40bd44	0.18822199
248	0x3e4385c1	0.19093992
249	0xbe0ba21d	-0.1363606
250	0xbcc67ba9	-0.024228888
251	0xbe36eb5d	-0.17863221
252	0x3ea946c9	0.33061817
253	0x3e8bb04e	0.27282947
254	0xbde1af99	-0.11019821
255	0x3db569d5	0.088580765

fc3.bias f4 [10]
0	0xbd300cc5	-0.042980928
1	0x3ed61902	0.41815954
2	0x3ddca26f	0.10773169
3	0x3e918e91	0.28429082
4	0x3e2eb477	0.1706103
5	0x3e84e9ee	0.25959724
6	0x3efa0736	0.48833627
7	0xbe350de1	-0.17681076
8	0x3eac11d8	0.33607364
9	0x3ea7ac26	0.32748526

fc4.weight f4 [4, 10]
0	0x3e4238e8	0.1896702
1	0xbea94d9d	-0.33067027
2	0x3f062f34	0.52415776
3	0xbeb9910d	-0.36243477
4	0x3dfa1753	0.1221148
5	0x3e69f0d9	0.22845782
6	0xbe155159	-0.14581813
7	0x3e44ecb3	0.19230919
8	0xbd58f48a	-0.052967586
9	0xbe5b1561	-0.21394874
10	0xbea95f54	-0.33080542
11	0x3efeca15	0.4976355
12	0xbee2c2e1	-0.44289306
13	0xbf0aa250	-0.5415392
14	0x3ea4eb52	0.32210785
15	0xbe1897db	-0.14901678
16	0x3e634b58	0.2219671
17	0x3e925bca	0.28585654
18	0xbd49c9d9	-0.049264763
19	0xbebdf6eb	-0.37102446
20	0xbe7acd6c	-0.24492425
21	0xbe020550	-0.12697339
22	0xbe5d6dbc	-0.21623892
23	0x3edc36f7	0.43010685
24	0x3eb3cbfd	0.35116568
25	0xbed71ab9	-0.42012575
26	0xbeeec086	-0.4663126
27	0xbe1ecf9c	-0.15508884
28	0xbece65dc	-0.40312088
29	0x3f0cfaae	0.55070007
30	0x3d2ef053	0.04270966
31	0xbee01287	-0.43764135
32	0xbea9a743	-0.33135423
33	0x3ea4cbf3	0.3218685
34	0xbec21f30	-0.3791442
35	0xbec44e09	-0.38340786
36	0x3d212593	0.039342474
37	0xbe0bad39	-0.13640298
38	0x3ed1fa2a	0.41011173
39	0x3eb742fa	0.35793287

fc4.bias f4 [4]
0	0xbe62e65a	-0.22158185
1	0x3c0a218f	0.008430853
2	0x3c1ff917	0.0097639775
3	0x3e8ee766	0.27910918
