tasks/attack_project/defender/lenet_cifar10_model.pth (torch, 251521 bytes, 12 tensors)

conv1.weight f4 [6, 3, 5, 5]
000000 15 f7 68 be 35 1d 94 be 30 4d c6 bd 4c 6e 67 3d
       -0.22750504 -0.28928533 -0.09682691 0.05650167
000010 96 a1 10 3e 25 e5 39 be 94 0d 71 bd 12 31 bd 3c
       0.1412414 -0.18153818 -0.05885084 0.023094688
000020 cc 0c 83 3d d3 0a 17 bd b4 04 5a bd 85 65 f9 3d
       0.06398925 -0.036875557 -0.05322714 0.121775664
000030 65 70 c8 3d e6 6f 5b 3d 9a 11 99 3d 75 e1 13 ba
       0.097870626 0.05357351 0.0747406 -0.00056412007
000040 a6 bd 50 bd bb ec d8 3d 8a c6 15 3e a4 91 b5 3d
       -0.050962113 0.10592028 0.14626518 0.08865669
000050 a0 99 5b bd 93 b6 b0 3d 64 02 ec bd 8f 29 01 bb
       -0.053613305 0.08628573 -0.115238935 -0.0019708609
000060 56 16 89 3d 20 c0 9d 3d 57 b2 a1 3d bf ab 1c 3e
       0.06693713 0.077026606 0.07895344 0.15299891
000070 71 89 aa 3e f2 4f 99 3e f9 1b 15 be cb eb b1 bc
       0.33307984 0.29943806 -0.14561452 -0.02171888
000080 fa 52 4e 3e 6b 30 e4 3e 6b 00 84 3e c4 7a a4 3c
       0.2014884 0.4456819 0.2578157 0.02007807
000090 3a ad bc 3d 66 2a 85 3e 93 59 11 3e a2 83 fb 3c
       0.09212728 0.2600891 0.14194326 0.030702416
0000a0 42 d6 aa bd 78 5a a3 bd 31 74 8e 3d a1 ae 8a 3d
       -0.08341648 -0.0797624 0.069557555 0.06771589
0000b0 a2 9f 01 be 00 96 68 bd a8 87 ec bd 30 80 56 be
       -0.12658551 -0.056783676 -0.11549312 -0.20947337
0000c0 3c 0a d5 bd e9 1a 28 bd ac fa 0b 3e d7 47 b0 3e
       -0.10402343 -0.04104129 0.13669842 0.3442981
0000d0 70 a2 d3 3e c8 a6 dd 3e 0a a0 9c 3e 5f 64 32 3e
       0.41334867 0.43291306 0.3059085 0.17421101
0000e0 2b 2e 05 3e be 83 c8 3e 4f 2e d5 3e 48 ba 22 3d
       0.13005893 0.3916301 0.41636893 0.039728433
0000f0 19 71 b9 3d b7 56 a0 3e bc 17 74 3e ae 34 1e 3e
       0.09054775 0.31316158 0.23837179 0.15449783
000100 f3 b3 47 3d cc 9c 68 3d 39 58 8b 3d dd a8 8f 3d
       0.048755597 0.05679016 0.068039365 0.0701463
000110 b6 a5 1b 3e d9 cf 0d b9 e0 e7 7c bc 1e d2 97 3c
       0.15199932 -0.00013524237 -0.015436143 0.018532809
000120 e8 94 f4 bb 43 2f e8 bd aa 29 90 bd 27 ab e5 3d
       -0.00746404 -0.113371395 -0.07039197 0.11214285
000130 80 b9 ac 3d ed 68 88 3e a0 5e 6b 3e e5 7d 82 bc
       0.08433819 0.26642552 0.22985315 -0.015929172
000140 ef b9 fd 3d 74 e1 7f 3d c6 b5 1e 3e 9e 7d 77 3d
       0.1238898 0.06247087 0.15499029 0.060422532
000150 05 78 38 3e 08 b2 72 be 71 c4 22 bf 88 27 50 bf
       0.18014534 -0.23700726 -0.63580996 -0.8131032
000160 27 4e 10 bf 1e 60 f1 bd 89 0c 51 bd 77 6d bd be
       -0.5636925 -0.11785911 -0.051037345 -0.36997578
000170 be 8d 07 bf bd 84 95 be 47 fd 62 bd a5 1c 01 3f
       -0.52950656 -0.29202834 -0.055417325 0.50434333
000180 e4 a3 e7 3e ee 0a 07 3f 71 2d ed 3e f9 b0 d5 3e
       0.45242226 0.5275105 0.46323732 0.41736582
000190 83 71 2e 3e 9d 4f 97 3e 91 d6 08 3f d8 b3 9b 3e
       0.17035489 0.29552928 0.534524 0.30410647
0001a0 b3 f2 41 bd 7b ea ce 3d 64 e5 09 3f 0c a0 dd 3e
       -0.047350597 0.10103317 0.5386565 0.4328617
0001b0 c1 24 84 3e bb 1e 93 3e bc 07 a2 be 5c 9b 0c bf
       0.2580929 0.28734383 -0.31646526 -0.5492456
0001c0 d0 a3 36 bf de 7b 25 bf 77 31 67 be 34 7b 97 be
       -0.7134371 -0.6464213 -0.22577463 -0.29586184
0001d0 05 99 0e bf 35 76 2e bf 88 30 1c bf f0 ad be be
       -0.5570224 -0.6814912 -0.6101155 -0.3724208
0001e0 86 6e 1c 3e 37 c6 ac 3e ca 6b dd 3e c4 55 93 3e
       0.15276536 0.33744976 0.432463 0.2877637
0001f0 4f 39 d3 bd 94 1f 44 bd 47 7a 34 3e 83 14 0b 3f
       -0.10313665 -0.047881678 0.1762477 0.54328173
000200 47 2b b7 3e eb 11 58 3d de c9 83 3e d5 32 21 3f
       0.35775205 0.052751463 0.2573995 0.6296819
000210 5b 4c 1b 3f 15 a4 e1 3e 84 8c 4f 3e f4 63 41 be
       0.60663384 0.44070497 0.20268446 -0.18885785
000220 f2 cb ba be 23 12 b7 be 41 dd f8 be 1e ca 79 bd
       -0.36483723 -0.35756025 -0.48606303 -0.06098377
000230 ce 22 8e bd 80 36 00 bf a4 85 08 bf 31 91 e4 be
       -0.06940232 -0.5008316 -0.5332892 -0.44642022
000240 e9 9b 54 be 8b 59 0a bc 1f 30 20 3e 05 52 97 3e
       -0.207626 -0.0084442 0.15643357 0.29554763
000250 c9 98 35 3e cd 30 3e bd 19 21 98 bd b4 64 7f be
       0.17734064 -0.04643326 -0.07428188 -0.24940759
000260 ba 68 eb bb 26 8b 49 3e 77 7f db 3d 9b 8e a6 be
       -0.0071841152 0.19681987 0.10717671 -0.32530674
000270 1d 06 01 bf 2f df 3f 3e e6 18 ce 3e 46 b9 d1 3d
       -0.50399953 0.18737482 0.4025337 0.10240416
000280 01 0d fb be a3 db df be ee c5 0c 3f e0 85 d3 3e
       -0.4903336 -0.43722257 0.54989517 0.41313076
000290 6d d9 84 3d c3 9f e3 be e1 c9 04 bf 61 d9 ff 3e
       0.06486783 -0.44457826 -0.5187054 0.49970534
0002a0 51 bf f8 3e 37 c5 db 3d 29 1b d6 bd f6 33 83 be
       0.48583463 0.10730975 -0.10454399 -0.2562558
0002b0 51 58 15 3d 96 09 ab 3e 57 37 b9 3d 86 1a 3f bc
       0.03646118 0.3340575 0.09043758 -0.0116640385
0002c0 23 19 d4 be e8 e2 ed 3c 8f aa d4 3e 25 8e 67 3e
       -0.41425428 0.029038861 0.41536376 0.22612818
0002d0 8d f6 8d be 13 4b f1 be 66 0f 8a 3e 43 ca 04 3f
       -0.27727166 -0.4712759 0.26964873 0.51871127
0002e0 ae 28 ae 3e 71 84 1f bf 00 d2 0c bf ef 64 c1 3e
       0.3401541 -0.62311465 -0.55007935 0.3777232
0002f0 3c df 0c 3f 39 61 d5 3d e5 a6 c9 be e1 2d 98 be
       0.5502813 0.104189344 -0.39385143 -0.29722503
000300 23 1d f0 3e 05 00 dd 3e 67 61 3f 3e 87 fd 16 be
       0.4689723 0.43164077 0.186895 -0.1474515
000310 3b 3f a8 be 66 56 a3 3d 6d d4 e5 3e a6 6f 49 3e
       -0.3286074 0.079754636 0.4488863 0.19671497
000320 4a 3f a8 be 80 73 f1 be 16 14 96 bd 3f a3 76 3e
       -0.32860786 -0.47158432 -0.0732805 0.24085711
000330 81 3a da 3d 22 99 f3 be 8a 07 2c bf 63 6f 26 3e
       0.1065569 -0.4757777 -0.67199004 0.16253428
000340 db 26 12 3f b3 49 d1 3c ed 9f 20 bf b3 0a 31 bf
       0.5709054 0.025547838 -0.6274403 -0.6915695
000350 18 3f e0 3e 60 e6 08 3f 33 ea 29 bd 1f 3f f8 be
       0.43798137 0.53476524 -0.041483115 -0.48485658
000360 aa 2b 15 bf d1 3e 98 3e d4 d3 df 3e 40 bb 5c bd
       -0.5826975 0.29735425 0.437163 -0.053889513
000370 30 00 e0 bd 2e 12 be be d0 61 fe bd 4a bf 8b 3e
       -0.10937536 -0.37123245 -0.12421 0.2729438
000380 44 db 12 3e e5 3e a0 be 4b 6f b0 be f5 93 d8 be
       0.14341456 -0.31297985 -0.3445991 -0.42300382
000390 22 a6 5d be 2f bf 4d 3b 05 a1 74 be 0c b9 f3 bd
       -0.21645406 0.0031394472 -0.23889549 -0.11900529
0003a0 88 f9 1e be 41 45 57 be 58 84 d2 bd 24 ae 59 3e
       -0.15524876 -0.21022512 -0.10279149 0.21257836
0003b0 0c a7 51 3e f1 65 86 3e 98 12 85 3e 86 e9 b9 3e
       0.2047388 0.2624965 0.25990748 0.36310977
0003c0 ef 96 6c 3e 67 55 f5 3e c6 14 26 3f f4 c5 33 3f
       0.23104452 0.4791672 0.6487545 0.7022393
0003d0 bc b1 16 3f 1e ad 75 3e 5e 43 0d 3e 55 25 8e 3e
       0.5886495 0.2399182 0.1379523 0.27762857
0003e0 c4 95 86 3e 11 6d b3 3e 6a af 75 3e 76 c7 9c 3e
       0.26286137 0.3504415 0.23992696 0.30620927
0003f0 bd cd da 3d ce cd a2 3e 59 37 9e 3e e3 76 87 3e
       0.10683773 0.31797642 0.30901602 0.2645789

conv1.bias f4 [6]
000000 1c 15 0e bf 87 db 7c bc 0b 05 de 3e 28 a1 81 bd
       -0.5550096 -0.015433199 0.43363222 -0.06329566
000010 78 75 62 be 3c a9 0b be
       -0.22115123 -0.13638777

conv2.weight f4 [16, 6, 5, 5]
000000 0b a7 0a 3e 29 a0 08 3e bd 45 8d 3e 27 e0 05 3e
       0.13540284 0.13342346 0.2759227 0.13073789
000010 f8 b3 59 3e c4 86 c2 3d 41 2d 19 3e 99 f1 90 3d
       0.21260059 0.09498361 0.14958669 0.07077331
000020 6d c6 c5 bd c8 da 43 be 56 fa 17 bd 90 0c 98 bd
       -0.09656987 -0.19126427 -0.037103973 -0.07424271
000030 8e 84 d2 bd 09 e4 7c be d6 64 ac be b7 d0 9b bd
       -0.10279189 -0.24696364 -0.33670682 -0.076081686
000040 84 f3 43 be 2d 86 2b be f7 48 2b be 25 df a3 be
       -0.19135863 -0.16750403 -0.16727053 -0.32006183
000050 d4 16 0f 3e d6 42 b9 bd 12 72 49 be 29 2c 97 be
       0.13973552 -0.09045951 -0.1967242 -0.2952588
000060 a0 79 a1 be c2 40 a0 bb 4e 3b 2a 3e 64 4c c7 bd
       -0.31538105 -0.004890532 0.16624185 -0.09731367
000070 a6 9a 71 be 66 9f 21 be 45 8b 0f 3e ed fa bc bd
       -0.2359415 -0.15783462 0.14017971 -0.09227548
000080 41 3b 14 be e1 52 2d be 0f 06 7a 3b 22 f6 ab 3e
       -0.14475729 -0.16926147 0.0038150584 0.33586222
000090 86 4c 14 3d 6b da 79 bd ee 91 80 bd 9f cb 5e bd
       0.03620579 -0.060999315 -0.06277834 -0.054393407
0000a0 27 e4 41 3e 17 dc ca 3d 77 cc 41 3e 0a b9 ce bc
       0.1893469 0.0990526 0.18925653 -0.025234718
0000b0 d2 2d e6 3c a1 f7 2a be a3 f8 8a 3e 3b e6 b5 3e
       0.02809802 -0.16696025 0.2714282 0.35527214
0000c0 72 14 9b 3e 1b 0d 3e 3e fd 83 19 be 26 41 41 bc
       0.30289036 0.18559687 -0.14991756 -0.011795318
0000d0 6f f2 14 be a7 ad 8e bd 5b 5b 6a bd 60 7c 84 bc
       -0.14545606 -0.06966715 -0.05721603 -0.016172588
0000e0 18 c9 4c 3d 5b 14 6e 3d 65 2e ee bd b4 db 89 bc
       0.049996465 0.05812488 -0.11629943 -0.016828395
0000f0 07 88 97 3e cd 56 90 3e 3d 21 e5 3d a0 95 0b 3d
       0.29595968 0.28191224 0.1118798 0.03407824
000100 03 bd f0 bd e7 bb 88 bc a7 14 4b 3e f7 2d 55 3e
       -0.11754801 -0.016691161 0.19832097 0.20818315
000110 97 f3 36 bc e8 c7 2f 3e a4 ef 24 bf ca 61 1d 3d
       -0.011166475 0.17166102 -0.6442816 0.038423337
000120 34 e4 1e be 13 47 06 be 17 fb 61 3e 0d ac b7 3d
       -0.1551674 -0.1311305 0.2206844 0.08968363
000130 62 1b 7e 3b e4 38 ca 3d ac ca 37 3e 25 b8 1e 3e
       0.0038773646 0.09874132 0.17948407 0.15499933
000140 8e 7c 74 3e 1d 2e c7 3e 88 6e dd 3e 1a 1a a0 3e
       0.23875639 0.3890237 0.4324839 0.31269914
000150 fb d8 b6 3c 06 7b 39 bd bb b1 89 3e e4 08 e7 3e
       0.022320261 -0.04528334 0.2689341 0.4512397
000160 86 bb 2a 3e 1e 26 d4 bd 5f 07 7f be e6 17 b3 bd
       0.16673097 -0.10358833 -0.24905156 -0.08744793
000170 b9 c4 a7 3b 5f 88 eb bd ee d2 d6 bd aa 79 ba be
       0.0051198867 -0.1150062 -0.104894504 -0.36420947
000180 49 15 98 be 00 9e f5 be 83 f4 c8 be a6 f6 d4 be
       -0.2970374 -0.47972107 -0.39249048 -0.41594428
000190 ed 1e e3 3c cd 9d 9e 3d 5e 5f 46 3d 08 8b 0d be
       0.027724707 0.07744942 0.048430793 -0.13822567
0001a0 64 fd 8c 3d ec b1 89 3c e5 b8 d0 3d 76 b4 15 3e
       0.06884268 0.016808473 0.10191516 0.14619622
0001b0 a2 98 67 3d 0d a8 8d 3d 8f af 99 3d 24 30 3b 3e
       0.056542046 0.06916819 0.07504188 0.18280083
0001c0 a6 70 06 3e 57 aa 58 3e ea 40 1e 3e 9c 3a d9 bd
       0.1312891 0.2115873 0.1545445 -0.10606882
0001d0 fc 94 12 3e d2 ee b5 3d 7d 76 6b 3d c4 d1 9c 3d
       0.14314646 0.08883442 0.057486046 0.07657197
0001e0 f2 10 81 be ab 0c 3d be 73 b6 0f be 43 28 4a be
       -0.2520824 -0.18461864 -0.14034443 -0.19741921
0001f0 fe 85 3d be 11 35 0d be 19 d3 c9 3d d2 b7 7f 3d
       -0.18508145 -0.13789774 0.09854717 0.062431164
000200 54 14 72 bc 7d 76 19 3e 4d 1a 54 bd b2 c7 54 3d
       -0.014775354 0.14986606 -0.051782895 0.051948257
000210 7c 9b 67 3e 20 8e 19 3e 41 a5 4e 3e e6 cf 86 3d
       0.22617906 0.14995623 0.20180227 0.06582622
000220 dc e8 47 3d 70 93 c2 bd 52 28 11 3d 4b f2 6e 3e
       0.048806056 -0.09500778 0.035438843 0.23334615
000230 75 d6 a5 3d 8a 09 29 3e ec 54 26 3d 74 6a 5f bc
       0.08097545 0.16507545 0.04060833 -0.01363622
000240 4c 58 82 3d 0e 97 51 bc 38 1b 0e 3e 9f 8e 18 3e
       0.063644975 -0.012792362 0.1387757 0.14898156
000250 c4 93 3e bd 00 1f 21 bd 28 0f e1 3e ad 38 e5 3e
       -0.04652764 -0.039336205 0.43956876 0.44769803
000260 6a e5 aa 3e d5 a2 c5 3d 22 ba 62 3e b9 f6 18 3e
       0.33378154 0.09650198 0.22141317 0.14937867
000270 73 40 e1 3d 72 16 97 3c f5 6a cc bd 12 1a 6f 3d
       0.10998621 0.01844332 -0.09981338 0.058374472
000280 86 6f 8b bc dc e2 0e be c0 ce 2d be 7a 88 e7 bc
       -0.017020952 -0.13953727 -0.169734 -0.02826332
000290 5a b7 9e 3d 25 c7 a2 bd 93 51 88 be 84 4c d6 bd
       0.07749815 -0.0794814 -0.26624736 -0.10463813
0002a0 a7 80 2d bd f0 9b a9 bd 6f b3 8b bd 48 b3 d4 bd
       -0.04235902 -0.08281696 -0.068213336 -0.10385758
0002b0 7e 39 3a be de 3e 82 bd 28 2e 66 be 1a c9 9f 3d
       -0.18185994 -0.06359647 -0.22478545 0.07802029
0002c0 13 e1 39 bc 6a 26 29 bc 21 b7 85 be c0 fb 97 be
       -0.011345166 -0.0103241 -0.2611628 -0.29684258
0002d0 96 69 ce b8 88 b2 21 bd 48 4b 04 be 43 8b 85 be
       -9.8425124e-05 -0.0394769 -0.12919343 -0.2608281
0002e0 92 3d 88 bd 21 91 e3 bc 26 65 93 bd 6c 91 ec bd
       -0.066523686 -0.027779164 -0.07197027 -0.115511745
0002f0 50 53 4b be 0f 86 24 bd b3 fa 54 be b7 64 0b be
       -0.19856 -0.04016691 -0.20798759 -0.13612638
000300 f7 dc 14 be b9 f7 df bd 27 d8 ea bd 0e 3c 0a be
       -0.14537416 -0.10935921 -0.11467009 -0.13499472
000310 2d 0f a9 bd 77 17 dc bd 36 6f 9d bd 4c 0a 61 bd
       -0.08254848 -0.10746663 -0.076872274 -0.05494146
000320 ef ca 86 bd ef 41 a3 bd 4a f8 ad bd e3 ee 23 be
       -0.06581675 -0.0797156 -0.08494623 -0.16009097
000330 25 c8 87 bd 7e 31 03 3d 4b 6d 48 be 3d 09 13 be
       -0.066299714 0.03202962 -0.19572942 -0.14358993
000340 46 f4 a5 3d 9f 1d 3f be c0 a0 3e 3d 36 76 18 bd
       0.08103232 -0.18663643 0.046540022 -0.03722211
000350 a3 22 33 be e5 96 50 3d be 0b 46 be 85 27 94 ba
       -0.17493682 0.050925154 -0.19340417 -0.0011303282
000360 af 60 25 be 2d 5b c9 bb 0a 72 40 3e da ff 5a be
       -0.16150163 -0.006144902 0.18793502 -0.21386662
000370 9a ff 92 3e 02 76 68 bd aa 1a 81 bd d7 28 63 3e
       0.28710634 -0.056753166 -0.06303914 0.22183548
000380 30 97 56 be 2e 5c 39 be c7 c1 08 be 87 74 34 bd
       -0.20956111 -0.1810157 -0.1335517 -0.04405644
000390 5a b8 91 bd e9 b2 05 3c 12 32 22 be de d7 ae 3d
       -0.071152404 0.008160331 -0.15839413 0.08537267
0003a0 2c 38 57 bd d1 a3 54 3c 5d a0 25 3d dc bd 9c 3d
       -0.052543804 0.01297851 0.040436137 0.076534
0003b0 4a 45 51 3d 56 9e 99 bd c0 31 be bc 09 09 06 3b
       0.05109147 -0.07500903 -0.023217082 0.0020452163
0003c0 e5 b4 33 bd 37 15 e3 3d b2 c9 c2 3d ee 75 c1 3d
       -0.043873686 0.11088031 0.095111266 0.094463214
0003d0 6e 6a 16 3e 3b 03 d9 bd 30 9f 1b be f5 27 c8 bd
       0.14689037 -0.10596319 -0.15197444 -0.09773246
0003e0 4e dc b6 3c cf c0 eb 3d 31 d1 8e bb ef 57 45 bd
       0.022321846 0.11511385 -0.0043584337 -0.048179563
0003f0 16 19 0f be 91 0d fb bd f2 7c 2a 3e dd 81 3e bd
       -0.13974413 -0.12258447 0.16649225 -0.046510566

conv2.bias f4 [16]
000000 15 01 91 bb aa ec e0 be 96 ed fd be d7 cb 03 bb
       -0.004425178 -0.4393056 -0.49595326 -0.0020110512
000010 9f fa 57 3e dd d5 a3 be 7f 8e bd 3d cb 0a c7 be
       0.21091698 -0.31999102 0.092556946 -0.38875422
000020 97 d9 03 be aa 14 1d be bb 29 14 3e a4 e3 4c 3e
       -0.12875973 -0.15339914 0.14469044 0.20008713
000030 75 dd 72 3e 17 02 89 bb 2a bf 21 3f 10 48 3d be
       0.23717292 -0.0041811573 0.6318232 -0.18484521

fc1.weight f4 [120, 400]
000000 17 e6 9b bd 67 16 3b 3d b0 11 cd 3c a6 54 99 3d
       -0.076122455 0.04567566 0.025032848 0.074868485
000010 b8 38 49 bd 8a 76 a2 3d e2 66 0a 3d b5 20 8d 3d
       -0.049126357 0.07932766 0.033789523 0.06891004
000020 22 25 22 bc cb 71 0e be 46 ec 48 3d 11 74 c5 3d
       -0.009896548 -0.13910596 0.049053453 0.096412785
000030 d9 ed 99 3b fd 27 09 3d d0 6b 8f bd 72 b1 7b bd
       0.004697543 0.0334854 -0.070029855 -0.061448522
000040 1a 4d 40 3b 00 17 3b bd 8d 70 89 3d 92 0b d9 bd
       0.002934283 -0.04567623 0.067109205 -0.1059791
000050 64 98 13 bd f1 29 da 3a e4 2a 10 bd 25 5e ff bd
       -0.036034003 0.001664458 -0.035197154 -0.124691285
000060 8b 6f c7 bd c9 16 78 bd 09 71 27 bc 3f a3 53 bd
       -0.09738072 -0.060568605 -0.010219821 -0.051669355
000070 2c 9d 3d 3d 53 5b 8a 3d b4 b8 8e 3d 9d 5e 5b 3d
       0.04629247 0.067557 0.06968823 0.053557027
000080 30 f7 a4 bc a1 65 21 bd a3 1b a0 bc eb 91 28 bd
       -0.0201374 -0.03940356 -0.019544428 -0.041154783
000090 15 7f a6 3c fb 52 32 3d c3 41 9d bd ce c3 a2 3d
       0.02032427 0.043536168 -0.07678559 0.07947503
0000a0 ad e2 7f 3c 69 ee 09 3c 89 1b 9a 3d b9 c8 1b bc
       0.015618009 0.008418658 0.07524783 -0.009508305
0000b0 d1 40 6f 3d c1 66 13 3e a4 73 f9 bc 7e d7 95 bc
       0.058411423 0.14394666 -0.03045065 -0.018291231
0000c0 4b 70 1b 3d 8e 92 a8 3d e1 dd 22 3d b6 f8 bc 3d
       0.037948888 0.08231078 0.03976238 0.09227125
0000d0 17 53 5b 3d da da dc b9 55 73 ea 3d 6f c4 71 bd
       0.053546038 -0.00042124727 0.11447779 -0.059025224
0000e0 0c 3b 4f 3d 0d 95 6f 3d b6 e7 05 3c 86 e7 3d 3d
       0.05059342 0.058491755 0.00817292 0.046363376
0000f0 39 d5 5b bd d0 62 f4 3c f6 9c 13 3e a3 fe 00 3e
       -0.05367014 0.029832274 0.14415345 0.12597136
000100 91 55 08 bc 55 b0 60 bd 6c e8 a0 3b 94 91 bc 3d
       -0.008321182 -0.054855663 0.0049105193 0.09207454
000110 85 d6 81 3d 54 e8 94 bc 10 28 41 3d 00 34 5f 3d
       0.063397445 -0.018177189 0.047157347 0.05449295
000120 8f 4e 7e 3d ee cd b4 3d 12 62 cf 3d 41 72 7f 3d
       0.062086638 0.088283405 0.10126127 0.06236482
000130 75 e2 4d 3c 89 6c b8 3d b7 31 01 3e 04 de a6 3c
       0.012566199 0.090050764 0.12616621 0.020369537
000140 a8 3f bd 3c 67 42 4e bd 26 ec 22 3d 92 0b 05 3e
       0.023101643 -0.050356295 0.03977599 0.12992695
000150 bc 4e 01 bd cf 21 93 bd 1c 9e 12 3d dc 38 7e bd
       -0.031569228 -0.07184183 0.035795316 -0.062065944
000160 fc 40 1c 3d 5e 7e 36 bd 44 de ab 3d 56 2f 90 3d
       0.03814791 -0.044554107 0.08392003 0.070402786
000170 80 0d 2c 3d 08 eb 83 bc ea e0 ab 3c ea 1e 77 3d
       0.042005062 -0.016103283 0.02098127 0.060332216
000180 b2 d1 a0 bc c5 ed 1d bd 25 41 6d 3c 85 2f 05 3e
       -0.01963124 -0.038556833 0.014480864 0.13006409
000190 61 ca 85 3c 00 97 f9 3c d0 e5 c9 3c 57 14 cb bd
       0.016331853 0.03046751 0.024645716 -0.09915989
0001a0 1b b9 8c bc 14 5f e1 3a e1 bd 1c 3c f1 ee 85 3b
       -0.017178109 0.0017194473 0.009566755 0.004087322
0001b0 19 46 f3 3b 41 44 b1 3b f6 76 00 3c 60 15 ac bc
       0.007424128 0.005409748 0.0078408625 -0.021006286
0001c0 2c 4c b3 bd 67 02 93 bc d3 3f 0b bd e5 57 6c bd
       -0.08754763 -0.017945481 -0.033996414 -0.05770101
0001d0 c9 00 10 3c 93 9a e5 bc f0 67 93 3b ee c2 fe bc
       0.00878925 -0.028027808 0.0044984743 -0.03109881
0001e0 a0 cd 50 3c 1c fb ff bd 9a 4a 80 bd 35 8e 0b bd
       0.012744337 -0.12499067 -0.06264229 -0.034071166
0001f0 6d 96 1d bc 35 e3 55 bb c8 bc a0 3c 82 f2 1f 3d
       -0.009618384 -0.0032636647 0.019621268 0.039049633
000200 8b cc 6f bc be e7 d0 bb f7 99 8c bc 5e 1a 37 bd
       -0.014636169 -0.006375282 -0.01716326 -0.04470288
000210 8e b5 26 3d bb 3c 2f bc c6 ed 4a 3d ff dd 2c 3d
       0.040700488 -0.010695632 0.049543165 0.0422039
000220 a5 51 a0 3b 56 3d 2d bd 2d 0d 1f bd 30 79 11 3c
       0.0048925453 -0.042294823 -0.038830925 0.008878991
000230 0b 44 8f 3a d2 7f 76 bd b6 da 54 3d 41 e6 5e 3d
       0.0010930313 -0.060180493 0.05196639 0.054418806
000240 3d 5f 5c 3d 6a 84 0f 3d f9 c7 c1 3d a9 f5 80 3d
       0.053801764 0.03503839 0.0946197 0.06296856
000250 1f 32 50 3d a3 a8 28 bd b4 61 f2 3d 12 a6 27 3b
       0.05082905 -0.04117645 0.11835042 0.0025581163
000260 1e 96 6a bc bc 11 9b bb de 0d 53 3d 73 1a 8d bc
       -0.014318017 -0.0047323387 0.051526897 -0.017224526
000270 a0 26 d4 bb 9c 0e 51 3c 78 62 38 bd fd 7c 4f b9
       -0.006474331 0.012759831 -0.045015782 -0.0001978762
000280 c0 ea 37 bd 63 4a 28 3d 12 7b 28 3d 65 04 fb bb
       -0.04490161 0.041086566 0.041132994 -0.007660436
000290 36 22 a4 3c 0f 25 3c bc 29 87 86 bc b0 fd 46 bc
       0.020035844 -0.011483445 -0.016421871 -0.012145445
0002a0 02 36 72 bc 46 60 01 be e1 ce c5 bc 30 b8 4b 3c
       -0.014783384 -0.12634382 -0.0241465 0.01243405
0002b0 31 ee 5c bc ff 98 69 3c 2d f8 25 bd 7c 21 93 3d
       -0.013484524 0.0142576685 -0.040519882 0.07184121
0002c0 fa 0e 43 bd bd a6 9b bd 23 36 c0 3c 22 5b ac 3b
       -0.047621705 -0.07600162 0.023463314 0.0052598873
0002d0 c6 df 8a 3c 99 1c 36 bd a7 ab 95 bd d3 dc e7 bd
       0.016952407 -0.044460867 -0.07308131 -0.11321416
0002e0 4b 05 cc 3c 98 c4 e6 3c 93 5d 45 3d 0c f1 93 3d
       0.024904868 0.028169915 0.048184942 0.072237104
0002f0 c2 b3 24 bd 4b 24 ce bb e1 55 06 3d 7e e2 31 bd
       -0.040210493 -0.0062909476 0.032796744 -0.04342889
000300 41 b9 f6 3b 08 59 ed bc 19 6a e9 bd 2a b3 dc bc
       0.007529408 -0.028973117 -0.1139719 -0.0269409
000310 cc 13 cf bd 04 4f c8 bd 69 6f 93 bd 19 ea dd 3c
       -0.10111198 -0.09780696 -0.07198984 0.027089166
000320 89 59 8c bb f0 d7 21 bd b4 54 78 3c 8e c1 00 3e
       -0.0042831344 -0.039512575 0.015156914 0.12573835
000330 cd 05 95 bc 24 e6 ee 3c 87 21 33 3d 8a fb 88 bb
       -0.018191243 0.029162474 0.043733146 -0.0041803764
000340 a7 b7 61 3c 9c 18 d3 3b 3d 72 e4 3a c6 6f 86 3d
       0.013776696 0.0064421427 0.0017429065 0.06564288
000350 33 ec 5a 3d 39 fb 30 3b c9 52 5d 3d 89 28 a7 3d
       0.053447913 0.002700521 0.05403403 0.08162028
000360 f7 fb 28 bd 38 67 fc bb f6 bb 60 3c 7d d0 cf bb
       -0.041255917 -0.0077027343 0.013716688 -0.0063419924
000370 7a 31 d3 3c 8d 60 44 3c f0 dc fe bd c8 0a d7 3b
       0.025780428 0.01198591 -0.12444484 0.0065625645
000380 ef 21 57 bd 83 d3 e0 3a 6c 59 23 bc 8c 62 54 3d
       -0.052522596 0.0017152879 -0.00997005 0.051851794
000390 17 06 18 3d 56 5b 64 3b 5f c8 b2 bd 4a 87 9c bd
       0.037115183 0.003484448 -0.08729624 -0.07642992
0003a0 18 db b9 bc d0 e0 c5 3b a4 a3 38 bd cb 15 a3 bd
       -0.02268748 0.0060387626 -0.045077935 -0.07963141
0003b0 12 3f 08 3d 73 82 ad 3d 6a 3f ed 3d b6 4f 57 3d
       0.033263274 0.08472147 0.11584361 0.052566253
0003c0 13 e7 a2 3d 43 83 84 bd 5c 31 da 3d 4a f1 36 3d
       0.0795423 -0.06470349 0.10653946 0.044663705
0003d0 a9 d2 b4 bd ae 87 a5 3c 09 e4 be bd 9b e0 dd bc
       -0.08829243 0.020206299 -0.09320838 -0.02708464
0003e0 12 c4 01 bd 2a 96 50 bd d8 76 4c bb 7a 58 33 bd
       -0.031681128 -0.050924458 -0.0031198766 -0.04378555
0003f0 2d e0 3c bd 5f 08 a2 3d 6b 00 2b bc 53 62 84 bd
       -0.04611223 0.07911753 -0.010437111 -0.06464066

fc1.bias f4 [120]
000000 62 3f 80 bd ac 74 0b bd e9 b3 0f 3e c5 a8 f8 bc
       -0.06262089 -0.034046814 0.14033474 -0.030353913
000010 d6 d4 cf 3b 67 12 c0 3c 01 55 dc 3b 1d 53 5a bd
       0.0063425107 0.023446275 0.0067240004 -0.05330192
000020 dd 08 2c 3c da cf 99 bc c6 7e 34 bd df 5e 8a bd
       0.01050016 -0.01877587 -0.044066213 -0.067563765
000030 80 ac 73 3c 3f ee 41 bd 06 94 2e bd 59 b6 2b 3d
       0.01487267 -0.04734635 -0.042621635 0.041921947
000040 47 27 f9 bc ce 83 41 bd 82 54 68 bd 34 b5 82 bd
       -0.030414237 -0.04724484 -0.056721218 -0.06382218
000050 e1 76 4b 3d 62 a6 52 bc 4c 57 46 3d b6 97 3a 3d
       0.04967392 -0.012857052 0.048423097 0.04555484
000060 b0 e3 1b 3d 35 21 34 bb 83 d6 34 3e d0 5a fc 3c
       0.038058937 -0.0027485613 0.17659955 0.030805022
000070 ce 88 ba bc e4 62 1b b9 37 7a 81 bd 7b 45 06 bd
       -0.022770312 -0.00014818792 -0.06322139 -0.032781105
000080 84 11 3e bd 97 d7 34 bd 62 57 89 3d 8a 23 39 3c
       -0.046403423 -0.044150915 0.0670612 0.011299977
000090 a6 5f a9 3d 74 e1 ea bb a7 b2 e3 bd b5 c6 a4 bd
       0.082701966 -0.0071679894 -0.111180596 -0.08045713
0000a0 d2 7f 9a bc 2f a3 15 3d 32 fd 65 bd c0 92 c8 bb
       -0.018859778 0.036532577 -0.05614967 -0.0061210096
0000b0 96 a5 36 bd b4 fb 8f bc b7 51 8a 3e 94 1e 2f 3d
       -0.04459151 -0.017576076 0.27015468 0.04275377
0000c0 54 fb cb 3d 22 b3 70 3d 20 92 1a bd 36 de 8c bd
       0.099600464 0.058764584 -0.037737012 -0.06878321
0000d0 45 dc 81 bc ed 6d 66 be 1d 52 11 bd 81 87 a0 3d
       -0.015852103 -0.22502871 -0.0354787 0.07838345
0000e0 15 6d be 3c 46 58 83 bd 18 65 d9 3d 05 d9 6b 3c
       0.023245374 -0.06413321 0.10614985 0.014395003
0000f0 a7 f1 10 3c 9b c1 75 bd b1 07 a2 3b 5d f0 e8 3d
       0.008846677 -0.05999909 0.0049447645 0.11373971
000100 5d 14 4f 3d 7c b4 5e 3e 49 a3 51 bd e4 27 ba 3d
       0.05055653 0.21748537 -0.05118111 0.0908964
000110 3b df 9f bc 66 ad 3f be bb a4 54 bb 1e 09 db bd
       -0.019515624 -0.1871849 -0.003244682 -0.10695098
000120 0c a6 31 bc 92 f2 cd 3d 27 0a fd bd 2f b1 1e 3e
       -0.010842811 0.10056032 -0.12355452 0.15497278
000130 f7 bd 84 3c 21 36 fb 3b 9e 7f 1b 3d de 8e 79 3c
       0.016203864 0.007666365 0.037963502 0.015231816
000140 d9 06 af 3d 26 11 9c 3d 98 18 63 bd 80 74 6f 3d
       0.08546228 0.07620458 -0.055443376 0.058460712
000150 86 ec 5e 3b 88 57 13 3e 2f a1 57 bd 66 43 0f 3d
       0.003401549 0.1438886 -0.05264395 0.034976386
000160 b4 f0 ea 3d 97 b7 2c 3e c1 de b8 bd f5 e1 f1 3c
       0.11471692 0.16866909 -0.09026862 0.02952669
000170 19 37 3b bd 16 c1 65 3d b7 9f 0b 37 35 f5 8a bd
       -0.045706842 0.056092344 8.322232e-06 -0.06785051
000180 20 91 ba bd 68 2e 1f bd ed ec 8f bc 2f af 3e bd
       -0.09109712 -0.038862616 -0.01756903 -0.046553787
000190 e8 d7 79 bd 82 ae 5e 3d 6c 11 84 3a cc 5b 8d 3c
       -0.06099692 0.054365642 0.0010075993 0.017255686
0001a0 7e a5 04 bc 89 52 10 bd 42 13 60 bd d8 e6 42 3d
       -0.008096097 -0.03523496 -0.054705866 0.04758343
0001b0 2d c8 5e 3d 22 d2 2f 3b 0c 5c 26 3e d0 85 f9 3d
       0.05439012 0.002682813 0.1624605 0.12183726
0001c0 0e d2 c6 3c e4 5a a9 3b 5c 57 f0 3b 2f 21 91 bd
       0.024270084 0.0051683057 0.007334633 -0.070864074
0001d0 38 eb 2f bd 4f 3a c1 bb 89 9a 8d bd 7c fa 8b bd
       -0.04294893 -0.0058968435 -0.06914241 -0.068348855

fc2.weight f4 [84, 120]
000000 6a 73 00 3e 52 68 27 bd 55 6e a0 bc a3 99 cf bd
       0.12544027 -0.040870972 -0.01958386 -0.10136726
000010 51 ae 50 3d 2e 1f db bd 81 66 eb bd 00 c5 61 3d
       0.05094749 -0.106993064 -0.114941604 0.055119514
000020 07 ab 9d 3d 7b 0c c5 3c b7 51 bc 3b 93 28 f0 3d
       0.076986365 0.024053803 0.005747046 0.11726489
000030 2a 19 e5 3c 9d 11 93 3d 56 79 33 bd 5a 03 61 bd
       0.0279661 0.07181094 -0.043816887 -0.054934837
000040 42 a0 bc 3c 5e d2 ad 3d 2a c2 66 3d 84 f6 fa 3d
       0.023025636 0.0848739 0.056337513 0.122540504
000050 92 6e 6e bd 42 91 81 3c 6c 5d ac 3d 36 98 53 3c
       -0.058210917 0.015816335 0.08416256 0.012914708
000060 c9 69 61 3d bb ab f5 3d fd 17 99 bd a1 cf 9d bd
       0.055032525 0.119956456 -0.074752785 -0.07705618
000070 27 bf 7c bd bc be b6 bc 7e 19 3e bd 44 a9 2e bd
       -0.061705735 -0.022307746 -0.04641103 -0.042641893
000080 82 b5 ea 3b e4 ff e0 3d c8 fd ac 3d c3 47 91 bd
       0.0071627507 0.10986307 0.084468424 -0.070937656
000090 38 48 40 3d 88 79 b4 3d 80 69 bc bd 4e a5 1f bd
       0.046943873 0.08812243 -0.0919981 -0.038976006
0000a0 7b 86 77 bd 61 5c e6 3d 7b 7f 80 3d 53 c1 b6 bc
       -0.060430985 0.11248089 0.06274315 -0.022308981
0000b0 25 f2 b5 3d 95 cb 5e 3d 12 a7 35 3d 05 6d 9c bd
       0.08884076 0.05439337 0.044348784 -0.07637981
0000c0 d2 72 2b be 31 fb 17 3d 4d 33 bc bc 78 18 b1 bc
       -0.16743019 0.03710479 -0.02297368 -0.021618113
0000d0 7c 98 b1 3d e9 c8 89 3c c6 96 1d 3d 18 66 cd bd
       0.08671662 0.016819434 0.038473867 -0.100292385
0000e0 a1 0a 2b bd 7c 30 3d 3c b2 64 26 bd ce 5d 7d 3c
       -0.041758183 0.011547204 -0.040623374 0.015464259
0000f0 67 e3 94 3c 35 0a a2 3d 39 a4 84 bd 3b 08 dc bd
       0.01817484 0.07912103 -0.064766355 -0.10743757
000100 a5 0b 8b bd af ce dd 3b de f8 8b bc e9 76 d1 bd
       -0.067893304 0.0067690234 -0.017086443 -0.102277584
000110 c4 97 53 bd 16 10 04 3e dc 28 11 be 8a 28 3a 3d
       -0.051658407 0.12896761 -0.14175743 0.045448817
000120 ae 73 7c 3c f6 55 14 bb ef 07 81 bc c8 dd 0a be
       0.01540844 -0.0022634245 -0.015750853 -0.13561165
000130 ee 17 8f 3c a6 d6 74 bb 57 93 38 bd d7 0f 10 be
       0.017467465 -0.0037359386 -0.04506239 -0.14068542
000140 21 9a 2a bd a3 dc ab 3d 01 b0 87 3c 83 be 56 3d
       -0.041650895 0.083916925 0.016563417 0.05242778
000150 5c 51 cc 3d 57 95 4e 3d 9e 9f 73 3d 68 81 28 3e
       0.099764556 0.05043539 0.059478395 0.16455615
000160 1d 25 15 3c 0c d6 c0 3d ba d9 87 3d 70 41 21 3e
       0.009103087 0.09415826 0.06633325 0.15747619
000170 81 04 a0 bd 32 19 b1 bd aa 55 02 3e c8 c2 60 3d
       -0.07813359 -0.08647384 0.12727991 0.054873258
000180 6a c3 9d bd 25 db b3 3d cd 2d ab bc 0a ec 38 bd
       -0.07703288 0.08782033 -0.020895863 -0.04514698
000190 6b 01 5e bd f2 f8 8e bd 2d 38 c6 3c db 26 17 3d
       -0.05420057 -0.06981076 0.024196709 0.03690229
0001a0 ff 76 ba bc e7 c8 ac 3d a2 86 b8 bd cf 92 3c bd
       -0.02276182 0.084367566 -0.09010054 -0.046038445
0001b0 87 d2 34 3d 81 11 9f 3d 6b 87 41 3c 9b e2 0e 3e
       0.044146087 0.077670105 0.011812071 0.1395363
0001c0 9a 54 db bc 36 4c 93 bc 97 5d 71 3c 94 77 42 3b
       -0.02677374 -0.017980676 0.014731786 0.0029673325
0001d0 e3 c8 9d 3d d0 a5 65 bd 9d fc 75 bb f6 f5 aa 3d
       0.07704332 -0.056066334 -0.0037534602 0.083476946
0001e0 ad ed 27 bd 67 b6 59 bd 6e be 72 3d 45 ed 43 3d
       -0.04099815 -0.053152468 0.05926364 0.0478337
0001f0 4b d2 47 3c e7 8f 52 bc 9f 3f 99 3d b0 47 bc 3c
       0.012196134 -0.012851692 0.07482838 0.022983402
000200 d7 57 40 bd 82 17 f0 3b 88 d4 0b 3d 14 48 b5 bc
       -0.04695877 0.007327021 0.034138232 -0.022129096
000210 a1 f8 c7 bc 3e 4a 72 bc fb 24 4f 3a 57 6e e5 bd
       -0.024410548 -0.0147882085 0.0007901934 -0.11202686
000220 38 c6 89 3d 6c 30 67 3d 0a b8 34 bd 24 50 d3 3d
       0.0672726 0.056442663 -0.044120826 0.1031802
000230 b2 d1 c0 3c c4 7f 8b 3d 36 19 06 be 99 d0 c8 3c
       0.02353749 0.06811479 -0.13095555 0.02451353
000240 e2 8f 87 bd 20 d3 92 3d fa c8 6c bd 3c 8f a6 bb
       -0.0661924 0.07169175 -0.057808854 -0.005082993
000250 d1 d2 f4 3d fa 78 60 3d ab 45 9b bd 73 6f 8a 3d
       0.119542725 0.054802872 -0.075816475 0.067595385
000260 ec 23 11 3b 8f ba 0c 3d 5a 81 a2 bd 4e dc cf bc
       0.0022146655 0.034357604 -0.07934828 -0.025373604
000270 6e 4a fc bd 3f 85 dc bd f0 ca 96 bd a1 d7 82 bd
       -0.12318884 -0.10767602 -0.07362926 -0.06388784
000280 da e2 7e 3d 45 9d 60 3d a2 90 9d bc 59 0a 90 3c
       0.06222806 0.054837484 -0.019234005 0.01758306
000290 55 28 a2 bc 58 36 51 3d 98 e6 38 3b 0a bd e2 bc
       -0.019794622 0.051077217 0.0028213616 -0.027678031
0002a0 06 28 2f bd fb 59 91 bd db 55 6e bd ed c3 c5 3d
       -0.04276278 -0.070972405 -0.058187347 0.096565105
0002b0 bf c8 b2 3b 6f dd 34 3c 58 32 be 3c 74 df b5 3d
       0.0054560597 0.011039122 0.023217365 0.08880511
0002c0 b5 94 74 3d f7 0d 27 be e0 d8 3e bb db 3d 8c 3d
       0.05971213 -0.16313921 -0.0029120967 0.068477355
0002d0 a8 51 46 bd 23 36 8a 3d e5 f8 59 3b 86 dd 01 3d
       -0.048417717 0.06748607 0.0033259925 0.0317054
0002e0 e7 db 36 bc 9a 2f 8e 3d d6 88 f9 bc d6 4b c0 bd
       -0.011160827 0.06942673 -0.030460756 -0.093894646
0002f0 7b de e7 bd 9e 8f 11 3c 70 85 ff 3d 7a 0f a4 3d
       -0.11321732 0.008884339 0.12476623 0.080107644
000300 b4 f5 75 3d c4 1d 3d 3b 57 6e fc bb 48 a3 e4 3d
       0.060048774 0.0028856853 -0.007703583 0.11163956
000310 44 40 14 be 03 b7 80 3d 38 fa 69 3d 6d 97 fa 3d
       -0.1447764 0.06284907 0.057123393 0.122359134
000320 7f bf 24 3d 09 f0 b6 3d 53 3f 7a 3d 09 8e 6d bd
       0.040221687 0.08932502 0.061095547 -0.057996783
000330 5d 79 8e 3d a1 71 00 bd c5 3e c0 bb 25 f3 02 be
       0.06956742 -0.031358365 -0.0058668577 -0.12788065
000340 2b fe 41 bc 76 5d 05 3d d4 53 b0 bc e3 46 89 bd
       -0.0118403835 0.032559834 -0.021524347 -0.06702974
000350 6f 40 df 3d 34 af c4 3d 06 fe 2e bd ff da 02 3d
       0.109009616 0.0960373 -0.042722724 0.031947132
000360 b6 80 b0 3d 07 78 06 3d 95 20 f0 3c df a2 80 bd
       0.086183 0.03282931 0.029312411 -0.06281065
000370 c4 c1 f8 3a a5 80 e9 ba bc 0b 39 bd 8d 3b d1 3c
       0.0018978645 -0.0017814828 -0.045177206 0.025541091
000380 85 b9 02 bd a9 84 89 bd 0c 09 4f 3d 00 ea 6a 3d
       -0.031915206 -0.06714756 0.050545737 0.057352066
000390 85 4c d6 bc 12 28 69 bd 1d 4e 5d bd 4e 85 30 bd
       -0.026159534 -0.05692298 -0.054029573 -0.04309588
0003a0 92 77 e8 bc 93 43 23 3d d5 de 74 bd 38 81 21 bd
       -0.028377328 0.039859366 -0.05978282 -0.039429873
0003b0 e9 e4 54 bb 0d 0f 5d 3d 50 ed c2 bd de 76 d6 3c
       -0.0032485074 0.05396943 -0.0951792 0.026179727
0003c0 65 03 7b 3d 87 5c 23 be 1f c1 c2 3d 00 44 b7 3d
       0.061282534 -0.15953265 0.09509491 0.08948517
0003d0 79 ed 7a bd df 3d 86 3d 09 f9 9c bd d8 b4 e6 bc
       -0.061261628 0.0655477 -0.07664687 -0.028162405
0003e0 05 e8 20 3c 95 5c 0f 3d d1 80 e1 bc 75 fa a5 bd
       0.009820943 0.035000402 -0.027527245 -0.081044115
0003f0 a6 68 52 3d f0 a4 5d bd 2b 7b eb bb f1 94 06 be
       0.05136933 -0.054112375 -0.0071863136 -0.13142754

fc2.bias f4 [84]
000000 b8 40 50 bc 16 47 95 3c 1c ba 8d bd 1c 06 8c 3d
       -0.012710743 0.018222373 -0.06920263 0.06837103
000010 8d 5f 4f 3e e4 e6 c7 bb 81 ea 89 3d 72 a8 fe bc
       0.20251293 -0.0061005224 0.06734181 -0.03108618
000020 e7 85 bd 3d c7 14 2d bd 39 28 98 3e 00 d0 06 be
       0.092540555 -0.042256143 0.29718187 -0.13165283
000030 b7 85 a5 3c a8 bd 98 3c 95 b3 00 3c 7e 18 80 bc
       0.020205362 0.018645123 0.007855316 -0.015636679
000040 fe 59 1f be ef 6d b2 bc f3 5d f8 3d 30 60 cf 3b
       -0.15561673 -0.021780936 0.121272944 0.006328605
000050 ab 0d 41 3d 9d 13 38 3d 11 bd 24 3e 85 0b db bd
       0.047132175 0.04494058 0.16087748 -0.106955566
000060 67 f9 12 3d fe be ad 3d 56 4e da 3c b8 ad 3b bd
       0.03588238 0.084836945 0.026648682 -0.045819968
000070 84 cc ba 3e 3c b7 bf 3b 31 24 35 3d 15 20 81 3d
       0.36484158 0.0058507007 0.044223968 0.06304947
000080 c8 53 20 bd e7 31 35 bd de c0 ac 3d de 44 19 bd
       -0.0391424 -0.044237044 0.08435224 -0.037419192
000090 26 ba 92 3c e7 12 1e 3e 8a b1 32 bd 13 a3 a6 bd
       0.017911028 0.15436898 -0.043626346 -0.08136573
0000a0 40 5d 5c 3d ab 68 25 be 27 c1 81 3c f2 74 a9 3c
       0.053799868 -0.16153209 0.015839173 0.020685647
0000b0 92 46 7f 3d 4b 4d c9 bd 8d f5 d5 3d 98 6b ec 3d
       0.06232316 -0.098291956 0.10447226 0.115439594
0000c0 df 2f d1 bd a7 a5 e8 3d 9f 4e 28 3e 2f ea 52 bd
       -0.10214209 0.11359721 0.16436242 -0.051492866
0000d0 dc a7 ee 3d 67 e3 d8 bd b7 3b 3b 3e 8a 67 91 3d
       0.116531104 -0.105902486 0.18284498 0.07099827
0000e0 e6 bd 2e bd 0f ba 9c bd 83 a0 df bd ce 2a 25 bd
       -0.04266157 -0.07652675 -0.10919287 -0.040324025
0000f0 32 8b 2d bd 40 d9 16 be 78 c2 18 3e d9 61 79 3d
       -0.042369075 -0.14731312 0.14917934 0.06088433
000100 43 b4 e0 3d 46 7a 1f 3e 96 cb 02 be 4d 8d de bc
       0.10971882 0.15573987 -0.12772974 -0.027166987
000110 d0 1f 2b bc 65 09 c9 3d f7 fb ea bb af fb 25 bc
       -0.010444596 0.09816245 -0.00717115 -0.010130807
000120 cb e7 cd bd a3 92 a9 3c 44 73 a8 3d ef 0e fb bd
       -0.100539766 0.020699805 0.0822511 -0.12258708
000130 7a ff 2b bd 69 7b 35 3e b2 d5 1a 3c db c1 ed 3c
       -0.04199169 0.17722858 0.009450363 0.029023102
000140 cf 7d 23 be 3c 08 4c bc eb 13 01 be 64 14 51 bd
       -0.15965961 -0.012453135 -0.12605254 -0.051044837

fc3.weight f4 [10, 84]
000000 7b 6b 9a bd 2d ca 00 3d ab ea 44 bd 68 8e 53 bd
       -0.075400315 0.03144281 -0.04807536 -0.05164948
000010 13 65 ca bd f3 20 87 bd 0a f7 16 3c 25 f6 10 3d
       -0.098825596 -0.065980814 0.009214172 0.03539099
000020 7c bf af 3d 6f b4 c2 3d c5 24 5e bd 68 10 23 bd
       0.085814446 0.09507071 -0.054234285 -0.039810568
000030 d9 75 c1 bc 3c ad d9 3c dd 0c 26 bd 2c a0 9b 3d
       -0.023615764 0.026571862 -0.04053961 0.0759891
000040 82 11 5b bd a1 31 b6 bc a0 00 a1 3c 5e c1 74 bd
       -0.053483494 -0.022240462 0.019653618 -0.05975472
000050 46 19 17 3d b0 0c b4 bd 90 81 8d bd f1 05 a6 bd
       0.036889337 -0.087914824 -0.06909478 -0.08106602
000060 a9 85 94 3d a0 fb cb 3d 58 0a 21 bd 26 1f d8 bd
       0.07252056 0.09960103 -0.039316505 -0.10552816
000070 e8 0f fd 3c 88 50 48 bd 64 f1 c5 bd f2 6c ba bd
       0.030891374 -0.048904926 -0.09665182 -0.09102811
000080 4f eb df bc 98 20 04 3d 13 79 db 3c 2e 49 bb bd
       -0.027333884 0.032257646 0.026791131 -0.09144817
000090 05 cc c5 bd 9d 2f ae bc f0 22 61 3c 38 27 9a 3a
       -0.09658054 -0.021262938 0.01374124 0.0011760956
0000a0 c5 4e d5 bd 37 43 fc 3c e8 51 af bd de 74 d5 bd
       -0.10415415 0.03079377 -0.08560544 -0.10422681
0000b0 38 61 bd 3b 54 93 c4 bd 60 51 dc bb c2 60 1f 3d
       0.0057794116 -0.09598413 -0.006723568 0.038910635
0000c0 20 e8 99 3d 9c 30 83 bd e7 19 c7 bd a9 f0 de 3d
       0.075149775 -0.06405756 -0.09721737 0.10885746
0000d0 d0 68 b1 3d 33 6e 1c 3a 84 2a 4d bd e3 01 c0 3d
       0.086625695 0.00059673487 -0.050089374 0.0937536
0000e0 83 04 fe bb e0 53 14 bc fc db 33 3d af 90 19 3c
       -0.0077520027 -0.0090532005 0.043910965 0.009372874
0000f0 1a 8e 24 3d e8 0d bf bd 8d 8c 81 bc 93 3d 9b 3b
       0.04017458 -0.09328824 -0.01581409 0.004737565
000100 5e 9f c0 bd 2f 9b c8 3d b3 ed 9b bd 1f 57 41 3d
       -0.09405397 0.09795224 -0.07613697 0.047202226
000110 d0 e7 46 bd 0a 2a a4 bd d4 74 1a 3d 1f c1 55 3c
       -0.048560917 -0.08015831 0.037709072 0.013046532
000120 5d b4 64 3d 3a a5 81 bd 7c b3 0c bc af 41 81 3d
       0.05583607 -0.063303426 -0.008587714 0.06311356
000130 1d c1 de bc 3a fa d5 3c e0 c4 84 bd e4 70 a6 bd
       -0.027191693 0.026120294 -0.064828634 -0.08127001
000140 3e 4d cc 3d ef fc 8e 3d c8 59 0d bb fa ec cf bd
       0.0997567 0.06981837 -0.0021568406 -0.101526216
000150 c1 33 0b bd 82 d2 4b 3e 8f 30 71 3d d1 72 df bc
       -0.033984903 0.19904521 0.0588842 -0.027276428
000160 e4 fd 9d bd 79 12 93 bc f2 f0 25 be 4c 3f 16 be
       -0.077144414 -0.017953144 -0.16205195 -0.14672583
000170 3e 3e 42 be 60 f6 ce 3d 7d f6 39 3c f6 76 4a bc
       -0.18969056 0.10105586 0.011350271 -0.012357464
000180 5b ad 60 bd df 51 f3 3d f2 02 d1 bd 33 dd 7b 3c
       -0.054852825 0.1188085 -0.1020564 0.015372562
000190 21 3e f7 3e 9c c5 7c bd 90 c9 3e bd b3 c8 33 bd
       0.48289588 -0.061711892 -0.046578944 -0.043892574
0001a0 1d 54 9f be 25 e2 ad bd 57 b4 3f be b8 c5 dc bd
       -0.3111886 -0.08490399 -0.18721138 -0.10779899
0001b0 2f 04 ae bd ed 95 30 3b e6 01 c0 3d ac bc 05 3f
       -0.08496892 0.0026944831 0.09375362 0.52241015
0001c0 ef b9 5b be 9f d2 11 bd cb 48 5b 3e f1 7c e9 bd
       -0.21457647 -0.035601255 0.21414487 -0.11400784
0001d0 92 48 6b be ef 4a 72 3d c9 30 5b be 97 e3 96 be
       -0.22976902 0.059153493 -0.21405329 -0.29470512
0001e0 f0 5f 97 bd 6b 1d e8 3d 44 86 d9 3c 04 32 ee bd
       -0.073913455 0.11333736 0.02655328 -0.116306335
0001f0 92 85 eb 3e 7e 5d ae 3e b1 a8 55 bc 10 73 91 bd
       0.46000344 0.34055704 -0.013040707 -0.071020246
000200 ec 98 9a 3c b2 b1 9d bc 50 e6 67 bd 95 ec d5 bb
       0.018871747 -0.01924977 -0.056616127 -0.006528447
000210 c1 9a 31 be 6e ac a9 3d e6 83 00 3e 69 29 67 3d
       -0.1734419 0.082848415 0.12550315 0.056435976
000220 a3 4a 31 bc ea 72 99 bd 9b b0 b5 bd 24 2d 9f 3d
       -0.010821017 -0.07492621 -0.088715754 0.07772282
000230 4f 13 25 3c 76 93 91 bc 18 bb 7c 3d 82 af 0f be
       0.010075404 -0.01777051 0.061701864 -0.14031795
000240 4a 5a c7 3c 82 48 38 3e 61 ed 0a 3e 2d e8 32 be
       0.024335045 0.1799641 0.13567115 -0.1747138
000250 51 24 22 3e 48 59 f7 bd 92 9c 87 3e fa a7 87 bd
       0.15834166 -0.12077576 0.2648664 -0.06623836
000260 ea 39 83 be d7 fb 5d 3d e1 41 06 3e 67 1c 70 be
       -0.25630122 0.05419525 0.13111068 -0.23448335
000270 5b ba 56 be 43 f1 a5 bd 93 1c 14 3e b0 93 fd 3d
       -0.20969526 -0.08102658 0.14464025 0.12381685
000280 d1 1d 41 3c fc 6f b7 bd 63 56 84 3e 22 1e 44 be
       0.011786894 -0.08956906 0.25847158 -0.1915212
000290 14 ff 6d be 7f a3 be bd 31 08 57 3d bc 8f 2e 3d
       -0.23241836 -0.09308528 0.052498046 0.042617545
0002a0 cd 96 9e 3e f9 41 56 3e 64 cd 9e be 4f 6f 4f 3d
       0.30974427 0.20923604 -0.31016076 0.05064326
0002b0 86 50 ab bc 74 ad c0 3e 09 f7 1b be 49 d8 9e be
       -0.02091242 0.37632334 -0.15230955 -0.31024387
0002c0 f9 c0 ac be ad 06 92 bd c5 dc 62 be 61 0e 3a bd
       -0.33740976 -0.071301796 -0.2215453 -0.04542387
0002d0 79 71 12 3e 51 04 23 3e 47 ef e0 3d da 2e ca bd
       0.14301099 0.15919615 0.109831385 -0.098722175
0002e0 21 22 34 3f 4c 5f 0a 3e 7d 5e 98 bd 61 d6 84 3e
       0.70364577 0.13512915 -0.07439897 0.25944808
0002f0 55 02 f3 be 5e e8 a3 3d 81 07 eb be b7 bc b2 be
       -0.47462717 0.08003305 -0.45904163 -0.34909603
000300 01 80 0c be c4 a9 ad bc 93 67 a5 3e 75 4c a2 3e
       -0.13720705 -0.021199115 0.32305583 0.31698957
000310 77 db 2e bf 0c cf a2 3d f0 99 55 bd e1 9b c8 3d
       -0.68303627 0.07949647 -0.05214876 0.097953565
000320 d7 89 86 be c1 17 de 3b 34 52 3d be 4b ce c5 be
       -0.26277038 0.006777734 -0.18488389 -0.38633952
000330 04 c7 2e be a9 7b c1 3d 35 23 ff bd e1 dc 0b be
       -0.17068106 0.094474144 -0.12457887 -0.13658477
000340 46 8f a4 3e 13 65 d5 3e 8b 7d 00 bd 40 58 ec 3d
       0.3214056 0.41678676 -0.031369727 0.1154027
000350 cb 24 5e 3e bf 61 67 bc a2 5b cf be 06 17 b6 3d
       0.21693723 -0.014122426 -0.40499598 0.0889111
000360 34 13 6e be 1a b2 32 be 6b 21 dd 3d 3c 79 07 be
       -0.23249513 -0.17450753 0.107973896 -0.13229841
000370 9a 5f 6d 3e a2 0b 33 be 28 6e 4e be d6 67 60 bc
       0.23181 -0.17484906 -0.20159209 -0.013696631
000380 01 9f 97 bd 26 fa 3a 3e 79 47 62 3d d5 92 86 be
       -0.074033745 0.18259487 0.055243943 -0.262839
000390 f2 22 77 3d f1 cb f6 3e 51 4c 54 3e e4 b1 5d be
       0.06033606 0.4820247 0.20732237 -0.21649891
0003a0 2d bc e5 3e bd e3 31 be c2 ff 08 3f 02 d8 c6 3d
       0.4487013 -0.17372032 0.53515255 0.09709169
0003b0 52 2a c1 be 53 2b 18 be 78 02 3a 3e 04 20 e6 3d
       -0.377276 -0.14860277 0.18165004 0.11236575
0003c0 0a a0 1f be a4 a3 97 be 98 11 3a 3e 9f 67 93 3e
       -0.15588394 -0.29617035 0.18170774 0.28789994
0003d0 a7 c2 d3 3d e4 57 6b be a0 02 7c 3e b1 53 9d 3e
       0.10339861 -0.22982746 0.24610376 0.30727914
0003e0 c6 7a 27 be f4 da 99 3d df 0c bb 3b 53 07 23 be
       -0.16355428 0.07512465 0.0057083215 -0.15920763
0003f0 25 2a aa bd b1 a8 27 be c7 48 99 3e cf 59 39 bd
       -0.0830882 -0.16372944 0.29938337 -0.045251664

fc3.bias f4 [10]
000000 ce a8 66 bd 98 48 20 be 66 9d 98 be ac 01 a7 3e
       -0.05631333 -0.15652692 -0.29807585 0.32618463
000010 e1 d4 6f bd e1 12 0b 3d 67 81 1c bc 66 4e da 3e
       -0.058552627 0.03395355 -0.009552336 0.42637938
000020 7d fe bf 3e 80 d8 8b 3c
       0.37498847 0.017071009

fc4.weight f4 [4, 10]
000000 f9 6e 0f be 45 85 81 3f 4c ba ab 3f 2c 26 82 bf
       -0.14007176 1.0118796 1.3416228 -1.0167899
000010 7f a1 c7 be d8 8c 8b be 1c 27 9a 3f 12 70 46 bf
       -0.389904 -0.27255893 1.2043185 -0.77514756
000020 19 27 ce 3e 4b a4 b8 bf 68 3e 19 3e f2 60 af 3e
       0.40264204 -1.4425138 0.14965212 0.3425365
000030 06 0a 98 bd 6f 9f ac 3f 93 0a 6a bd d7 45 80 3f
       -0.07423787 1.3486155 -0.05713899 1.0021313
000040 df 6d 80 bf 65 27 9f bf 20 be 56 bf 11 bc 43 3f
       -1.003353 -1.2433897 -0.8388386 0.7645884
000050 99 1e 85 bd 4f df 40 bf c5 b9 dc bf 4e ec bb 3d
       -0.06499977 -0.7534074 -1.7244192 0.09175931
000060 a9 92 9c 3d a5 b8 14 bf 0d e4 6d 3f ff f5 54 3f
       0.07645161 -0.58094245 0.929261 0.8318786
000070 ca ce da 3f f6 1b a9 be 85 a8 90 3e f5 fb 05 bf
       1.7094357 -0.33029145 0.2825357 -0.5233758
000080 7c 50 f5 3e ac 66 6d bf 37 23 02 be cc b7 34 bf
       0.47912967 -0.9273479 -0.12708746 -0.7059295
000090 2e fb 23 bf 98 74 97 3f 4f 74 b7 bf 2e 26 65 3f
       -0.64055145 1.1832457 -1.433237 0.8951138

fc4.bias f4 [4]
000000 b6 fc c7 be 39 e3 8b be 59 a8 0e 3f 55 7b 97 be
       -0.3905999 -0.27321795 0.5572563 -0.29586282
