tasks/attack_war/defender_list/defender_1/defense_project-model.pth (torch, 251521 bytes, 12 tensors)

conv1.weight f4 [6, 3, 5, 5]
00000000: 60c9 72bc 8721 893d 42fd 60bd 4bf0 8abd
00000010: 9d67 1abd e3f0 163c 9c37 83bc 78a6 bc3d
00000020: d248 0bbd c5f3 4dbb 71b0 39bd 6455 0b3c
00000030: b378 f8bd 2375 f5bd e265 eebd aaab fd3c
00000040: 66d9 a73d d4d2 9f3d 52d0 9abd 0d93 8ebd
00000050: 4628 c83d b1b0 153e 3f9b 153b e414 c63d
00000060: b792 aebc 3fea 33bd 1116 8d3d 52e5 e3bd
00000070: 90fa d8bd 06e5 acbd 5bf1 b6bd 36ba 7a3d
00000080: 7c84 d3bd f869 f0bd a5bb 28be 6cf1 25be
00000090: 1f6c 87bd e0c6 5a3d 8c11 19bd 307e a8bd
000000a0: deb9 36bd c445 91bd c3cb 41bc 16c2 0dbe
000000b0: 352c 17be 04d7 ebbd 4dc6 103d c3ae e93c
000000c0: d3b6 c5bd 7632 8abd b820 1c3e c77f 573e
000000d0: e6f6 293e 28f4 c83d 8a6d 193e 68a9 543c
000000e0: 90eb f33d 49cb c33b dc96 89bc af36 7ebc
000000f0: 1228 093e b735 3b3e 270f dc3c 928f ad3d
00000100: 3740 8f3d 80b6 7d3d 7ba2 f13d 0a64 043e
00000110: f22c 273e ec7b 363e f175 0cbd c978 0f3d
00000120: a1c6 033e 3ad9 243e 87bd 263e 0cc7 193e
00000130: 3aa2 683d 8205 04be 9925 7a3d 9602 adbb
00000140: bb92 f2bd b35d 303e 2653 e43d 4fd8 e7bd
00000150: d8ea b63d 8fae 2bbd 3da4 333d 7b37 4dbd
00000160: d044 783d 401a c7bd 2ca3 603d f353 1b3e
00000170: b935 1b3e f705 853d 0dfa 5fbe 3d69 08be
00000180: 0581 a63d 3563 be3c ff98 23be b3b5 2abe
00000190: f6a6 273e dcda 003e f258 b6bd ceb1 4cbc
000001a0: 43e1 b7bd 0238 ca3b 95ae cebd 4984 23be
000001b0: 48f3 09bd 9ccf bd3c 2283 7abd 022f 333e
000001c0: 4faa a8bd b588 043e e0f2 a63d d6ac 02be
000001d0: 5f11 333d 7682 493d fe74 bbba 4956 82bd
000001e0: b98f a13d aa80 813d eb5e 6abd a9e2 233d
000001f0: 1722 72be f6c3 96bd ebc4 99bc 9bbb cbbd
00000200: b61f 01bd 7f09 41bd 3613 0bbd 7e76 483d
00000210: c667 05be 90cb 91bc 2835 f33d d0c8 07bd
00000220: fbd3 8b3d faaf f4bb 1337 243c 38c8 813d
00000230: 6bd0 003e 7905 343e 0684 3a3e f244 80bc
00000240: 6cde 54be 1b19 54bd 66d0 213e c162 103d
00000250: f1c8 b8bd 2bca 23be 7377 1ebe f409 14be
00000260: a7c9 0bbd f485 0f3d 00d3 853d 09f5 13be
00000270: 9991 9e3d 6311 90bd 5f41 a3bc 4d41 65bd
00000280: 5d64 0cbe 8300 00be ff6d 39be e786 3dbe
00000290: 4023 bebd 4842 b0bd 0201 24be 49db fdbc
000002a0: 9950 37be 194e 12bd c43f 103e 49ed 40bd
000002b0: 13c2 ee3d 7702 a73d 0b4e 30bd e8a9 c63d
000002c0: d323 073c 666a 2cbc 5ad5 ec3d b912 89bd
000002d0: 447a 8e3d 8361 6d3d 76bd 483e 0a92 f63d
000002e0: 339d f53d 4dce a4ba 03d2 79bd acf0 21bd
000002f0: 8a25 edbd b812 133d f8ba 7f3d 67e9 3c3d
00000300: 903a f4bd 0e1a d7bb d35e 9cbd aa36 50bc
00000310: 934d e8bc 0bb5 883d cd7d 59bc acf7 c23d
00000320: de37 463d 6dd2 013e ffc6 04bd 945a 64bd
00000330: 6af8 f7bc c721 313e 7b07 713d c3fd 733e
00000340: fda1 143e b878 c03d b669 50bc f8c4 ecbc
00000350: 5995 0c3d 661b e7bc 9f77 05bb f809 8cbb
00000360: 83cb f3bd 3c82 b9bd 5ff7 cd3d 7ced aabd
00000370: 8ad7 3f3d 5188 2d3e 34c4 8f3d 2020 8a3d
00000380: 8511 eebb 8ef0 e23d 0ed2 98bd 08ac 92bd
00000390: 8f0e 80bd 7508 b0bb b2ff f83c 4423 503e
000003a0: 9671 e93b e3a7 0b3e 52ed 0c3e 8940 b7bd
000003b0: 9f63 f93d f7e3 05be 9418 86bd 9522 663d
000003c0: 0d9d b73d 8a72 3d3e fd41 50bd 240a 2e3c
000003d0: 52f3 c23d 0cec 12be 20fa 273e 3661 0cbe
000003e0: 020e 213c feee babb df18 c2bd 3c0d 423d
000003f0: 11a5 f03d 332f 41bd 7420 86bd 6eef ddbd
-0.014818519 0.06695848 -0.054929025 -0.067841135 -0.03769647 0.009212705 -0.016017728 0.09211439
-0.034004994 -0.0031425816 -0.045334283 0.008504245 -0.121323965 -0.11985233 -0.11640526 0.030965645
0.08195762 0.07803884 -0.07559265 -0.069616415 0.097733065 0.14618184 0.002282813 0.09671953
-0.021310193 -0.043924566 0.068889745 -0.11127724 -0.10594666 -0.0844212 -0.08932754 0.06121274
-0.10328004 -0.11738962 -0.1647783 -0.16205376 -0.06612419 0.05341232 -0.03737025 -0.08227193
-0.04461085 -0.07093385 -0.011828366 -0.13843569 -0.14762957 -0.1151562 0.035345364 0.028525716
-0.096540116 -0.06747906 0.15246856 0.21044837 0.1659809 0.09812194 0.14983192 0.012979843
0.11910164 0.005975161 -0.016795568 -0.015515967 0.13394192 0.1828221 0.026862694 0.084746495
0.0699467 0.061941624 0.11798569 0.12928787 0.16325739 0.1782071 -0.034292165 0.0350273
0.1286874 0.1609849 0.16283236 0.15017337 0.056795336 -0.12892726 0.061071012 -0.0052798493
-0.11844393 0.17223243 0.11148672 -0.113205545 0.08931512 -0.04191452 0.0438578 -0.05010174
0.0606125 -0.09721804 0.054843113 0.15168743 0.15157212 0.06495278 -0.2187273 -0.13321395
0.08130077 0.023240665 -0.15976332 -0.16670875 0.16372284 0.12583488 -0.08903684 -0.012493564
-0.08978512 0.0061712274 -0.10091893 -0.15968432 -0.033679277 0.023170285 -0.061160214 0.17498401
-0.08235609 0.12942775 0.081517935 -0.12761244 0.04371774 0.049196683 -0.0014301834 -0.06364114
0.07888741 0.06323369 -0.057219427 0.04001108 -0.23645817 -0.07361595 -0.018770656 -0.09947892
-0.031524383 -0.047128197 -0.033953868 0.048941128 -0.13027868 -0.017797261 0.11875373 -0.033150494
0.068275414 -0.007467267 0.010022896 0.06337017 0.12579505 0.17580213 0.18214425 -0.015657876
-0.20787972 -0.051781755 0.15802154 0.03525043 -0.090227015 -0.1599509 -0.15475254 -0.14456922
-0.034127858 0.035039857 0.06534386 -0.14448942 0.07742614 -0.07034566 -0.019928632 -0.05597048
-0.1371016 -0.12500195 -0.18108366 -0.18508492 -0.09284067 -0.08606392 -0.1601601 -0.030988352
-0.1790184 -0.03571901 0.14086825 -0.047101293 0.116581105 0.08154767 -0.043043178 0.09700376
0.008248287 -0.010523414 0.11564131 -0.06693024 0.06956914 0.057954323 0.19603524 0.120395735
0.11992874 -0.001257369 -0.0609913 -0.039536163 -0.11579426 0.035906523 0.062434167 0.046121027
-0.119252324 -0.0065643853 -0.07635274 -0.012708345 -0.028357303 0.06675156 -0.013274622 0.09519896
0.048393123 0.12677927 -0.03241634 -0.055750445 -0.03026982 0.17298041 0.058845025 0.23827271
0.14514919 0.09398025 -0.012720516 -0.028902516 0.034322117 -0.028211307 -0.002036549 -0.0042736493
-0.11904051 -0.09058043 0.10056948 -0.08346078 0.046836413 0.16946532 0.07019845 0.067444086
-0.007265272 0.110810384 -0.0746194 -0.071617186 -0.06252777 -0.005372102 0.030395363 0.20325953
0.007124136 0.13638262 0.13762406 -0.08947856 0.12177204 -0.13075243 -0.06547657 0.056185324
0.08965502 0.18500724 -0.05084418 0.010622535 0.09519066 -0.14347857 0.16404009 -0.13708958
0.00983 -0.0057047596 -0.094774 0.047375903 0.11750234 -0.047164153 -0.06549159 -0.10836683

conv1.bias f4 [6]
00000000: b2aa ffbc 7c0b 4d3d a273 e43c c5ff b73c
00000010: 89c6 58be 4980 f33d
-0.031209324 0.05005978 0.02788717 0.022460828 -0.21169485 0.11889703

conv2.weight f4 [16, 6, 5, 5]
00000000: baa7 593d 6604 b73d 20ac 08bc 09fd 94bc
00000010: ab6a 80bc d44b 743d 051d d63d c02c 203d
00000020: 08f4 873d f977 e93d 7606 063d ad6d 65bd
00000030: 468b 29bd 5345 8f3c 309d aa3d 558c 843d
00000040: d989 2abd 60d2 cebd c513 0dbd 48cb 8cbd
00000050: 03a3 38bd 535f 09bd 36c8 58be 36ff f6bd
00000060: e83e c4bd d7a1 92be b2a7 6dbe 5e59 c6bd
00000070: 287e 52be 05ac 863d 2da1 86be d889 bbbd
00000080: 5459 67bd e85b 0dbe 0ddf bfb9 3827 0dbe
00000090: 690f f13d 0f99 e7bb a279 fe3d 95e5 2a3d
000000a0: cbea 57bc 9ddc 0f3e ccbd 593e 2d75 643e
000000b0: 94ec 503e e85e 433e 266c 853e b122 843e
000000c0: 5019 113d ec95 bc3b 93ce d8bd 52bd fdbc
000000d0: 0942 edbd e716 3abd f30c 3cbe 49b0 383d
000000e0: 445c 1bbd fcd6 35bb a5ba e83d 0939 7e3d
000000f0: a505 6fbd d734 6c3c ea30 033e 7151 c23d
00000100: ff34 ab3d 5d4f 3b3d 3134 0b3e 4651 c0bb
00000110: e245 b53d df96 373c d46b d03d d164 c03d
00000120: 4772 6c3e 1e32 7f3e a752 6b3e 6e8f ce3d
00000130: 393b 14be ef60 a0be 4b58 22be 2f9a 62bd
00000140: b653 d43d a397 3d3c cd33 9bbd 59b8 6b3d
00000150: 4e55 bbbd d481 743e d8f3 553e f9b1 f13d
00000160: aef6 193e f475 bb3d f2da 563d c0ba 1d3e
00000170: 5136 b03d 128d 8a3e 590f 71bd 16a0 e7bc
00000180: c2b4 a83d 61ed 37bc 047c d33d 6c68 843d
00000190: a550 023d e7b9 173d 71a7 623d c381 2e3d
000001a0: 9ea9 99bc e4a7 d1bc a004 473c 26f7 693d
000001b0: b872 b839 3b8c 1f3e 783b 483c efec 2f3d
000001c0: fb73 e63d 953b 003e 8f5c 073e 811a cbbc
000001d0: 7cb5 bebd 5198 02be 4a50 3cbd afa6 933c
000001e0: 47d0 fdbd 103a 78be 7690 49be 5474 d8bd
000001f0: bdf1 5dbe ae30 26bd 8838 cdbc 287c 043d
00000200: 4ce8 813c 8e86 893b a4da 7e3d a05c a83d
00000210: 3c4e a83d e604 9a3d 1e6d c23c 1cff 26bd
00000220: 5408 16bd 056d c53d 8296 4f3d 4474 313d
00000230: 4306 a3bd ea3b 913d 4afa 9c3d cb33 773d
00000240: f566 eebd b00d 00be 63b2 0dbe d416 88bc
00000250: f19f 05be 0c65 21be a589 263e 23c7 e0bb
00000260: 733f 1fbd 7414 16bd cb0d 8a3d d0f8 ef3b
00000270: 9062 d83d fe41 5dbc 0933 d33c 2b2a ea3d
00000280: d91b c83d 14eb 7a3d 33dc 853d 1fbb 68bc
00000290: 458f 2abd bab9 953d 8506 ad3a 8f99 ddbd
000002a0: 1201 fdbc 640f 00bd 2777 7a3e 3193 ee3d
000002b0: caec 743c e6b1 843d 9cb0 023e 3d96 573e
000002c0: 8f89 473e feba 473d 4175 f5bd ecfd 99be
000002d0: 1b6c ecbd a675 6cbe cb78 1dbe 7950 88be
000002e0: 681b acbe de4b babd 07e0 d4bd bff2 8fbe
000002f0: 7b75 cfbe f892 d9be f593 88b9 3576 4abe
00000300: f51e a0be 0394 97be eef5 28be ce72 0dbf
00000310: 24f6 a2be c9d5 21bf 40b6 0dbf f0d6 8abe
00000320: 1396 003e 7881 373e e457 b23d 171f e83d
00000330: 619f e43d ce66 5dbe 2343 a43d 203b ddbc
00000340: 1331 273e c47d 3f3e be38 d1bd fa48 1f3c
00000350: 5903 51bd e617 063e b223 883d 5440 09bd
00000360: b96d e5bd bd23 77bd 95bf 0cbe 77eb d7bd
00000370: 68dd 3bbe 6f18 4ebd f0d7 5abc 3ff5 16be
00000380: 93ab d03b b72a 4abe 6d0d 0abe c14b 07be
00000390: 644c 383d 5464 f1bd aa31 f9bd 340b 67be
000003a0: 4e63 1ebe d94b 09be a2f2 16be f66b 89bd
000003b0: 4e30 193c aa16 f6bc dc78 b4bd bc48 babe
000003c0: 2f89 e43d af19 d4bd 150a 12bd 850a 6cbd
000003d0: ec39 6fbe d0b1 bebd 3927 aabe 3090 2abe
000003e0: da45 01be fa51 8fbe addb d9bc 2ca4 73b9
000003f0: eb9d dcbd 263a 233c e455 81bd 0d93 a6bd
0.053138472 0.08936386 -0.008341819 -0.018187063 -0.015675863 0.059642628 0.10454754 0.039105177
0.06638342 0.11399836 0.032721005 -0.056012798 -0.041392587 0.017489111 0.083307624 0.06472079
-0.041635368 -0.100987196 -0.03444268 -0.0687471 -0.045077335 -0.033538174 -0.21170124 -0.120603964
-0.09582311 -0.286391 -0.23208502 -0.09685014 -0.20555937 0.06575779 -0.26294842 -0.09157151
-0.056481674 -0.1380459 -0.00036596545 -0.13784492 0.117705174 -0.0070678066 0.12425543 0.041722853
-0.013178538 0.14049001 0.21263808 0.22310324 0.20402747 0.19079173 0.26059073 0.25807717
0.03542453 0.005755177 -0.10586276 -0.030974064 -0.11584861 -0.045431998 -0.18364315 0.045089994
-0.03792979 -0.002774655 0.113637246 0.06206611 -0.058354992 0.014416895 0.12811628 0.0948819
0.083597176 0.045729984 0.13594128 -0.0058690635 0.0885122 0.011205404 0.101768166 0.09394229
0.23090468 0.24921462 0.22980748 0.10085951 -0.14475717 -0.31323954 -0.15853994 -0.055322822
0.10367529 0.011571798 -0.075782396 0.057548855 -0.0914713 0.2387765 0.208938 0.11801524
0.15035507 0.09153357 0.052454896 0.1540327 0.0860411 0.27060753 -0.058852527 -0.028274577
0.08237602 -0.011226029 0.103263885 0.064652294 0.03181519 0.037042525 0.055335466 0.04260422
-0.018757638 -0.025592752 0.012147099 0.057120465 0.00035180687 0.15580837 0.01222121 0.042950567
0.1125259 0.12522729 0.13218902 -0.024792911 -0.09311959 -0.12753417 -0.045975007 0.018023817
-0.123932414 -0.24240899 -0.19684014 -0.10569063 -0.21674247 -0.04057377 -0.02505137 0.032344967
0.015857838 0.0041969484 0.06222023 0.08220792 0.08218047 0.075204656 0.023733672 -0.040770635
-0.036629036 0.096399345 0.050680645 0.04332377 -0.07960179 0.07091506 0.07664926 0.060352128
-0.11640731 -0.12505221 -0.1383758 -0.016612448 -0.13049294 -0.15761203 0.16263445 -0.0068596764
-0.03887887 -0.0366406 0.06740912 0.007323362 0.10565674 -0.013504503 0.025781171 0.11433824
0.097709365 0.061259344 0.0653614 -0.014204769 -0.04164054 0.07310815 0.0013200796 -0.108203046
-0.0308843 -0.031264678 0.24459516 0.11649168 0.014949033 0.06479244 0.12762684 0.21053405
0.19486068 0.048762314 -0.11985255 -0.3007654 -0.11544057 -0.23091754 -0.1537811 -0.26623896
-0.3361466 -0.09096502 -0.10394292 -0.28114888 -0.40519318 -0.4249494 -0.00026050178 -0.19771655
-0.31273618 -0.2960511 -0.16500065 -0.55253303 -0.31828415 -0.63216835 -0.55356216 -0.2711711
0.12557249 0.17920482 0.0870817 0.11334055 0.111632116 -0.21621248 0.08020618 -0.027005732
0.16327314 0.1870032 -0.10215901 0.009721989 -0.051028583 0.13095054 0.06647433 -0.033508614
-0.112025686 -0.060336817 -0.13744958 -0.10542958 -0.18346179 -0.05031627 -0.013357148 -0.14741991
0.0063681095 -0.19742857 -0.13481684 -0.13212492 0.044994727 -0.11786714 -0.12167676 -0.22562867
-0.15467569 -0.1340784 -0.14740995 -0.06710045 0.009349896 -0.030040104 -0.088121146 -0.36383617
0.11158978 -0.10356461 -0.035654146 -0.05762722 -0.23361939 -0.09311259 -0.3323305 -0.16656566
-0.12624303 -0.2799223 -0.026594007 -0.00023235445 -0.10772308 0.009962594 -0.063152105 -0.081335165

conv2.bias f4 [16]
00000000: 3f01 f8bd 0275 cd3d 0888 213e db55 613e
00000010: ec47 233e 82a9 033d 23f2 86bd 6e9c a4bd
00000020: 5fe4 ba3c 342a 41be e2ce 1b3d b2a3 55be
00000030: a997 28be 5d42 9bbd 61aa 9fbe 110f 87bd
-0.12109613 0.10032083 0.15774548 0.22005408 0.15945405 0.032144077 -0.06589153 -0.08037649
0.022813974 -0.18863755 0.038039096 -0.20863226 -0.16464104 -0.07581017 -0.31184676 -0.065946706

fc1.weight f4 [120, 400]
00000000: 7926 133e 9d1e 97bd a015 3bbd a3bd 393d
00000010: 3e6d 493e 0da9 8bbc bbef c03d 617d 2fbe
00000020: de45 6ebd 23e5 573e ac1a fd3d 8e82 a6bd
00000030: 000f 9fbd 2f13 dabd 1df1 63bd 3b04 fb3c
00000040: 8c4d e23c 60d5 113e c4cc c7bd bf28 383d
00000050: f7f3 4c3d a369 b93e 1110 aa3e 3046 5abe
00000060: d88d 5a3d e276 87bd 8a23 9e3d 470c e73d
00000070: 5bde 0a3e d4d0 27bc 6d0f 1c3d fa15 103e
00000080: 5c29 043d 6dbf 86bd 2702 19bd 71a7 17bd
00000090: 4f0d 843c 311e dc3c aa19 7ebd 092c 0bbe
000000a0: be55 b53c b9c8 c9bd d0c8 1abc f04f 25bd
000000b0: e9e9 0c3d e162 19bd e080 54be 0b89 e4bd
000000c0: fd2e 9ebd 9ce8 0dbd 4cbe f23b d1b2 4cbd
000000d0: ec54 59bc 4e10 133b 20c8 0bbd af25 183d
000000e0: e69c 933d f4d5 043d 7709 b03a d2ca b9bd
000000f0: b603 9c3d 5021 843d ab53 613a ca91 64bd
00000100: 9ac1 ed3c 19e0 443d 7bac b13d 287b 733d
00000110: d7f3 45bd 1d6e c7bc 6390 58bd 99fb e3bc
00000120: 1588 90bd 90eb 01be 48e0 1cbe 3d8a 533d
00000130: 031b afbb a112 213d a42d 4dbd fc4b 7c3d
00000140: 93f8 8d3d 50cd 71bc 147e 5d3e d6bc 4e3d
00000150: 7640 d0bc da0a a83d bf3d 82bd e960 c13d
00000160: f340 893d 998b 86bc a6bf 563c 5d1d 4ebe
00000170: 50da c53c cc18 21bd 5d08 023e 8b13 35bb
00000180: e117 1fbd 0e54 d73b 3291 a03d fac0 763e
00000190: 8dc8 87be e1e9 c2bb 38be 54be 36e2 3ebd
000001a0: 3f0a 7dbe eb04 ce3d e454 5a3e 5873 0c3d
000001b0: d649 343e 865a eabb 5f1c df3d 5ce2 db3d
000001c0: b892 633d ec31 043e 3420 f73d 7834 a23c
000001d0: 9545 703e 54ac 0ebd 240c cbbb 4637 bf3d
000001e0: ace5 9a3d c055 ac3b ca07 9bbd 1ff2 80bc
000001f0: 9025 893d 4e7e 353e 9e27 b33d 85ff 1b3e
00000200: acc5 093e cbe4 123e a66d d03d 9a59 61bd
00000210: f55c 883c f789 383e da7a 2c3e 809e 0f3d
00000220: 56b0 e43d 456e c4bd 0967 323e 4763 22bd
00000230: a857 7dbd 0191 893e 2a18 c33d c666 933d
00000240: 60d4 0a3e 5f25 083e 77ab 4b3e 4558 9d3e
00000250: ac4f 1b3e e7a2 3a3d 441b 1e3e d73a dabc
00000260: 2202 4abd 4c56 3dbd 96b5 6c3e fc48 0a3d
00000270: 776f 6fbd d24a 00be 19bb 233d d61a 6cbd
00000280: 226f 1ebd 1fa3 69bd 888e 32bd 68ac df3a
00000290: 24f9 80bd 652b 6fbd ce22 b1bd a151 223e
000002a0: 70cd 303d 0372 323d c876 483e 5452 93bd
000002b0: 6513 29be 592a 733d 83c8 ef3d 49a9 b3bc
000002c0: dc6c 243d 8228 10bd 7486 2e3d ae8f 8bbd
000002d0: 1ddd 073e fc7c 693e ada6 db3d 7ce1 e03d
000002e0: d41a 5a3e 6e41 9b3c fc6c 8a3d 7e1a 4e3d
000002f0: c524 b23d 76b4 9d3d d5a0 ad3d 7917 a1bd
00000300: bdbe c5bd 403e cdbb 2fe9 163e c2bd edbd
00000310: 4ca9 95bd bc36 50bd 8a55 8dbc 3c8c b03e
00000320: 995b 1cbc 7dfc 373b 8767 533e f67d 3fbd
00000330: 8ed4 943d 2ba2 45be a33e 803a 8c17 5cbd
00000340: 0516 9d3c a533 3fbd 4c97 48bd 2138 debd
00000350: 6efe ebbd b37a 94bc fc98 35be 66b8 e53c
00000360: 9dd0 5a3c 3afe 843d c20c 71be b91f 6d3d
00000370: 98c4 e23d 0fb4 adbd 4999 fabc 512b 86bd
00000380: c54a 223e 6acd 7e3d 1ccf 9dbd 95a0 a13d
00000390: 505c 8e3c 1975 68bd 4799 acbc 56ce 973c
000003a0: 44b5 45bc fe29 8ebd c00a 3e3d 08a0 0f3c
000003b0: 9156 b1bd f4d2 0bbe 6590 5ebe 565b 0abe
000003c0: 4524 f6bd 083b b8bd d90a 6f3d 2706 40bd
000003d0: cf1b c13d e954 3cbd 9517 873d 0550 8d3d
000003e0: 50cb 8ebd 2719 89be 157c e5bc 12c8 0dbd
000003f0: 8037 c93c e3b5 febc a3d3 fa3c 0612 4abc
0.14370145 -0.07378886 -0.04567492 0.045346867 0.19670579 -0.017048383 0.09420725 -0.17137672
-0.0581721 0.21083502 0.12358603 -0.0813037 -0.07766533 -0.1064819 -0.055649865 0.030641666
0.027624868 0.14241552 -0.09755853 0.044960734 0.05003735 0.36213407 0.33215383 -0.21315837
0.05335793 -0.06614472 0.07721622 0.112816386 0.13561384 -0.01024266 0.03810065 0.14070883
0.032266006 -0.0657948 -0.03735557 -0.03702492 0.016119627 0.026869865 -0.062036194 -0.13591017
0.022135612 -0.09852738 -0.0094472915 -0.040359437 0.03440276 -0.037447814 -0.20752287 -0.11158951
-0.07723806 -0.03464566 0.007407939 -0.04997522 -0.013264876 0.0022440138 -0.0341264 0.037145313
0.072076604 0.032430604 0.0013430555 -0.09071888 0.07617895 0.06451666 0.00085955363 -0.055803098
0.02902298 0.04806528 0.08675476 0.059443623 -0.048328247 -0.024344498 -0.052872073 -0.027829932
-0.070572056 -0.12687516 -0.15319932 0.051645506 -0.005343796 0.039324407 -0.050092354 0.0615959
0.069321774 -0.014758423 0.21630126 0.050473057 -0.025421362 0.08205195 -0.063594334 0.09442312
0.06701841 -0.016423987 0.013107216 -0.20128389 0.024151951 -0.03933029 0.12698503 -0.0027630057
-0.038841132 0.0065712994 0.07840194 0.24097052 -0.26520196 -0.0059482907 -0.20775688 -0.04660245
-0.2471094 0.10059532 0.21321446 0.034289688 0.17606291 -0.0071519045 0.10894083 0.10736534
0.055559844 0.12909669 0.12066689 0.01980041 0.23464043 -0.034832314 -0.0061965156 0.093367144
0.07563338 0.0052592456 -0.07569845 -0.015740452 0.066966176 0.17723963 0.08747791 0.15234192
0.13454312 0.1434509 0.10177164 -0.05501709 0.016645888 0.1802138 0.16843739 0.035063267
0.11166446 -0.09591345 0.17422117 -0.03964546 -0.061851174 0.26868442 0.09526093 0.07197337
0.13557577 0.13295506 0.19889627 0.30731407 0.15167111 0.045565512 0.15440089 -0.026639385
-0.04931844 -0.046224877 0.23116145 0.03376101 -0.05845591 -0.12528542 0.039973352 -0.05764278
-0.038680203 -0.05704033 -0.04359296 0.0017064931 -0.0629752 -0.058390994 -0.086492166 0.15851451
0.04316467 0.04356576 0.19576561 -0.07193437 -0.16511305 0.059366558 0.117081665 -0.021931307
0.04014288 -0.03519488 0.042608693 -0.06814514 0.13267942 0.22801584 0.1072515 0.10980508
0.21299297 0.018952098 0.06759068 0.050318234 0.086984195 0.07700436 0.08477942 -0.07865805
-0.09655521 -0.0062635243 0.1473739 -0.11608459 -0.073076814 -0.05083345 -0.017252702 0.3448199
-0.009543323 0.0028074079 0.20644961 -0.046750985 0.07267104 -0.19300143 0.0009784292 -0.053733394
0.019175539 -0.04668011 -0.048972413 -0.108505495 -0.11523138 -0.018124914 -0.1773414 0.02804203
0.013355401 0.06493802 -0.23540023 0.05789158 0.110726535 -0.08481609 -0.03059067 -0.06551231
0.15848835 0.062207617 -0.077055186 0.07891957 0.017378002 -0.056752298 -0.021069182 0.018531006
-0.012067143 -0.06941603 0.04639697 0.008766182 -0.08659089 -0.13654691 -0.2173477 -0.13511404
-0.120186366 -0.08995634 0.058359955 -0.046880867 0.09429132 -0.045979414 0.06596295 0.06900028
-0.069723725 -0.26777002 -0.028013268 -0.03461463 0.024562597 -0.03109259 0.030618494 -0.012333399

fc1.bias f4 [120]
00000000: def8 913d 5b40 1e3e 1c68 e23c 2e46 c5bc
00000010: 2533 64bd f6c4 c23b ee96 4b3c 45e5 133c
00000020: cb71 44bd b738 a6bc 2b3a 4f3e 544d cdbd
00000030: 521c 63bb 1d0a 903c a0e7 483d d09b 913c
00000040: df75 26bc a3c6 d2bc c4bf 2f3c 50e0 5a3d
00000050: 852c abbc d9c4 6dbd 28e5 b3ba 6c2d 9f3d
00000060: e408 76bd 4ff2 57bd f2f5 583d ffbc 083c
00000070: 22bf 13bc 7451 c53c 106d 08bf 8d3b 1b3b
00000080: 3ce6 53bd 84ee edbb 9210 223e bc33 283e
00000090: 6bce 2fbc 61ff c23d b3a3 913e 4b00 96bd
000000a0: bae0 d73a 89fb ebba 096c 3dbd 23b5 2cbd
000000b0: ca7a 6a3e 4463 cebc 404d 82bc 4beb 7dbe
000000c0: 0916 6e3d 285f 96bd 803b ad3d 3225 7c3d
000000d0: ff38 6abd a0ca 903a 5b53 efbc 67b0 90bd
000000e0: 29e9 b4bd 41ef cd3c 2417 9c3c 5a09 283e
000000f0: 4dc8 b8bd cc38 9d3d 5101 8aba 83c3 8fbd
00000100: f4a3 f0bd 374a 953b cf79 873c 4380 22be
00000110: 56ec 67bd 80fe 0e3e 275c 7c3c 2169 4d3e
00000120: d476 19bd 32f2 9cbc 9fe2 b9bd fc24 5cbd
00000130: 1f46 083c d48a babc 92e1 133e 7c90 593c
00000140: bce5 99bd b945 88bd acef 3cbc 8b0a 013e
00000150: bc8b 08bd 8170 ff3d 64b6 b1bc 91b5 1c3d
00000160: 954a 0a3c 46b5 b93b 2afd 5ebd 7aeb 263d
00000170: d6ad a4bc 689a 6f3e 250e 0bbe 2d3a 763e
00000180: 63b5 57bc ac75 d8bc ab62 dd3c c15b b1bb
00000190: db82 043d df51 2dbd 203f 85bd a1e8 58bc
000001a0: 7975 413e 6f02 0abd a1db aa3c 3f2d 323e
000001b0: 688d 393c f45e 37bd 5538 a1bd 6f77 49bd
000001c0: 001c 143c dfd4 a83d 2b0f 4bbd 6c63 2cbc
000001d0: 59a3 2ebd 7aee 0c3c 6269 cebc 9f18 25be
0.07127546 0.15454237 0.027637534 -0.024081316 -0.055712838 0.0059438897 0.012426121 0.00902683
-0.047960084 -0.020290716 0.20237033 -0.10024515 -0.0034654331 0.017582947 0.04904902 0.017774493
-0.010159939 -0.025729483 0.010726873 0.053436577 -0.020895252 -0.058049057 -0.001372491 0.077723354
-0.060067073 -0.052721318 0.052968927 0.008345841 -0.009017738 0.024086691 -0.53291416 0.0023686618
-0.05173324 -0.0072610993 0.15826634 0.16425985 -0.010730366 0.09521366 0.28445205 -0.07324275
0.0016470172 -0.001800404 -0.04624561 -0.042164933 0.22898403 -0.025193818 -0.015905976 -0.24796788
0.058126483 -0.07342368 0.08458614 0.06155891 -0.057183262 0.0011046715 -0.029214552 -0.07064896
-0.08833534 0.0251385 0.019054003 0.16409817 -0.09022579 0.07676849 -0.0010528957 -0.07019713
-0.117500216 0.0045559662 0.016537575 -0.1586924 -0.056621872 0.13964272 0.01540283 0.20059635
-0.03746684 -0.019158456 -0.09076428 -0.05374621 0.008317499 -0.022771277 0.14441517 0.013279077
-0.075145215 -0.066539235 -0.011531752 0.12601678 -0.033336386 0.1247263 -0.021693416 0.038259093
0.008440633 0.0056673614 -0.054440655 0.04075191 -0.020102423 0.23398745 -0.13579614 0.2404563
-0.013165805 -0.026423298 0.027024588 -0.0054125492 0.032351356 -0.042314406 -0.06506181 -0.013239057
0.18892469 -0.033693727 0.02085668 0.17400073 0.011325218 -0.04476829 -0.078720726 -0.049186166
0.009039879 0.08243727 -0.049575012 -0.010521751 -0.04263625 0.008601779 -0.025196735 -0.16122673

fc2.weight f4 [84, 120]
00000000: e22d 173d c83e 3c3d b0d3 29bd fa20 e23c
00000010: eebd 4f3c 8013 26bc 9e03 0cbd 0755 9cbd
00000020: 820e a43d 2eb6 4ebc 9948 9bbd 8a55 f0bd
00000030: 7691 87bd 7825 acbc 7a9c 83bc 793d 4fbd
00000040: 438e 973d 74bc 873c 1132 b73c e121 c3bd
00000050: 9ff3 dabc c5c0 7f3d bb5c d63a c4f8 8a3c
00000060: fd34 2fbd f242 3dbc 2264 133c f438 1ebc
00000070: ed45 953a 4642 f03c ab58 efbc 246a af3c
00000080: 0814 dc3b 275c bcbd 7d89 1bbd 23cc 8a3d
00000090: 0646 a4bd 91e7 93bb 759f ae3c 5b47 85bd
000000a0: c78e e2bd b842 f9bc f755 ac3d 9df6 8a3d
000000b0: d9bb 10bd d288 a2bd b593 3fbd 8f64 bcbc
000000c0: d412 2abd 1824 9dbd 1a3f 95bd 562a 293d
000000d0: db11 89bd 94ec 963d dc37 5d3d b832 11bc
000000e0: 3a65 f33c f023 c4bd cdf4 a1bc 5b78 acbc
000000f0: c74c 95bd abf6 e43c d972 e4bc c558 8d3c
00000100: 559e 9abd 5e4a 89bd 46f2 573c d764 093b
00000110: f9ee d0bc f32f b6bd 5a89 2fbd 3492 55bd
00000120: 8c66 a03d 6a9c b03d b0aa 71bd b0ee 493d
00000130: e8bf 9cbd d560 eebc 2d5e 34bd 6452 cebc
00000140: f00e 913b 04e7 a43d 47a4 b3bd 888a 97bd
00000150: 6332 a23d 107b aabc 96aa 84bd ee66 01be
00000160: b7f0 ea3c 9ba8 7d3d 9b4f 22bd 3a37 a1bc
00000170: 4787 693d 2689 39bc c233 42bc bdca dd3c
00000180: 1f84 a5bd 758f 583d 6f59 92bd 9ae3 cd3b
00000190: 9ff9 8c3d 4ed2 9a3d 783a 773d 677e 673c
000001a0: bea8 9dbd e3b0 47bd eeb0 753d 6ac1 64bc
000001b0: 71d6 57bb 1928 773c 185b 1abd 8aa9 e13c
000001c0: dffd a53d b693 a2bb 56c7 8c3d 6889 a13c
000001d0: 8119 66bd eb9a 383d 6338 88bd 57a1 79bd
000001e0: ca2a cebd 4a36 83bc 5e65 363c fe18 b0bc
000001f0: cbb4 bdbc 8405 a6bd 855e 82bd d522 3ebd
00000200: c623 ad3d d181 bfbd 8e09 afbc 7a93 0fbd
00000210: cde8 863b ae27 5dbd 4871 da3b 715b be3d
00000220: c0f4 893d 1051 803d 6559 81bd c101 1cbd
00000230: bc3f 9a3d 43f9 843d 948a 803d 5fb0 bf3c
00000240: 9f08 86bd ddaa 393d 654a 93bd 4f51 233b
00000250: 9f2b 51bc 5558 27bd 628b 4ebd 9586 8dbd
00000260: 2427 00bd 5f7c 0cbd c221 5f3d 11d0 553c
00000270: e345 4fbb 7a8a 98bd 788d d8bd e827 2d3d
00000280: 8913 bfbc d52c c93c fee6 60bd 5626 433b
00000290: aaaf 9bbc 947d 4b3d 3b9b ac3d 19f4 8cbd
000002a0: 3808 f03c 5644 313d 7d5d d83c 925c debc
000002b0: b6ec cfbc ecfc 29bd fc61 013d 06af 97bd
000002c0: 93d2 6ebd b41e 043d 1eab 813d c172 97bd
000002d0: 9944 afbd 7b08 6ebd 9887 3f3d 543d f4bc
000002e0: c368 c33b de67 eebc a605 00bc 86cf 86bc
000002f0: c8be 8cbd e57f b6bd 9662 a1bd 9873 b8bd
00000300: c948 76bd d5b5 00bd 9b57 1fbd 1220 b93c
00000310: bf5d a5bb 8116 b6bd 09b6 a1bd ae20 a33d
00000320: 39d9 5c3d b939 f53c 3b77 5e3d 9efd 8abd
00000330: 54bc 1abd 80c3 cabd 6e56 babd a8a0 e43c
00000340: 0487 803d 2166 7a3d 5d38 573b 5ad6 2c3d
00000350: 9b40 b63d 0045 993d 8465 3bbb 7a6a 0b3d
00000360: 3c30 39bd 4c58 80bd 0904 9fbc 9553 76bb
00000370: db25 afbc ef1c e83b 820a 8c3c ceb9 b2bd
00000380: 0dc5 b0bd 651e 98bd 13b2 5f3d e304 68bc
00000390: ae13 81bc b056 42bd 6daa 8ebd 7431 533c
000003a0: 24e0 cd3c 7ba2 83bc 3c9c 1e3d c8e8 323d
000003b0: 4fbf 8cbd a1a8 053d 5b02 743d 6065 5f3d
000003c0: 6b2f fd3c bdbc 0f3e de26 193e 969f 033c
000003d0: 08ee 023d a38c 143e 898e 49bd 49ff d33d
000003e0: 5dd6 893d c7bd a93d fb28 6bbc 58aa 053e
000003f0: 1f41 233d 4452 c43d 8d56 c13d 6e0c 363a
0.03690899 0.04595831 -0.041461647 0.027603615 0.01267956 -0.010136485 -0.034183137 -0.07633405
0.0801058 -0.012616677 -0.07582206 -0.11735065 -0.06619541 -0.02101396 -0.016065825 -0.050595734
0.07400181 0.016569354 0.02236274 -0.09527946 -0.026727496 0.0624397 0.001635454 0.016964324
-0.042775143 -0.011551606 0.0089960415 -0.009657133 0.0011388637 0.029328477 -0.029217085 0.021412916
0.006716255 -0.09197264 -0.037972916 0.06777217 -0.080211684 -0.004513689 0.02131627 -0.065077506
-0.11062389 -0.030427322 0.08414834 0.06785319 -0.035335395 -0.07936253 -0.046771724 -0.022997169
-0.041521862 -0.076729 -0.07287426 0.04130014 -0.06692859 0.073693424 0.05400835 -0.00886219
0.029711355 -0.09577167 -0.01977005 -0.021053484 -0.07290035 0.027949652 -0.027886795 0.017254243
-0.07549731 -0.067036375 0.013180321 0.0020964646 -0.025504576 -0.08895864 -0.042855598 -0.052141383
0.07832059 0.086235836 -0.05900067 0.049299896 -0.07653791 -0.029098907 -0.044035126 -0.025185771
0.0044268295 0.08051875 -0.08771568 -0.073994696 0.07919767 -0.020810634 -0.06477849 -0.12636921
0.028679235 0.061928373 -0.0396267 -0.019679654 0.057013776 -0.011324203 -0.01185316 0.027074212
-0.08081841 0.052871186 -0.07145964 0.0062832357 0.06883549 0.07559644 0.060358495 0.014129258
-0.07698201 -0.048752677 0.059983186 -0.013962129 -0.0032934214 0.015085244 -0.03768453 0.027546663
0.08105063 -0.004961456 0.06873958 0.01971884 -0.056176666 0.045069616 -0.0665138 -0.06094488
-0.10066755 -0.016017098 0.011132566 -0.021496292 -0.023157498 -0.08106521 -0.063656844 -0.046419937
0.08454089 -0.093509324 -0.02136686 -0.035052754 0.0041171075 -0.05399292 0.006666336 0.09294785
0.067361355 0.062654614 -0.06315879 -0.03808761 0.075316876 0.064928554 0.06276432 0.02339953
-0.06544613 0.045328964 -0.07191924 0.002492029 -0.012766748 -0.040855724 -0.050425895 -0.06910435
-0.031287327 -0.034298297 0.054475553 0.013050095 -0.003162735 -0.07448287 -0.10573858 0.042274386
-0.023324745 0.02455751 -0.05490779 0.0029777489 -0.019004662 0.049680308 0.08428045 -0.068824954
0.029300794 0.04327806 0.026411766 -0.02714375 -0.025381427 -0.04150097 0.031587586 -0.0740643
-0.058306288 0.032255843 0.06331466 -0.073949344 -0.08558006 -0.058113556 0.04676017 -0.0298144
0.0059634163 -0.029102262 -0.007813847 -0.016456377 -0.06872326 -0.08911113 -0.07880132 -0.09006423
-0.060128007 -0.03142341 -0.038901906 0.0225983 -0.005046576 -0.08891011 -0.078960486 0.079652175
0.053918097 0.02993475 0.054312926 -0.06786655 -0.03777726 -0.0990057 -0.090985164 0.027908638
0.06275752 0.061132554 0.0032839992 0.04219661 0.08899041 0.07483864 -0.0028594444 0.03403709
-0.045212016 -0.06266841 -0.019411104 -0.003758644 -0.021380356 0.0070835273 0.017094854 -0.08726846
-0.086313345 -0.07427672 0.054613184 -0.014161321 -0.015756454 -0.047445953 -0.069661 0.0128902085
0.025131293 -0.016068688 0.038723215 0.04367903 -0.06872427 0.03263152 0.05957256 0.054540038
0.0309064 0.14036842 0.14956233 0.008033654 0.031965286 0.14506774 -0.049208198 0.10351426
0.0673034 0.0828815 -0.014353032 0.13053262 0.039857026 0.095860034 0.094403364 0.0006944601

fc2.bias f4 [84]
00000000: 1dc4 333d 958b 3e3d 4237 233d 0a2c aebb
00000010: 6f41 483e b2ec 153d 8b98 943c 71c6 c83d
00000020: 920f eb3d 4b7f 1cbd 1470 443e 4c27 dfbd
00000030: 2d0b a43d f9b4 8abe 162a 70bd e5ce 71bd
00000040: 7c74 7a3d 62a3 a13c adf5 103e 117c 7dbd
00000050: 9a08 89bd b66d 153d e66c 5bbd b266 d93d
00000060: 76f9 48bc 67b8 de3d 7b46 da3b 8115 4d3e
00000070: 93a8 99bd 151c 983d 9c65 f7bd 9cb6 d1bd
00000080: 5f10 133e 8752 a73d 7b97 af3d 2579 9f3d
00000090: f2f4 823e ac6a 0c3e f25f f8bb aeb7 053e
000000a0: 55bd 84bd be08 673c 36a5 813e 6cb4 d2bd
000000b0: 208f 013e c5c1 0dbd 46ac 543e ed45 bbbd
000000c0: 5f5c a5bd e5d9 853d d5fa 9ebd c0ef 09bd
000000d0: d886 1b3e 42e8 b13c da80 7b3d 8d95 dd3d
000000e0: faff 8ebc 842e 1d3e 9627 c2bd 2913 283d
000000f0: 570e ed3d 76e3 b6bc d7f1 c63d 0ebe bcbc
00000100: cbd9 753d aab2 163e 5119 ed3d e81a d0bd
00000110: b4b8 bcbd e381 abbc d43c 1dbd 89b4 713d
00000120: c2c1 aa3d 2d21 bdbd 0597 183e 753c 843e
00000130: 54cc c3bd a2d6 bbbd 7273 c03c 1f80 a6bd
00000140: d585 c6bd 8de9 babd 6def 99bb 9847 673e
0.0438882 0.046519835 0.03984762 -0.0053153085 0.19556211 0.036602683 0.018139144 0.09803475
0.11477579 -0.038207334 0.1918338 -0.10896167 0.08009944 -0.27091196 -0.058633886 -0.0590352
0.061146244 0.019731227 0.14156218 -0.061885897 -0.06691094 0.03648158 -0.05357065 0.10615291
-0.012266507 0.10875016 0.006661234 0.20027734 -0.07502856 0.07427231 -0.12079927 -0.10239908
0.14361714 0.08170038 0.085738145 0.07786778 0.25577503 0.13712567 -0.007579797 0.1305835
-0.06481425 0.014101205 0.25321358 -0.10288319 0.12652254 -0.03460862 0.20768842 -0.09144197
-0.08074259 0.06535701 -0.07762686 -0.03367591 0.15188158 0.021717194 0.06140218 0.1081954
-0.017456044 0.15349776 -0.09480207 0.041033898 0.11575001 -0.022325259 0.09714096 -0.023039844
0.060022157 0.14716592 0.11577094 -0.10161382 -0.09214917 -0.020935958 -0.03838809 0.059010062
0.083377376 -0.092348434 0.1490136 0.25827375 -0.09560457 -0.09171797 0.023492549 -0.08129906
-0.09693495 -0.091265775 -0.004697731 0.22585905

fc3.weight f4 [10, 84]
00000000: b797 aebd 40f0 563d 2ae5 ac3b 4461 dabc
00000010: cf7c 96bc 1e95 2f3e 4c93 4c3e 3d6c c7bd
00000020: 95c3 063e c9ba ec3d 0b85 a33d 53b7 2abc
00000030: 9057 38bb e1a7 ae3e 7c12 8b3d f048 af3c
00000040: 810a eebd 5120 15bc 739e bdbe 08f7 a23d
00000050: 11b3 c83c a6e2 5cbe f2b0 683d 857c 4ebc
00000060: 33b6 53bd 6efe 163d 11fc 973d 0bcf ba3d
00000070: edbf 063d 9ea6 80bd 69dc e43d 6050 38bb
00000080: 760e 983d ef64 4d3d 5537 7e3c ebc4 383e
00000090: a2cd 433d 48d6 263e a64a 803e a34f 0ebe
000000a0: a006 e9bc 50d1 43bd 9421 a9be 24ad d33e
000000b0: ab31 d93d 2857 dcbd aba8 4a3c c487 ae3e
000000c0: 04ab c5bd de11 a6be 4f10 68bd 2865 573e
000000d0: 57d3 673e 664d 823d 53f2 b53b 9739 413e
000000e0: 73c3 363d 99a1 0d3e c5fa 29bc f3ea 94bb
000000f0: f971 17be 610c f1bd 97e4 e93c a399 f5bc
00000100: 64cf debd 2aae 203e 0fb6 503e d302 ccbd
00000110: f752 dcbd be26 03bf ecae 473d c306 c5bd
00000120: 125e 943d 7793 b3bb a872 d33c a7f0 87bd
00000130: c9a7 a3bd a257 b03d 4ce6 7d3d b7cf da3e
00000140: 693d a1bd e40c fabe 6ba2 b1be 2da0 6fbe
00000150: ff9c b4bd 2578 903d bc7d 313e fd6e 923d
00000160: c073 d53d 4036 8f3d a0ed 44be 6e28 8b3e
00000170: 7ead 163d 1f96 403e 234b 75be 130a 403d
00000180: f3b5 8d3e 8922 653d ebfd 243c 2e66 513e
00000190: 502d a63e 1c03 9c3b 27b9 733f 8c7a 4d3e
000001a0: a47a 083c b79e 853e b40c 05bd f187 143e
000001b0: c0ad 2f3d f60a 7fbe a3bb 9d3d 28e7 6b3e
000001c0: 6115 5bbd 3451 223e a07f 063d 3ae0 d03c
000001d0: 2997 4a3e b0c9 65be 4172 5a3d 54c5 243d
000001e0: b8d8 2c3d 0127 18bd 587d 77be a280 7e3e
000001f0: 502a 8e3e d6d3 d93d 4ace b03e 98d7 42bf
00000200: 65e4 693e 632f 03bd e619 08bd de81 78be
00000210: 819e 85bd 745a 35bf d473 cbbd 7549 803c
00000220: 86d3 8dbe e1b3 403e 0ba2 6bbe 02e7 143c
00000230: 9955 26be 210b 15be fbcb 3bbd 8657 663d
00000240: 1aec 553e 0c8e 2c3e 8bf3 52be a778 9dbd
00000250: 455c 1d3e af54 283e 9d30 a63c b38b dfbb
00000260: e974 393e 5353 b3bd 485e 34bb 1763 83bd
00000270: 9030 83bd 307e 32be a499 823e 6048 ca3d
00000280: 0697 d33b fe9a 1f3d d2a0 dbbe 4f98 6ebe
00000290: c45b 2fbd e168 d23e f9b0 f43c 0420 373d
000002a0: 3f3b 823d 022b 52bb c1c2 1b3e b095 b6bd
000002b0: dfd2 9a3c 26e9 a53b 088a ab3d 7e8d 1cbe
000002c0: 2b5f 923e fec7 8e3d afea 0ebe f186 e83d
000002d0: dc4a bf3d 520f c33e 41b4 b4bd 5ba1 87bd
000002e0: fc4c dfbd 4b86 0e3d 225b 5abf bb1d 073e
000002f0: 76dd 92bd 94fd 8dbd c1d5 90bd 08df 893e
00000300: d285 4bbd 611c 1ebe 2aee 7fbd a8dd 173e
00000310: dc21 58bd bbf0 f93d a075 43bd ccb7 49bc
00000320: b560 1a3d 7eaf bcbd cae6 68bd 6114 253e
00000330: 4799 debd c291 663e 314e 4b3c 2244 5dbd
00000340: 1871 033e 3bac 4ebd 325f 37bf 45e2 a73e
00000350: 94c2 89bd c239 e73d 913f c3bc 33b6 283e
00000360: 4a6e a6bc fdd3 06bf 9148 15bd fb6a 573e
00000370: ffaf 2e3e 520e 3e3e 7e9a 4f3e 56e6 493e
00000380: 6eeb 98bd 5d98 27be 600a 0d3d e3a7 983d
00000390: 2d41 06bd abbf 453e 16c5 ac3d 7f6f 7f3a
000003a0: 40c7 09be ba79 043e 7e48 6d3e 4ab9 9b3d
000003b0: c8e9 963d 01cb 16bf 31be c93c 4a68 fabd
000003c0: b7d7 203e ad31 41be 96de 353e f20b e0bd
000003d0: bc18 a13d 6c3d 833d 5b29 803c 4275 083e
000003e0: cb7a d03d eea8 00bf 35ef 11bf 0460 b8be
000003f0: 477f 903d 2083 2c3d 7571 9bbd eb47 84bd
-0.08525031 0.052475214 0.005276342 -0.026657708 -0.01837006 0.17146727 0.19978064 -0.09737442
0.13160546 0.11559064 0.0798436 -0.010419684 -0.0028128363 0.34112456 0.06790635 0.021397084
-0.11623097 -0.009101943 -0.3703495 0.07957274 0.024499448 -0.21570835 0.056809373 -0.01260293
-0.05168743 0.036863737 0.07421125 0.091215216 0.03289788 -0.0628178 0.111748524 -0.002812408
0.07424633 0.050145086 0.015516122 0.18043868 0.04780353 0.1629268 0.25056952 -0.13897566
-0.028445542 -0.047807038 -0.3303343 0.41343033 0.106051765 -0.10758811 0.012369315 0.34087956
-0.09651759 -0.32435507 -0.056656178 0.21034682 0.22639214 0.06362419 0.005552569 0.18869625
0.04461999 0.13831176 -0.0103747295 -0.0045446097 -0.14789571 -0.11769939 0.028551383 -0.029980486
-0.108794 0.15691438 0.2038195 -0.09961476 -0.10758012 -0.5123099 0.048750803 -0.0962043
0.07244505 -0.0054802257 0.025811508 -0.06637698 -0.07990987 0.08610465 0.061987206 0.427366
-0.07873041 -0.4883796 -0.34694228 -0.23400946 -0.08819007 0.07054166 0.1733312 0.071500756
0.10422468 0.06992769 -0.19231272 0.27179283 0.03678655 0.18807267 -0.23954444 0.046884608
0.2767788 0.05594114 0.010070304 0.20449135 0.32456446 0.004761113 0.95204395 0.20066279
0.008330021 0.26097652 -0.032482818 0.14504983 0.04289031 -0.24906525 0.077018045 0.23037398
-0.053487185 0.15851289 0.032836556 0.025497545 0.19784226 -0.22440219 0.053331617 0.04022725
0.042198867 -0.037146572 -0.24168909 0.24853757 0.27766657 0.106361076 0.34532386 -0.7611022
0.22841032 -0.032027613 -0.033227824 -0.2426829 -0.06524373 -0.70841146 -0.09934202 0.015660027
-0.27700442 0.18818618 -0.23011033 0.00908828 -0.1624359 -0.14555027 -0.045848828 0.056235813
0.20890847 0.16851062 -0.20600717 -0.07689028 0.1536723 0.16438554 0.020286852 -0.0068220734
0.18111004 -0.08756127 -0.0027522016 -0.06415384 -0.06405747 -0.17430949 0.25507843 0.09877086
0.0064572124 0.03896617 -0.42896134 -0.23300289 -0.042812124 0.4109564 0.029869543 0.044708267
0.063589565 -0.0032069092 0.15211011 -0.089152694 0.01889938 0.005063194 0.08375937 -0.1528835
0.28588232 0.06971739 -0.13956712 0.11353863 0.0934045 0.38097626 -0.08823443 -0.06622573
-0.109033555 0.03479604 -0.8529531 0.13194935 -0.071711466 -0.06933132 -0.0707202 0.26927972
-0.049688168 -0.15440513 -0.06248299 0.14830649 -0.052766666 0.12204119 -0.047719598 -0.012311887
0.037689883 -0.0921316 -0.056860723 0.16121055 -0.10869079 0.2251654 0.012408779 -0.054020055
0.1283611 -0.05045722 -0.7162963 0.32789817 -0.06726566 0.11290313 -0.023834022 0.16475753
-0.020316262 -0.5266722 -0.036446158 0.21036904 0.17059325 0.1856015 0.20273778 0.19716772
-0.0746678 -0.16366716 0.034433722 0.07453897 -0.032777 0.19311397 0.08436029 0.0009744092
-0.13454914 0.1293706 0.23172185 0.076037005 0.07368809 -0.5890351 0.024626823 -0.12226923
0.15707289 -0.18866606 0.17760691 -0.109397784 0.07866046 0.064082 0.01564472 0.1332598
0.10179671 -0.50257766 -0.57005626 -0.36010754 0.07055526 0.042117238 -0.075899996 -0.0645903

fc3.bias f4 [10]
00000000: df7a cd3c 9adb 663d cefc 64bd 2ed8 213e
00000010: 975f 6b3e 0d13 cbbe 47e8 f93d 4551 06be
00000020: c3d2 d6bd 33fb 76bc
0.025083004 0.056361772 -0.055905156 0.15805122 0.22985683 -0.39662972 0.122025065 -0.1311694
-0.10489418 -0.015074539

fc4.weight f4 [4, 10]
00000000: 91c7 d23e 54a8 41be a289 c93e c49f 42be
00000010: 5a4d 16be 2789 0b3f e8f5 f4bd 8aeb 253e
00000020: df54 48be 7987 1fbe d5aa e4be dcee af3e
00000030: e203 8dbe 601e dabe a885 90be 31d5 f9be
00000040: 4a64 393e 79d0 8f3e 52dd bb3d 43be 6a3f
00000050: da10 a1be 3d1f 2abd 3a07 27be 8119 a03e
00000060: 5f67 103f cccf 06bf 0d5d cbbe 0463 2dbe
00000070: 615f c7be aeda 93be 02f9 fcbb 9425 07bf
00000080: ca17 fcbe 3e5f 883e c393 9c3d 1728 37be
00000090: df83 afbd 1208 00be 244f d83e ec0d 0a3e
0.41167882 -0.18911868 0.39362818 -0.19006258 -0.14677945 0.5450615 -0.119609654 0.16203132
-0.19563626 -0.15579022 -0.44661584 0.34361923 -0.27542025 -0.426013 -0.28226972 -0.48795465
0.18104663 0.2808874 0.09173073 0.91696566 -0.3145817 -0.041533697 -0.1631135 0.31269458
0.5640773 -0.5266082 -0.3971943 -0.16932303 -0.38939956 -0.28877777 -0.0077201137 -0.52791715
-0.492369 0.26635164 0.07645371 -0.17886387 -0.08570074 -0.12503079 0.4224788 0.13481873

fc4.bias f4 [4]
00000000: 2034 86be 91d7 91bd 1dd1 913e 7bb2 0d3e
-0.26211643 -0.07121194 0.28479853 0.13837616
