tasks/attack_war/defender_list/defender_2/attack_detector-model.pth (torch, 251649 bytes, 12 tensors)

conv1.weight f4 [6, 3, 5, 5]
000000 02 6b c5 bc 8c 5f 45 3d d7 5d da bd c3 ad 8a bd
       -0.024098877 0.048186824 -0.1066243 -0.06771424
000010 1f 25 19 bd 0e bb a3 3d 01 ec 29 3c d7 08 3b 3e
       -0.037388917 0.07994662 0.010371209 0.18265091
000020 b6 32 87 3d d7 d8 d6 3d 31 5a f0 bc e0 a6 b4 bc
       0.06601469 0.10490578 -0.029339882 -0.022052228
000030 81 ac 0a be 57 59 a4 bd 09 40 6e bd a2 d7 1d 3d
       -0.13542368 -0.08024853 -0.058166537 0.03853572
000040 9a f3 93 3d b0 43 e3 3d be 87 79 bd 95 eb 09 bd
       0.07224198 0.11096895 -0.06092047 -0.033671934
000050 18 e7 33 3d 9a f0 a5 3d c3 39 aa bd b7 88 a6 3d
       0.04392156 0.08102532 -0.083117984 0.08131545
000060 94 a6 4a bd 1e f4 e6 ba 41 7b cf 3d c3 2a e5 bd
       -0.049475268 -0.001762036 0.10130931 -0.11189797
000070 7a f6 07 bd 32 f9 d8 ba 4b 92 8b bd 67 0c ca 3d
       -0.033194043 -0.0016553758 -0.068150125 0.09865647
000080 25 17 cb bd a7 bb 38 bd a9 7a c9 bd fc 2c bd bd
       -0.09916524 -0.045100834 -0.09837849 -0.09237096
000090 c3 12 6a bd d3 7d 2c 3e 82 ca cd 3d 2c a2 c1 3d
       -0.0571468 0.16844873 0.10048391 0.0945476
0000a0 85 68 04 3c ad cc d8 bd 0c 7f 1b bc 0e 5c 20 be
       0.00808156 -0.10585914 -0.00949074 -0.15660116
0000b0 3f cd 01 be e2 f1 55 bd 14 f0 bc 3d cf e0 96 3d
       -0.12675951 -0.05223263 0.09225479 0.073670976
0000c0 94 ec 95 bd e9 01 ee bb 4e 83 66 3d 42 04 c0 3d
       -0.07320514 -0.0072634113 0.056277566 0.09375812
0000d0 c1 79 84 3d 2e 83 30 3d ae 78 d7 3d 13 41 f6 bd
       0.06468535 0.043093853 0.10521065 -0.12024131
0000e0 a7 e3 40 3a 8e 27 f1 bd 57 45 a9 bd aa 12 af bd
       0.00073581416 -0.117751226 -0.08265179 -0.08548482
0000f0 41 e7 ac 3d 88 5a 85 3d db 19 bb bd 31 ea 57 3d
       0.08442546 0.06511408 -0.09135791 0.052713577
000100 2e 7f 73 3d 51 aa 33 bc d8 1e 38 bc 09 3e 03 3c
       0.05944746 -0.0109659 -0.0112378225 0.008010396
000110 61 04 83 3d 17 1d ed 3d 30 25 eb bd 36 3f bc bd
       0.063973196 0.11577814 -0.11481702 -0.09191744
000120 f9 8d 27 3c 11 4c 97 3d 2e a0 b6 3d bc 0b ce 3d
       0.01022672 0.073875554 0.089172706 0.10060832
000130 ed de 08 3c e0 31 e5 bd ed cc 34 3d 0c 6a 48 bd
       0.008353931 -0.111911535 0.044140745 -0.04892926
000140 b6 ea ee bd de 71 0b 3e e7 2d 0d 3e 35 ca d7 bd
       -0.11665861 0.13617656 0.13787042 -0.10536615
000150 ce 94 56 3d 5f 51 11 bd 0d e3 5b bd 37 3c a6 bd
       0.052388005 -0.035477992 -0.05368333 -0.08116954
000160 58 da f2 3c e0 2b cc bd 5d 9c 71 3d 40 82 5a 3d
       0.02964513 -0.09969306 0.05898701 0.053346872
000170 3a 91 a5 3d ed a2 65 3d 3d 13 c2 bd f5 b4 c9 bd
       0.080843404 0.05606358 -0.09476326 -0.09848968
000180 c9 d6 21 3d 96 e4 3c 3c 82 b7 c4 bd 2c 42 11 bd
       0.039511476 0.0115291085 -0.09605314 -0.035463497
000190 00 e4 f6 3d fd d2 be 3d 15 45 b6 bc 14 10 68 3c
       0.12055206 0.093175866 -0.022249738 0.01416399
0001a0 29 5f aa bd 2b b3 41 bc 02 5a 04 be 77 ea d0 bd
       -0.083189316 -0.011822502 -0.1292496 -0.102009706
0001b0 f2 b3 4e bb 37 c6 5f 3b 06 17 34 bd a4 50 b8 3d
       -0.0031540361 0.0034145245 -0.04396727 0.08999756
0001c0 16 6b a1 bd 63 2b f7 3d 69 5c c4 3d 2d 8e 1b be
       -0.07881753 0.12068822 0.09587938 -0.15190955
0001d0 e8 51 ae bd d8 a5 1c bd 7b a3 17 bc 92 f1 10 3d
       -0.08511716 -0.0382441 -0.009255285 0.03538663
0001e0 4d 67 8f 3d 5d e5 8c 3b a3 4a 94 bd e5 48 c8 3d
       0.07002125 0.004299803 -0.07240798 0.097795285
0001f0 02 97 9a bd 2a d6 bf bd 87 32 c6 bc c2 c4 be bc
       -0.07548334 -0.093670204 -0.024194015 -0.02328718
000200 55 d4 9c 3a 5c 48 9f bd b5 5b a6 bc 51 cc 03 3d
       0.0011965135 -0.07777473 -0.020307401 0.032177273
000210 38 77 a5 bd fe 25 18 bb 9f 2e c1 3d 51 a4 47 bc
       -0.0807938 -0.0023216004 0.094327204 -0.012185172
000220 11 7a 83 bc 6c 80 ba bc ab d9 fb 3b 77 32 a3 3d
       -0.016049417 -0.022766314 0.00768586 0.0796861
000230 f6 bf f8 3d 74 ad 6a 3d a6 e2 d7 3d a9 e3 aa bc
       0.12145989 0.057294324 0.10541277 -0.02086051
000240 f4 43 d9 bd 76 58 b4 bd aa b5 9a 3d cd aa 5d bc
       -0.10608664 -0.08805935 0.07554181 -0.013529492
000250 ce fc 1a bd 75 e3 67 bd aa 48 b9 bd 73 d3 8d bd
       -0.03783875 -0.056613404 -0.09047063 -0.06925096
000260 42 8e 88 3c 52 1a ba 3d c9 d5 d4 3d a7 49 0d be
       0.016669396 0.090870515 0.10392339 -0.13797627
000270 1e 29 b7 3d e3 50 04 be cd 0c 45 bd b6 2e a7 bd
       0.08943389 -0.12921481 -0.04810791 -0.08163206
000280 ee ec 40 bc 7d 61 ae 3c 27 76 6c bd a1 d5 67 bd
       -0.011775238 0.02128672 -0.057729866 -0.056600217
000290 6e 41 6c 3c 21 51 0c bd 47 bb 99 bd d7 e0 69 3d
       0.0144198965 -0.034257058 -0.075064234 0.05709919
0002a0 3c 83 fd bd d0 56 da 3c b6 8c e5 3d dc b3 97 bd
       -0.123785466 0.026652724 0.11208479 -0.07407352
0002b0 e0 1e cb 3d bc ea 73 3d 26 b2 93 bd f0 26 83 3d
       0.09917998 0.059550032 -0.072117135 0.06403911
0002c0 36 72 21 bd 2c 18 9e bd 65 04 9b 3d 25 a9 09 be
       -0.03941556 -0.07719454 0.075691976 -0.1344343
0002d0 c2 4d 53 3b f0 a0 26 bd 15 66 b7 3d bf c6 b7 3c
       0.0032242392 -0.040680826 0.089550175 0.022433637
0002e0 27 80 72 3d a2 b8 a2 bb 4d a7 7a bd 0a be 30 bd
       0.059204247 -0.0049658576 -0.061194707 -0.043149985
0002f0 38 02 f8 bd 80 bd 68 3d e8 b8 b5 3d f9 06 ef 3d
       -0.12109798 0.056821346 0.08873159 0.11671252
000300 ff ef ac bd d1 76 31 3d ac 16 3b bd 88 23 04 be
       -0.08444213 0.043326203 -0.04567592 -0.12904179
000310 bd 6b 08 be 12 17 53 bc 9b d7 f7 bd 3e 18 ee 3c
       -0.13322349 -0.012883918 -0.1210167 0.029064294
000320 28 69 ef bc e8 9d b1 3d fd 38 0b be 27 82 f2 bd
       -0.029224947 0.08672696 -0.13595958 -0.11841231
000330 ab fa da bd 77 e5 ae 3d 13 ed ae bd 19 c0 cd 3d
       -0.10692342 0.08539861 -0.08541312 0.10046405
000340 a3 cf a5 3c 9c dd e9 3b e9 f3 b9 bc c5 c1 2e bd
       0.02024061 0.0071370136 -0.022699313 -0.04266526
000350 d2 bf 24 3d da 3d 14 bd e7 57 e1 bb ba 89 d6 bc
       0.040221997 -0.0361918 -0.006876934 -0.02618872
000360 fb c7 e3 bd 8f 29 a8 bd 2b 55 0e 3e a4 4b ab bd
       -0.111221276 -0.08211052 0.13899677 -0.08364037
000370 a5 41 49 bd 31 1c 09 3e 5b 3c 45 3a 35 47 92 3c
       -0.04913487 0.1338966 0.0007523947 0.01785622
000380 80 d7 ca bd 4a 8d af 3d cb a3 f7 bd f1 f8 3f bd
       -0.099043846 0.085718706 -0.12091788 -0.04686827
000390 67 f2 4d bd 3f 05 b4 bc fe 61 24 3d 62 eb 20 3e
       -0.05028 -0.021975158 0.040132515 0.15714791
0003a0 17 9a 1b 3d 8a b9 07 3e a6 6d c6 3d 5f 3b de bd
       0.03798875 0.13254371 0.096888825 -0.10851168
0003b0 af 76 c8 3c 32 59 09 be 4c a7 de bd 9f 89 03 bc
       0.024470655 -0.13412932 -0.10871753 -0.008028417
0003c0 40 b8 c0 3d ad 89 cf 3d a9 99 0b bd 27 70 d9 ba
       0.09410143 0.101336814 -0.03408209 -0.001658921
0003d0 37 81 96 3d 2b f7 e3 bd 5e 46 cc 3d 6a 8b bb bd
       0.073488645 -0.11131128 0.09974359 -0.091574505
0003e0 26 1b 83 bb 71 41 a3 bc 4d ca da bc 20 b6 46 3d
       -0.004001039 -0.019928666 -0.026707793 0.04851353
0003f0 0b 3e 0f 3e 1b e9 22 bc 78 79 2c bd de d3 25 bd
       0.13988511 -0.009943272 -0.04210803 -0.040485255

conv1.bias f4 [6]
000000 7c 03 93 3c 61 23 ae 3b fa 5a fe 3c 27 ed c1 bb
       0.017945997 0.005314276 0.03104924 -0.0059181633
000010 2e 88 f9 bd 66 a5 39 3e
       -0.12184177 0.18129501

conv2.weight f4 [16, 6, 5, 5]
000000 24 8b 3c bd 85 27 2a bb 11 09 d2 bd 2b d1 7d bd
       -0.046031132 -0.0025963497 -0.102556355 -0.061967056
000010 e7 92 e2 bd f3 2f 99 bd 51 0b a2 bc 1b cf c9 bd
       -0.11063176 -0.07479849 -0.019780787 -0.09853955
000020 bb eb 14 bc d9 8e eb 3b 04 51 13 bd 1a 51 c7 bd
       -0.009089406 0.0071886596 -0.035965934 -0.09732266
000030 2f 9d c4 bd 98 7f 6f bd e7 40 1f ba c5 49 0e 3d
       -0.09600293 -0.058471292 -0.000607504 0.03473832
000040 86 84 39 3c c2 b5 30 bd cb 90 af bb f7 14 e9 bd
       0.0113231 -0.043142088 -0.005357837 -0.11380952
000050 03 06 de bd 9f b0 fe bb ee a8 af bd 6b 62 8a ba
       -0.108409904 -0.0077725197 -0.08577143 -0.0010557895
000060 a8 91 c2 bd 54 57 57 bd a1 fd a4 bd 74 28 05 3d
       -0.09500438 -0.052573517 -0.080561884 0.032509282
000070 5a 32 46 bc 6a e8 4b 3d e9 e1 06 3d af b3 07 3d
       -0.012096966 0.049782194 0.03293029 0.033130344
000080 10 b4 58 b9 98 bf c8 bc ab 6f bd bc 6d 35 07 3a
       -0.00020666444 -0.024505422 -0.023124536 0.00051578024
000090 9f 4b 0a 3d f4 60 67 bd b7 a4 8d 3d cb 84 85 bc
       0.033763524 -0.056488946 0.069161825 -0.016298672
0000a0 d2 1b 9e bd f1 5a 41 bd c4 d2 79 3d df e5 93 3d
       -0.0772015 -0.04720587 0.060992017 0.07221579
0000b0 e3 84 a4 bd 07 0e 26 3d 6e a4 fc 3c 68 ec 1e 3d
       -0.08033159 0.04054072 0.030840125 0.038799673
0000c0 7f 6d 7c 3d d6 6e 5d bd b1 df 89 bc 89 a5 75 bc
       0.06162786 -0.05406078 -0.016830297 -0.01499308
0000d0 36 0d 69 bd 53 f5 d0 bb 36 a5 6d bd 61 9a 7e 3b
       -0.056897365 -0.006376901 -0.058018886 0.0038849341
0000e0 33 30 7e bd a0 07 79 bd 36 72 e5 bb cf 5e ea bb
       -0.062057685 -0.060798287 -0.0070021404 -0.0071524153
0000f0 06 5c 9a bd 72 82 ed bc 78 12 6f 3c ce 8f d7 bc
       -0.07537083 -0.028992865 0.014591806 -0.026313689
000100 6f 63 35 bc 6c d6 78 bd 64 5b 7b bc 9d 21 c4 bd
       -0.01107107 -0.060751364 -0.015341613 -0.09576724
000110 ff 09 9c bd 65 65 a2 bd ed 58 07 3d 8b 4c 57 bd
       -0.07619094 -0.07929496 0.03304379 -0.05256323
000120 96 56 08 bd 4d fd 86 bd e6 df 20 3d b6 94 99 3c
       -0.0332857 -0.06591282 0.039276026 0.018747669
000130 4a 7e eb bd b0 a6 ef bd 02 38 d8 bd 0f 2e 46 bd
       -0.11498697 -0.11701715 -0.10557558 -0.04838377
000140 2e 99 a3 bd 2c bb e1 bd 70 0d a2 bd 6a 71 09 bd
       -0.07988201 -0.11022028 -0.07912719 -0.033555426
000150 2b 6e b7 bd 16 0a 11 bd 7b cd 8f bd ed 79 ae bd
       -0.0895656 -0.03541001 -0.07021614 -0.08519349
000160 62 97 07 bd 13 54 a5 3c b5 46 de bd ed 89 4e bd
       -0.033103354 0.020181691 -0.1085333 -0.050424505
000170 16 a7 9f bd fd ae cf 3c cf 56 fe bd 21 1b 01 be
       -0.07795541 0.025351996 -0.12418901 -0.12608005
000180 1b 1d cf 3c 87 5f c7 bd a3 24 1a bd 76 b8 73 bd
       0.025282433 -0.09735017 -0.037632596 -0.059502088
000190 a0 c0 79 bd bc e4 7c bd f1 d0 32 3c 4c 1c 0b bd
       -0.060974717 -0.061741576 0.010914073 -0.033962533
0001a0 1d dc ea bd ff f3 be bd db dd 91 bd 60 90 bb ba
       -0.114677645 -0.09323882 -0.07122394 -0.0014309995
0001b0 1e f9 b6 bd 8b 93 12 3d d9 95 7f bd a5 39 63 bd
       -0.08934234 0.03578524 -0.062398765 -0.055474896
0001c0 94 6e b0 3c bc 0c 94 3a 74 dc d8 3c c2 83 65 bb
       0.021537103 0.0011295299 0.026472308 -0.003502116
0001d0 9d 1f 8c bd 54 e7 c6 bd 3b 12 5e bd ad 7f 89 3c
       -0.06841967 -0.09712091 -0.054216605 0.016784513
0001e0 dc f0 a4 bd 64 8c f6 bd 99 37 3a bc 8c 73 dc 3c
       -0.08053753 -0.12038496 -0.011365795 0.026910566
0001f0 f2 87 9f bd bd 65 af bd 10 32 bc bd 85 77 a1 3b
       -0.077896014 -0.08564327 -0.09189236 0.004927578
000200 18 ac a3 bc 56 12 5b bd 76 a8 75 ba 3c 3e 6a 3c
       -0.019979522 -0.053484283 -0.0009371111 0.014297064
000210 12 25 55 3d e9 49 53 3d f1 80 bf bc 82 5f b5 bd
       0.052037306 0.051584158 -0.023376914 -0.08856107
000220 92 c8 b2 bd 49 ee 82 3d cd ce c7 3c ec 24 af 3c
       -0.08729662 0.063931055 0.024390602 0.02137991
000230 54 80 ac bd 0b 6c 7b 3d db 57 86 3d 42 c1 73 3d
       -0.08422914 0.061382335 0.06559726 0.059510477
000240 35 06 ad bd c5 4b 3a bd b7 89 90 bd 2f 5f 7f 3d
       -0.084484495 -0.045482416 -0.07057517 0.062346634
000250 be d9 50 bd 80 a1 66 bd 92 35 d6 3d aa 43 15 3b
       -0.050988905 -0.056306362 0.104594365 0.0022775927
000260 61 7f 16 3c 52 79 3d 3d ee 33 10 3d 13 7b 13 bd
       0.009185643 0.04625828 0.035205774 -0.036006045
000270 07 3d 05 3e 3e c1 c2 3b d9 1e a7 3d 25 29 08 3e
       0.13011561 0.0059434464 0.081601806 0.13296945
000280 80 01 bc 3d bb 78 3d 3d cd 09 05 3e f9 19 82 3d
       0.091799736 0.046257716 0.1299202 0.0635261
000290 2e 53 93 bb 30 8a 09 3e 76 d7 4a 3d b5 62 01 bd
       -0.004496 0.1343162 0.049521886 -0.031588275
0002a0 ba f5 7e 3c 53 51 88 bc d8 55 07 3e 37 77 05 3d
       0.015561515 -0.01664034 0.1321634 0.032584395
0002b0 72 ea d1 bc 3d 66 39 3d 06 20 e8 3d 33 e3 3f 3d
       -0.025624488 0.045263518 0.11334233 0.046847533
0002c0 7a c8 57 3d a4 30 13 3d 2d 8d 93 3d e5 0b 6a 3c
       0.052681424 0.03593506 0.072046615 0.014285062
0002d0 1d b3 a8 bc b3 eb 65 bd 70 44 0c bd bd 87 5d 3d
       -0.02059322 -0.056132983 -0.034244955 0.05408453
0002e0 c8 3b 13 bd 60 0c 15 3d 2e 05 68 3d b3 1f 04 3d
       -0.035945684 0.036388755 0.056645565 0.032256793
0002f0 1c 46 2c bd 65 83 e0 3d 48 5c 00 bd a0 88 a5 3d
       -0.04205905 0.109625615 -0.031338006 0.080827
000300 b8 eb 87 bd d6 f5 f0 39 b3 3b 8b 3d 1f 1f 0d bc
       -0.06636757 0.0004595953 0.06798496 -0.008613377
000310 8b 8d a5 3d 6c 4b c0 bc 5b 74 19 bd 0c 8c 00 ba
       0.08083638 -0.023473464 -0.03746448 -0.0004903681
000320 90 51 96 3d 8a e9 09 3e 52 bf 9a 3c 29 36 d5 3d
       0.073397756 0.13467994 0.018890057 0.10410721
000330 fa b8 32 3d b4 8d 0d 3d 94 5b fa 3d b5 ab 83 bc
       0.04363344 0.034558967 0.122244984 -0.016073087
000340 42 e5 85 3d dc 3b 24 3e f0 e4 41 3d 30 bd 10 3e
       0.06537868 0.1603846 0.047337472 0.1413467
000350 52 b7 ae 3c 67 e3 0a 3e 5b 5b a5 bc e6 d5 7a 3d
       0.021327648 0.1356331 -0.020185163 0.061239146
000360 b6 8a 03 3d c5 4d aa 3d c4 67 c3 3d 1b a1 0c 3e
       0.032114707 0.083156146 0.09541276 0.13733332
000370 1c 89 8c 3d 5d f2 84 3d f6 07 fd 3d ed 6d 16 3d
       0.06862089 0.064915396 0.12355034 0.036725927
000380 48 70 22 3e bc cf 0d 3d a5 41 bc 3d 40 d8 a8 3d
       0.15863144 0.03462194 0.09192208 0.082443714
000390 98 4b 02 3e ad f7 0c 3e e3 3f 8b 3d 46 19 89 3c
       0.12724149 0.13766356 0.06799295 0.016735684
0003a0 7a 15 06 3e e7 74 c1 3d a7 f3 d7 3d f8 02 a5 3c
       0.1309413 0.094461255 0.1054452 0.020143017
0003b0 a7 e9 1f 3e df 6c 2c 3e a9 62 a9 3d 31 a4 a6 bb
       0.15616475 0.16838406 0.08270771 -0.005085491
0003c0 c7 6e 0f 3e 38 46 82 3b 2b 84 c1 3d 29 67 af 3d
       0.14007102 0.003975656 0.09449037 0.08564598
0003d0 2b 72 24 3d 1f 93 d6 3d ff 2d 1f bc d7 0c e4 3d
       0.04014794 0.1047728 -0.009715556 0.111352615
0003e0 95 83 a7 3c 1d f5 a8 3d a8 60 77 3d f1 7b 07 3e
       0.020448485 0.08249877 0.060394913 0.13230874
0003f0 df eb 69 3b e9 ac e9 3d 32 9b f4 3c b4 1e d4 3b
       0.0035693569 0.11409933 0.02985916 0.0064733867

conv2.bias f4 [16]
000000 31 3f 9b 3d 5c c2 10 be d2 e4 00 3e 84 74 81 bc
       0.07580412 -0.14136642 0.12587288 -0.01580263
000010 38 d6 1f 3e 2c dc 06 3e b0 c0 e3 bd eb 70 ef bc
       0.15609062 0.13169926 -0.111207366 -0.029228648
000020 3f 92 07 3d 30 dc f0 bd a5 99 8b bc f7 ea 28 be
       0.033098456 -0.117607474 -0.017041037 -0.16495882
000030 c3 73 d8 bd 69 7d 5b bd fb 97 01 be ca 40 77 bd
       -0.10568955 -0.053586397 -0.12655632 -0.060364522

fc1.weight f4 [120, 400]
000000 4f 22 d2 bc 44 c5 f0 3c 74 16 48 3c 30 5e 94 bc
       -0.025651125 0.029390939 0.0122123845 -0.018111318
000010 fa b3 a4 3c fb 50 0a 3c 63 9b 23 3d 1c e0 95 bc
       0.02010535 0.008442159 0.03994311 -0.01829534
000020 98 6b ac 3b 1a d3 1a 3d 93 ca 2d 3d 5e ac ab 3c
       0.0052618496 0.03779898 0.042429518 0.020956215
000030 ac 0d 18 3d 5e d8 91 3d 1d c7 9d 3b b6 09 69 3d
       0.037122414 0.07121347 0.004814996 0.056894027
000040 31 ae 7f 3d be 1f a5 bc be 67 12 3d b3 9a 4a 3d
       0.06242198 -0.020156737 0.035743468 0.04946394
000050 1f bb 82 3c 72 94 52 3d 04 99 c6 3c 5d 5c 7d 3d
       0.015958367 0.0514111 0.024242885 0.061855663
000060 34 76 d1 3c 0c c0 ec bc 1d 38 20 3d ec 23 8a 3c
       0.025569059 -0.028900169 0.039116014 0.016862832
000070 99 17 50 3d 73 3f 57 3c 8c 30 03 3d 52 e6 2c 3d
       0.050803754 0.013137686 0.03202872 0.042211838
000080 2d aa be 3c 57 68 cb 3a 3f 84 80 3c b8 32 e7 bc
       0.023274506 0.0015518767 0.01568806 -0.028222427
000090 59 35 53 3c 22 64 6c bb 56 d3 84 3c b1 6b 05 bd
       0.012891137 -0.0036070426 0.016214054 -0.032573406
0000a0 ba a0 84 3c 5c b8 44 bd 56 50 d4 3c 77 2a 15 3d
       0.016189922 -0.04802738 0.025917213 0.03641745
0000b0 17 92 40 bd 74 6a 18 3d 30 43 26 bd 82 ff 15 bc
       -0.047014322 0.037210897 -0.04059142 -0.009155156
0000c0 ea 22 0f 3c e4 b6 c8 bc 31 55 b8 3d ca 41 b5 3c
       0.0087363515 -0.024501272 0.09000624 0.022126097
0000d0 15 bb 1e 3d c9 fb 63 3c 0b ea c1 3c 2d b2 c2 3d
       0.038752634 0.013915011 0.02367117 0.095066406
0000e0 b7 13 a7 3d 4d 93 48 3d ba 90 53 3d c7 9b d4 3b
       0.08158057 0.048968602 0.051651694 0.0064882967
0000f0 ad 6c ae 3d 94 56 22 3d 48 53 d6 3c 03 ce fe 3b
       0.08516822 0.03963335 0.026162758 0.0077760234
000100 1a 5d bc 3d 49 1b 8f 3d 03 9a 9f 3d a2 5f 61 3d
       0.09197445 0.06987626 0.07793047 0.055022843
000110 bc 05 75 3c cb ce 8d 3d 97 84 84 3d 3b 8e 8f 3d
       0.01495498 0.06924208 0.06470602 0.0700955
000120 35 8c 21 3d fe 5d f3 3c df 8b c3 3d 3d 2c cb 3c
       0.039440352 0.029707905 0.09548163 0.024801368
000130 6b 4f 98 bb cd 36 ed 3c 2a c4 52 3c 08 a0 33 3c
       -0.0046481392 0.028956795 0.012864152 0.010963447
000140 93 44 4e 3d 15 ec 0d bc a0 e9 95 3d eb b1 72 3d
       0.050358366 -0.008662243 0.07319951 0.059251707
000150 7c 8f 9c 3c 13 4d 8d bb 2a 22 23 3d 2d 53 ff b6
       0.019111387 -0.0043121665 0.039827503 -7.609275e-06
000160 c7 cf 68 3d 60 04 3c bc 9c 06 9b 3c 51 d0 f0 bc
       0.056838777 -0.011475652 0.01892405 -0.029396208
000170 4c 8c 12 3d 85 e1 54 3d cb bf 5b 3d 57 05 9e 3b
       0.03577833 0.051972885 0.053649705 0.004822414
000180 5a 55 3c 3d c1 08 9c 3c 39 c8 26 3d d2 36 12 3d
       0.045979835 0.019047143 0.04071829 0.035696812
000190 ac 9c 51 3c 09 44 5e 3d d7 1f 05 3d d5 9c ec 3c
       0.012793701 0.054264102 0.032501068 0.028883377
0001a0 18 de c0 3d 8c 41 58 3d 04 76 5d 3d 5d 69 a6 3d
       0.09417361 0.052796885 0.054067627 0.08125565
0001b0 c1 09 b0 3d ed bc af 3d 85 ad 66 3d 01 bd c6 3b
       0.085956104 0.085809566 0.056317825 0.0060650115
0001c0 32 16 32 3c 0f d1 a0 3d 58 76 7d 3d 96 90 11 3d
       0.01086955 0.07852375 0.06188044 0.03553828
0001d0 1b 49 ab 3d 1d fc dc 3d 73 f9 c0 3d 29 64 67 3d
       0.08363553 0.10790274 0.09422579 0.056492005
0001e0 72 4e 91 3d 2d d6 1e 3d 12 81 c2 3d 3b f1 07 3d
       0.070950404 0.038778473 0.094972745 0.03318904
0001f0 40 c2 b7 3d 3d 04 fc 3c 0e 34 01 3d b9 25 eb 3b
       0.08972597 0.03076374 0.031543784 0.0071761278
000200 18 2c 27 3d 71 81 3c 3d c8 7f 02 3d 1e 25 b2 3d
       0.040813535 0.046021882 0.031860143 0.08698486
000210 19 9b a2 3d f0 f1 0f 3c 48 ca 47 3d 03 b7 8b 3d
       0.07939739 0.00878571 0.048776895 0.06822016
000220 ab dc d0 3d 76 4a 2a 3d bd 08 ac 3d 29 18 4e 3d
       0.10198339 0.041574918 0.08400104 0.05031601
000230 44 ba 17 3d 2a 44 a7 3d c3 8e 1a 3c 70 85 c3 3d
       0.03704287 0.08167298 0.009433451 0.095469356
000240 71 6c dc 3d d2 cd 57 3d 4a bf a5 3d e5 ad e3 3d
       0.10762871 0.05268652 0.08093126 0.11117152
000250 ad 56 9f 3d af c1 aa 3d 6c 78 09 3d 3c 01 96 bb
       0.07780204 0.083377235 0.03356211 -0.004577784
000260 0b 5b f9 3c 96 b2 a2 bb e6 a6 84 3d d9 59 19 bb
       0.03043892 -0.0049651368 0.06477146 -0.00233995
000270 b5 7b 08 3d 37 c5 31 3c 26 f5 3f 3d 74 7a 8d 3c
       0.0333211 0.010850242 0.04686465 0.017270304
000280 ee fe 17 3d 2b e0 05 3c 87 e0 e4 bb 0c 40 35 3d
       0.037108354 0.008171122 -0.0069847736 0.044250533
000290 af c5 60 bc c2 de ee bc 5c fd 11 3d 38 a5 4d bc
       -0.013719006 -0.029158954 0.035642013 -0.012551598
0002a0 33 5c cd ba 77 ed 8b 3b f9 b2 22 3c b0 49 50 bb
       -0.0015667736 0.0042702514 0.009930366 -0.0031782202
0002b0 7b bd 13 bc 2a b6 97 bb 6a 78 07 3d 97 35 1b 3d
       -0.009017344 -0.00462987 0.03307382 0.037892904
0002c0 53 dc ab 3a 92 72 10 bc 5c ce e2 3c 98 46 35 3d
       0.0013111926 -0.008816378 0.02768629 0.044256777
0002d0 dd fc b9 3c f0 a6 5e 3d ac c2 89 3d bd 58 28 3d
       0.022703582 0.054358423 0.06726584 0.041100252
0002e0 11 d2 2a 3d 22 77 4b 3d d1 eb a0 3b ff 9d 0a 3d
       0.04170424 0.04967416 0.004910924 0.033842083
0002f0 ff 0b 83 3d d4 b0 57 3a bb de e2 3c bf 66 9b 3b
       0.063987724 0.00082279486 0.027694097 0.004742473
000300 3b 3d 52 bc fe 85 4a 3d 7d 58 86 3d df 22 89 bb
       -0.012831981 0.04944419 0.065598466 -0.004185065
000310 e4 71 27 3d cb 89 27 3d c7 35 39 3d 87 6f 55 3d
       0.0408801 0.040902894 0.0452173 0.052108314
000320 81 0b 86 3d 06 27 5e 3d 6a 32 e6 bc da 6e 6b b9
       0.06545163 0.054236434 -0.028100211 -0.00022452642
000330 b3 5b 3e 3d d3 6f 5d bc b0 bb d3 3c 0f e1 7d bb
       0.04647417 -0.0135154305 0.025846332 -0.0038738882
000340 0f 9e d3 3c 3d 3e 2e 3d 78 19 08 3d 8f a4 5a 3d
       0.025832204 0.042539824 0.033227414 0.05337959
000350 05 c0 40 3c d8 89 3b 3d 80 6b 14 3d e6 fb a7 3a
       0.011764531 0.045785755 0.036235332 0.001281616
000360 a5 a8 8b bc 83 20 86 3d be 6b 57 3b 25 27 5f 3d
       -0.01704819 0.0654917 0.0032870616 0.05448069
000370 e1 d2 5d 3d 7f 7e 9f 3c c2 36 c2 bc 57 05 cb 3c
       0.054156188 0.019469498 -0.023707751 0.02478282
000380 49 2a 4c 39 67 ba a6 3c 13 0e 5c bc 13 d2 45 3d
       0.00019470709 0.020352555 -0.01343109 0.048296046
000390 a3 6b 00 bd d8 8d 84 bb e7 08 be 3c 4a 49 a1 3c
       -0.03135265 -0.0040452294 0.023197604 0.019688267
0003a0 9c be 78 3d d5 9f 8e 3b 38 c8 e0 bc 3a 2d 33 3d
       0.060728654 0.0043525496 -0.027439222 0.043744303
0003b0 c5 f4 06 3d 55 dc 64 3d 30 00 39 bc 0c eb 89 bc
       0.032948274 0.055874187 -0.011291549 -0.016835712
0003c0 77 0c 0d bd a4 70 ce 3b fe 55 e8 3c 7c 45 89 bc
       -0.034435716 0.006300049 0.028361317 -0.016756766
0003d0 16 77 c0 3b f1 f2 9f bb 20 80 50 3d 73 ef 84 bc
       0.005873571 -0.004881256 0.05090344 -0.01622746
0003e0 0b c9 1f 3d dc 72 e1 bc a1 34 45 bd 0d 81 77 bd
       0.03901009 -0.02752059 -0.048145894 -0.060425807
0003f0 7d f0 95 3c 6c c9 2c bd e0 1f dd 3b 63 15 0e bd
       0.01830315 -0.04218428 0.0067481846 -0.034688365

fc1.bias f4 [120]
000000 90 1d 20 3e e9 70 68 bd 7f 05 ca bd fd 54 4a bc
       0.15636277 -0.056748305 -0.098643295 -0.012349364
000010 be ad 60 3d 20 e5 fb 3d e1 2a 8c bd 48 a1 d7 bc
       0.054853193 0.122995615 -0.06844116 -0.026322022
000020 41 86 cd bc dd e0 6a bc 79 06 1c 3e 80 3e d9 3c
       -0.025088431 -0.014335838 0.15236844 0.02651906
000030 94 3d 47 bb e1 f9 b6 3d 62 9b 97 3b 9f c7 c7 bc
       -0.0030401694 0.08934379 0.0046266774 -0.024387179
000040 a3 3a 46 bc f9 ee 91 bc 8f d5 90 3b 5a 0d ac 3c
       -0.012098941 -0.017814146 0.0044199894 0.02100246
000050 46 d7 c3 bc c8 47 15 3d 45 46 1d 3d c6 e3 a0 3d
       -0.023906361 0.03644541 0.038397092 0.07855944
000060 cb e4 ea bd 9e 41 19 bd 53 93 75 3d d4 4c 63 bd
       -0.1146942 -0.037416093 0.059954952 -0.05549319
000070 ae 7b 1a 3b c9 92 02 3e f7 91 8b bc c6 a4 f2 3b
       0.0023572254 0.12751307 -0.017037375 0.0074048964
000080 9c 32 49 bd 7a 52 e6 bc bc 12 c8 bb 92 81 55 bc
       -0.04912053 -0.0281155 -0.006105749 -0.01303138
000090 81 28 ad bd fe f0 57 3c fb e3 20 bd d6 f9 53 bd
       -0.08454991 0.013180016 -0.03927992 -0.051751934
0000a0 e0 28 89 bc d4 91 cf 3a 1d c1 e6 bd 37 8c fa bd
       -0.016743124 0.0015836307 -0.11267302 -0.12233775
0000b0 fd e8 23 3d fd 59 b7 3d cd b8 1d 3c 76 32 c7 3c
       0.040017117 0.08952711 0.0096265795 0.024316054
0000c0 97 85 c7 3d 2c 8f ef bd 20 bb 1f bb e1 ae a4 3d
       0.09742277 -0.1169723 -0.002437301 0.08041168
0000d0 a4 39 60 bd 4b 6d ec 3b 50 c8 11 bd 43 63 c9 bd
       -0.05474247 0.007215177 -0.035591424 -0.09833386
0000e0 6c 4f 1d 3e cc 4e 15 3d ca 07 88 3d 38 ec 18 3d
       0.15362328 0.0364521 0.06642111 0.03733465
0000f0 59 d3 69 3d e4 06 b8 3d f2 e1 9d 3d bf e2 ea bd
       0.057086322 0.08985689 0.07709111 -0.1146903
000100 4e 5f 08 3d 9c 1e ee 3c b2 6a d0 3d 71 56 04 bd
       0.033294015 0.02906733 0.101766005 -0.032309
000110 cb 92 09 3e 2e d2 b0 3d 86 a3 7d 3c f0 62 97 bd
       0.13434903 0.086338386 0.015480882 -0.07391918
000120 68 1c 1b bd 26 97 69 bb 67 d7 0a be 38 18 3e 3d
       -0.037868887 -0.003564307 -0.13558732 0.046409816
000130 33 ab 44 bd a5 be 99 bd c7 04 a9 3d d7 cf 9e 3c
       -0.04801483 -0.07507066 0.08252864 0.019386215
000140 b3 5a 32 3e 11 b3 36 bd a7 f5 b1 bd 2e 5a aa bd
       0.17417412 -0.044604365 -0.086894326 -0.08317982
000150 1e 94 e6 bc 87 f7 2a 3d 80 2c 81 3d 94 63 04 bd
       -0.0281468 0.041739967 0.06307316 -0.032321528
000160 a7 2c de 3b fc a8 e3 3c b5 5e c5 bd 76 0d 02 bd
       0.0067802253 0.027790539 -0.096372046 -0.03175112
000170 40 03 42 bb 36 e3 c3 3d fb 07 ca bd f2 23 ae 3d
       -0.0029603988 0.095648214 -0.098648034 0.0850295
000180 cf 65 2b bc 43 fa 5b 3d e8 26 dc 3c 0c 6d e7 bc
       -0.010461285 0.053705465 0.02687402 -0.02825024
000190 af 88 ed 3c f1 1c 37 bc 07 be f8 bd 98 71 a2 ba
       0.02899584 -0.011176334 -0.1214562 -0.0012393473
0001a0 f5 29 27 3d f5 eb 36 3c 53 42 e6 3c f4 ac b0 3d
       0.040811498 0.011164655 0.028107798 0.08626738
0001b0 85 d7 33 bd d2 c0 32 bd 6f 38 8f bc a0 93 1f bc
       -0.043906707 -0.04364092 -0.017482964 -0.009739786
0001c0 2d 9d 51 3c d6 2e af bc a8 83 1f bd cb 1d bb bd
       0.012793821 -0.021384638 -0.038943917 -0.09136542
0001d0 d2 20 40 bd 6e 52 ee 3b 02 a7 ca bc f4 9d a4 3d
       -0.0469063 0.00727301 -0.024737839 0.0803794

fc2.weight f4 [84, 120]
000000 77 ee 3b 3d 1a 24 99 3d 0e 4a e4 bc 86 ef d7 3c
       0.045881715 0.07477589 -0.027867343 0.02635933
000010 8d 2e 7c 3c 1a 81 1c bc 6d 46 00 bd 9c d9 64 bd
       0.015391958 -0.009552265 -0.031317163 -0.05587159
000020 a7 b3 98 3d 33 f8 c9 39 15 14 49 bd c9 70 b2 bd
       0.07456141 0.0003852263 -0.049091417 -0.08712918
000030 8c 09 87 bd 7d 02 de bc 7e 8c 66 ba 69 8c 53 bd
       -0.06593618 -0.027100796 -0.00087947387 -0.051647577
000040 9f d9 92 3d 74 bc 87 3c 94 62 b7 3c e7 fe c9 bd
       0.07170414 0.016569354 0.022385873 -0.09863072
000050 8d e8 dd bc 00 49 91 3d e1 c8 89 3a 6f 06 91 3c
       -0.027088428 0.07094002 0.0010512137 0.017703263
000060 25 86 38 bd 63 b6 3a bc f6 d3 21 3c 69 37 96 bb
       -0.045049805 -0.011396023 0.009877196 -0.004584242
000070 cb 4b 09 3b 95 78 cf 3c 3a 0b a8 bb cb e7 cf 3c
       0.0020949717 0.025326053 -0.0051282914 0.025379082
000080 6e 01 95 3c 94 24 c0 bd 6b 9d fd bc e6 8b 8e 3d
       0.018189158 -0.09381977 -0.030958852 0.06960277
000090 9d 83 aa bd e9 1e 8d bb be 30 94 3c 5b 47 85 bd
       -0.083258845 -0.0043066633 0.018089648 -0.065077506
0000a0 d6 f1 b9 bd d1 29 e5 bc 65 c4 a1 3d d9 3b 83 3d
       -0.0907933 -0.027974041 0.078987874 0.064078994
0000b0 9f 15 04 bd f9 bd a2 bd 21 05 27 bd 1e 52 16 bc
       -0.032247182 -0.07946391 -0.040776376 -0.009174852
0000c0 25 09 49 bc 68 ba 9d bd c4 72 8b bd 66 a5 19 3d
       -0.012270247 -0.0770157 -0.06808999 0.037511252
0000d0 26 c5 63 bd 2f 01 9f 3d da 37 5d 3d bc 32 11 bc
       -0.055607937 0.07763898 0.054008342 -0.008862194
0000e0 12 b6 1a 3d a3 e5 c3 bd b3 ac c9 bc 2c de 9a bc
       0.037771292 -0.09565284 -0.024618482 -0.018904768
0000f0 bd 5d 94 bd cc 12 33 3d 53 27 dd bc f6 89 51 3d
       -0.07244442 0.043719098 -0.02699629 0.05115696
000100 c1 4d 99 bd 35 6e 86 bd 3e 08 80 3c b7 99 93 3a
       -0.074855335 -0.06563989 0.01562893 0.001126102
000110 97 63 20 bd 8f 53 b8 bd e8 77 33 bd 5f d7 d0 bc
       -0.039157476 -0.090003125 -0.043815523 -0.025493322
000120 91 a1 9f 3d 75 50 b6 3d fd c5 f2 bc 7f 57 48 3d
       0.07794488 0.08902065 -0.029635424 0.048911568
000130 8b 3f 85 bd a8 8e 05 bd c4 de 37 bd 64 52 ce bc
       -0.065062605 -0.03260675 -0.04489018 -0.025185771
000140 f3 0e 91 3b a8 85 bc 3d dc 63 bb bd b4 fa 8f bd
       0.004426831 0.092051804 -0.09149906 -0.0703024
000150 8f f9 96 3d 2f a2 77 bc d7 e9 82 bd 16 6f c6 bd
       0.07371818 -0.015114351 -0.06392258 -0.09689157
000160 b4 b9 df 3c cd 40 75 3d 0f 58 f7 bc 43 c1 bd bc
       0.02731023 0.059876252 -0.030193357 -0.023163443
000170 40 4b 63 3d 3e 36 9f bc 6e cd bc 3b 16 ec 82 3d
       0.055491686 -0.019435044 0.005761794 0.06392686
000180 bd 9d 99 bd da e8 55 3d 8d ef 92 bd 7f 44 a6 3c
       -0.07500789 0.052224018 -0.07174597 0.020296333
000190 bd eb 85 3d e0 31 91 3d 0b f1 72 3d e5 6b 72 3d
       0.06539104 0.07089591 0.059311908 0.059184927
0001a0 f8 3b 74 bd e3 b0 47 bd 79 65 75 3d 4a 93 56 bc
       -0.059627503 -0.048752677 0.059911225 -0.01309664
0001b0 d0 f7 17 3d 27 4d 93 3c ef 8a 2b bd 7c ea d2 3c
       0.037101567 0.017981125 -0.041880544 0.025746576
0001c0 ac 01 a0 3d db 91 29 bc 55 c7 8c 3d 84 5e 93 3c
       0.07812819 -0.010349716 0.06873957 0.017989404
0001d0 ad 74 32 bd e2 ca 33 3d ea 3a 87 bd ae bc 74 bd
       -0.043568302 0.043894656 -0.06603034 -0.05975025
0001e0 60 9b f4 3c a1 f4 ad 3c 76 da 3f bc c5 ee f1 bc
       0.029859245 0.021234812 -0.0117098 -0.0295328
0001f0 cd c7 dc 3d 12 4f 02 be 24 dc d3 bd 73 8f 0f be
       0.107802965 -0.12725475 -0.10344723 -0.14019565
000200 b1 f7 b0 3d bb 5f 5f bd 9b 00 27 3e 3d d1 f7 3d
       0.086409934 -0.054534655 0.16308825 0.12100456
000210 98 9e 02 3b 1e b8 86 bc 2d 1c 05 3e ac 90 6b 3c
       0.0019930955 -0.016445216 0.1299903 0.014377754
000220 80 d3 75 3d 27 f2 8a 3d b7 32 a6 bd 12 a3 a3 b7
       0.060016155 0.06784468 -0.08115142 -1.950705e-05
000230 e0 8f 96 3d 86 85 50 be be c8 3f 3e ae 13 d8 3d
       0.07351661 -0.20363435 0.18728921 0.105506286
000240 c0 fc 0e be 2b fe 37 3d 60 46 4e 3c 04 09 a7 bd
       -0.13963604 0.044920128 0.012590021 -0.081560165
000250 f2 91 44 bc e4 6c 61 3d 78 e5 34 bd 5b 6c 7c bd
       -0.011997687 0.055035487 -0.04416415 -0.061626773
000260 52 30 e0 bc 5e 0b 3c bd 4b 70 97 3d 1c 59 3b 3d
       -0.02736679 -0.045909278 0.07394465 0.04573928
000270 48 6b a3 bd d4 83 07 bc 02 52 0f be e8 27 2d 3d
       -0.07979447 -0.008271176 -0.13996127 0.042274386
000280 e3 8d ec 3d 02 96 f0 3c a5 42 15 be ff 26 8c bd
       0.115505 0.029368404 -0.14576204 -0.068433754
000290 88 d3 a8 3c 45 b0 40 3e 84 81 a0 3d c9 86 4e bd
       0.020608678 0.18817241 0.07837203 -0.05042151
0002a0 35 85 3d 3e ee 61 84 bc 8d cc e4 3c b4 7e f9 3d
       0.18507846 -0.016159978 0.027929569 0.1218237
0002b0 72 89 12 bd fa 21 f6 bc fb 61 01 3d d7 66 06 be
       -0.03577561 -0.030045498 0.031587582 -0.13125168
0002c0 3d 83 02 3d a1 14 19 3e 5a 56 3d 3e b8 f6 96 bc
       0.03186344 0.14949276 0.18489972 -0.018428192
0002d0 bf 8a 70 3d 5e d8 b8 bc f9 d5 4a 3e d8 d2 26 bd
       0.05872607 -0.02256411 0.19808187 -0.04072842
0002e0 da d9 01 3e 96 45 d7 3d db 0c f4 3c 91 32 f6 3d
       0.1268076 0.10511319 0.029791286 0.120213635
0002f0 50 40 3d 3d e3 3f 09 bc 70 ae a3 bd 9c 75 42 be
       0.04620391 -0.008377048 -0.07992256 -0.18990177
000300 cc ce 95 bd ab 4d 2d bd 3f 3b 86 bd c5 78 1c 3e
       -0.07314834 -0.042310398 -0.06554269 0.15280445
000310 d2 7c 0e 3d ce 51 25 be 82 5d 26 bb af 20 a3 3d
       0.034787007 -0.16144487 -0.0025385325 0.07965218
000320 58 38 5c be fa b8 94 3c 5f 9b c7 bc 9f 7e f3 bd
       -0.21505868 0.01815461 -0.024366079 -0.118893854
000330 49 e0 53 bd 26 3c b9 bd b9 fb 8f 3d be a3 ee 3c
       -0.051727567 -0.090446755 0.07030434 0.029130813
000340 f5 e1 55 3d ff 97 82 3d 93 01 1c bd e2 b1 24 bd
       0.052217443 0.06376647 -0.03808744 -0.040208705
000350 6a 8d a0 3d ce 26 49 3e cd 63 aa 3c e5 96 c6 3d
       0.078394726 0.19643709 0.020799542 0.096967496
000360 6f 42 33 bd 62 e1 9d 3d 72 ab 98 bc 69 1a 0d bd
       -0.043764528 0.07709004 -0.018636439 -0.034449015
000370 c8 54 01 bd 0b 03 a1 bb ed df 13 bd b3 fd 43 bd
       -0.031574994 -0.004913693 -0.036102224 -0.04784937
000380 a1 22 e7 3d 65 1e 98 bd 6f 60 2a 3d 0d 7c 4a 3d
       0.11285902 -0.07427672 0.041595872 0.04943471
000390 a3 b7 1d 3c c3 8b 4b bd fa 37 29 bc 74 79 fd 3d
       0.009626302 -0.049693834 -0.010328287 0.12376681
0003a0 97 2a ef 3c 15 83 94 bd 3c 9c 1e 3d 53 48 43 bc
       0.029195113 -0.072515644 0.038723215 -0.011919099
0003b0 21 87 99 bd 8d a7 d8 3c 18 d2 71 3d ee b1 46 3e
       -0.07496477 0.026447082 0.05903825 0.19403812
0003c0 88 bf 97 3d db ed 52 3d 44 98 eb 3d ee 14 b1 bb
       0.074095786 0.051496368 0.11503652 -0.0054041063
0003d0 b5 93 7c 3d 02 c6 91 3d 97 30 97 bc 96 c1 93 3d
       0.061664302 0.07117845 -0.018455787 0.07214658
0003e0 48 13 8d 3d 43 f2 7f 3d c9 32 58 3d 32 aa 22 3e
       0.06888443 0.0624869 0.052782807 0.15885237
0003f0 d1 99 1e 3d d6 b6 d9 3d 54 9c db 3d b8 aa 05 3d
       0.03872091 0.10630576 0.107231766 0.032633513

fc2.bias f4 [84]
000000 de dd 3a 3d b9 af bb 3d 32 78 53 3e 34 ba 93 3d
       0.045621745 0.09164376 0.2065132 0.0721325
000010 bd f0 34 bb 9d 2a 05 3e a1 b0 ac bd 27 27 a5 3c
       -0.0027609312 0.13004537 -0.08432127 0.02016027
000020 6e fa fe 3d f7 8b 7f 3d 74 97 47 3d 19 90 d9 bd
       0.124501094 0.06238934 0.04872842 -0.106231876
000030 3e eb d0 3d 2a 9a cd bd fb b9 96 bd a8 7a c0 3c
       0.10201119 -0.1003917 -0.07359692 0.023495987
000040 c5 5b 96 3c e0 8f 29 bd 26 f4 20 3e a1 15 a4 3c
       0.018354306 -0.041396976 0.15718135 0.020029845
000050 aa 29 c8 3d e5 5a 33 3c 94 23 6a bd 7d 1e 76 3d
       0.09773572 0.010946964 -0.057162836 0.06008767
000060 28 ce bf bb b5 57 c0 3d 1d ba 70 3d 36 98 48 3e
       -0.005853433 0.09391729 0.05877124 0.19589314
000070 82 2d 1b bd 8b aa 84 bd 7c 24 92 bd f1 e9 a3 bd
       -0.037885197 -0.06477841 -0.07135865 -0.08003605
000080 7d 99 76 3e 73 ed 25 be d6 5e 90 bd 72 f0 29 3e
       0.24081989 -0.16203861 -0.070493385 0.16595629
000090 94 38 81 3d d0 5b 00 3e a2 b0 f5 bc 94 ce a1 3d
       0.063096195 0.12535024 -0.029991452 0.0790073
0000a0 8e 96 4b bd 71 55 2a bd 9c 72 26 3e 31 c0 13 bd
       -0.049704127 -0.04158539 0.16254658 -0.03607196
0000b0 ac 50 75 3d 09 67 1a bc 83 93 1a 3c be 3c 74 3c
       0.059891388 -0.00942398 0.009434584 0.01490706
0000c0 ca 44 6c bd cc ca 29 3c a0 1f 2e bd df e9 bf bd
       -0.05768279 0.010363292 -0.04251063 -0.09370779
0000d0 31 00 b4 3d e5 63 3b 3e 82 c5 b0 bc 12 0d 25 3e
       0.08789099 0.18299825 -0.021578554 0.16118267
0000e0 0c 4f 87 bb 5f 66 4c 3d 96 bf 6f bd a7 31 2c 3e
       -0.004129296 0.049902316 -0.05853232 0.16815816
0000f0 5e e3 1f 3d e3 89 b1 bd 5b 42 31 bd 8c 79 ce bd
       0.039035194 -0.08668878 -0.043276172 -0.10081777
000100 56 e5 03 3c 23 20 0f 3e 6a f2 05 3e 25 4d 99 bd
       0.008050283 0.13977103 0.13080755 -0.07485417
000110 92 e8 16 be 2a a1 00 3d f7 f6 db bc ca 10 65 3d
       -0.14737156 0.031403698 -0.02685116 0.055924214
000120 20 c4 35 bd 91 ec 4f 3d a3 7e 2a 3e f8 23 93 3d
       -0.044376493 0.050762717 0.1664987 0.07184595
000130 72 df a4 bd fb 5f b8 ba 24 06 80 3d 66 52 cb 3b
       -0.08050431 -0.001406669 0.06251171 0.006204891
000140 a6 1f 9e bd a7 f5 d2 bd 92 a7 1e bd e1 e1 0d 3e
       -0.0772088 -0.10300761 -0.038734026 0.13855697

fc3.weight f4 [10, 84]
000000 e3 a1 b8 bd e0 88 19 3e 6b ef ea bc 20 33 0c 3e
       -0.090152524 0.1499362 -0.028678617 0.13691378
000010 dd 8f 91 3c 31 28 b1 3d f9 30 32 3e 89 5f 5e bb
       0.017768795 0.08650244 0.17401494 -0.0033931455
000020 64 c6 b2 bb 27 72 85 3d a3 d9 6a bd 54 cc 54 bd
       -0.005455779 0.065159135 -0.05733646 -0.051952675
000030 e5 af 9e 3a 38 e7 55 3c 9e d5 71 3d ba ce 22 3d
       0.0012106864 0.013055615 0.05904161 0.03974793
000040 a7 fe a6 bc f9 8d da bc 21 7b 1c 3d 35 93 cf 3c
       -0.0203851 -0.026679026 0.038203362 0.025338748
000050 8a ef 09 be 64 61 92 bd 90 b9 50 3d 43 0b ae bd
       -0.13470283 -0.07147482 0.050958216 -0.08498242
000060 79 8c 64 bd 72 cf 9a 3d e7 b0 17 3c e1 d0 77 3d
       -0.055798028 0.07559098 0.009258485 0.060501937
000070 44 3c 05 3d e7 e1 01 be 36 94 a5 3d 62 50 38 bb
       0.032528177 -0.12683831 0.080849096 -0.0028124084
000080 1e 0b 6a 3d c3 24 b8 bd 9f e2 ff bc c7 2f c9 3d
       0.05713951 -0.08991387 -0.031235991 0.09823566
000090 7a 08 46 3d f5 52 c0 3d 46 9b b9 3d 71 d8 71 bd
       0.048347928 0.09390823 0.09062819 -0.059044305
0000a0 c4 24 24 bd fc 1e 4e bd ae 76 48 3d fa b1 ce 3d
       -0.040074125 -0.050322518 0.048941307 0.1009254
0000b0 01 49 dd 3d 28 57 dc bd 7d b5 b1 bb fa 63 5d 3c
       0.1080494 -0.10758811 -0.0054232464 0.013512606
0000c0 9b a9 4f bd 5b cd c0 bd 38 96 a7 bd f5 8a b3 3d
       -0.050698858 -0.094141684 -0.08182949 0.08766738
0000d0 42 a6 22 3e 07 08 e0 3b 1e 8e ba bd 36 0b a1 3d
       0.15883735 0.0068368944 -0.09109138 0.078634664
0000e0 a6 02 c0 3d 84 a3 cb 3d 4d b6 aa bc 19 89 49 bc
       0.09375505 0.099432975 -0.02083888 -0.012300753
0000f0 e5 97 cf bd 06 a1 e1 bd 6d 10 70 bd c3 1b 31 bd
       -0.101363935 -0.11017041 -0.058609415 -0.043239366
000100 26 60 b9 bd 17 24 d8 3d 64 02 ae 3d d6 42 e6 bd
       -0.09051542 0.105537586 0.0849655 -0.11243217
000110 57 45 c8 bd 0f a3 b9 bd 6d d9 0f 3d 9f 9b a8 3d
       -0.097788505 -0.09064304 0.035119463 0.08232807
000120 76 d6 60 3b 6b 17 47 bd 1c f4 01 3c b9 77 d4 bd
       0.0034307516 -0.048606317 0.007931735 -0.10374398
000130 08 13 be bd 81 86 2e 3d 10 5c a6 bc 08 92 d7 3c
       -0.09280974 0.04260874 -0.02030757 0.02631475
000140 c7 bc 8c bd cf 3a c1 bd 4b da 13 bc e8 fa 3c be
       -0.06871944 -0.09435045 -0.009024213 -0.18455088
000150 54 c7 88 bd bc 17 ff bb a3 d5 f4 3d a2 ee ee bd
       -0.06678644 -0.007784812 0.119548105 -0.11666609
000160 77 1b 43 3d ca a1 5d 3d 0b 76 02 be 96 f1 f9 3d
       0.047633614 0.054109372 -0.12740342 0.12204282
000170 92 92 9a 3d 1d dd 0d 3e 62 5a 26 ba 7f 64 38 3d
       0.07547487 0.1385388 -0.00063458655 0.045017716
000180 f0 48 fb 3d 26 3e dd 3d 06 2e 09 3d 87 27 cc 3d
       0.12269771 0.108028695 0.033491157 0.09968477
000190 d5 94 f8 3d f9 6a a2 3d ef fd fb 3d 1e ab 5a 3d
       0.121377625 0.0793056 0.12304293 0.053385846
0001a0 c7 f5 70 3e 55 14 93 3d 92 4e 4b bd 33 e3 f4 3d
       0.23531257 0.071816124 -0.049635477 0.11957397
0001b0 7b 80 98 3d 75 a0 f0 bd 81 0b 67 3e 7b 72 11 3e
       0.07446381 -0.11749355 0.22562982 0.14203827
0001c0 38 8f 56 bd a3 52 1c 3e bc be ad 3d 87 e4 1d 3d
       -0.052382678 0.15265898 0.08483645 0.03854802
0001d0 c6 85 e8 3d c2 d9 d1 bc 59 a6 dc 3c 29 4e 3b 3d
       0.1135364 -0.02561653 0.02693479 0.045728836
0001e0 08 d2 5a 3d 7e 1f b3 bc 62 5a b0 bd ba 7b 04 3e
       0.053422958 -0.021865603 -0.08610989 0.12937823
0001f0 d1 8a 00 3e 6b 57 00 3e 3e 88 10 3e f7 17 26 be
       0.12552954 0.12533347 0.14114472 -0.1622008
000200 34 0a 05 3e ea 40 ed bb f9 f6 75 bb 6c 29 00 bd
       0.12992173 -0.0072404044 -0.003753124 -0.031289503
000210 42 6e dd bd d2 67 b5 bd a1 7d 4c bd 0a 12 9c 3d
       -0.10812046 -0.08857693 -0.049924497 0.07620628
000220 0c 98 95 bd 5d bd f6 3d d5 c4 85 bd 12 60 6f 3d
       -0.07304391 0.12047837 -0.06531683 0.05844123
000230 17 76 1f be ad 7a 62 bc 7e cb 3e bc bf 05 b3 3d
       -0.15572391 -0.0138231935 -0.011645196 0.0874133
000240 26 22 f4 3d d9 91 6b 3d 8e 70 a9 bd 99 9e 0b bd
       0.11920576 0.057512138 -0.08273421 -0.034086797
000250 a5 78 10 3d 3f 09 0d 3e 94 02 cb 3d cf 15 3b bb
       0.035271306 0.13773058 0.09912601 -0.0028546934
000260 e2 9d d8 3c 58 34 c6 bc 51 ea b4 bc 39 64 39 be
       0.026442472 -0.024194881 -0.022084387 -0.18104638
000270 46 b1 f7 bc 05 0a c7 bd 68 56 11 3e a0 de b5 3d
       -0.030235898 -0.09718708 0.14193118 0.08880353
000280 f0 72 99 3c 15 01 8c 3d 70 1e 81 bd ec 9a e5 3c
       0.018731564 0.06836144 -0.063046336 0.028027974
000290 de 4c 83 bd 54 8e 51 3e 58 ce 0c 3d 33 1f 0d 3e
       -0.06411146 0.2046445 0.034376472 0.13781433
0002a0 ba e3 83 3d 41 99 e6 3d 81 8b de 3d 03 ec 2d 3e
       0.0643992 0.112596996 0.10866452 0.16984563
0002b0 fb 3a 3c bc 54 07 8c bc 92 31 9a 3d 2c d8 57 bd
       -0.011488671 -0.017093338 0.07528986 -0.052696392
0002c0 e8 01 cf 3d 2d dd 00 3c c7 f2 03 be 39 73 9c 3d
       0.101077855 0.007865232 -0.12885581 0.076391645
0002d0 3f 24 86 3d dc f3 65 bd a6 1f b6 bd 0e d5 97 bb
       0.06549882 -0.056140766 -0.08892755 -0.0046335524
0002e0 b9 e2 64 bc cd 00 a3 3c 98 b0 c0 3d da 9d 3e 3d
       -0.0139700705 0.019897843 0.094086826 0.046537258
0002f0 89 49 77 be 23 27 85 3d 9b f1 83 bd e5 f7 b1 3d
       -0.24149145 0.06501605 -0.06442567 0.0868986
000300 07 e1 83 bc ac 9f 55 bd 55 26 e3 bd 9f dd a5 3d
       -0.016098512 -0.052154228 -0.11091296 0.080989115
000310 31 cd 66 bd 87 b8 2f bd 0e 3e 85 bd 77 44 ae 39
       -0.05634803 -0.04290059 -0.065059766 0.00033238876
000320 bf 9e 28 3d b6 ff f9 bd 64 6d ca bd 72 14 8d 3d
       0.041167017 -0.12206976 -0.09884146 0.06888665
000330 39 59 0d bd 7a ab cf 3d d9 d1 6a bd 89 74 2d 3d
       -0.034508917 0.101401284 -0.057329033 0.042347465
000340 a3 58 86 3d d2 56 03 bd 69 cc ab bd a7 76 57 3e
       0.06559875 -0.03206522 -0.083885975 0.21041356
000350 63 93 8d bd fa d9 b3 3d 63 af a7 bc 3d 54 cf 3b
       -0.069128774 0.0878181 -0.020469373 0.0063271807
000360 65 40 dd 3c 3f 72 a3 bd 00 f2 81 bd 78 4e 8d 3d
       0.027008245 -0.07980775 -0.06344986 0.06899732
000370 8d b7 25 3e 6b 1d cf 3d c8 0a d0 3d 49 60 39 3d
       0.161833 0.10113033 0.10158306 0.04525784
000380 52 33 72 3e c4 04 97 bd 35 52 c0 3c fd 6b ae 3d
       0.2365239 -0.07373956 0.0234767 0.08516691
000390 d9 fe 35 3d 1e e4 81 3d cc 9b 2c 3c a4 67 85 bc
       0.044432495 0.06342338 0.010535192 -0.016284771
0003a0 87 df 65 bd fb 33 8f 3d ea 4a ec 3d cf 5b 8e 3d
       -0.056121375 0.06992336 0.11537726 0.06951105
0003b0 bc 1f 93 3d 29 d0 43 bc 26 ef 73 3d 91 82 39 3e
       0.07183787 -0.011951485 0.05955424 0.18116213
0003c0 ec 98 69 3c 5c 3d e4 bc 3c b7 b6 3d da e1 8a bd
       0.014257651 -0.02786129 0.08921668 -0.06781359
0003d0 ec 9d a3 3d 6b f5 36 3c d6 3a 65 bd ba 17 59 3d
       0.079891056 0.011166911 -0.055964313 0.053001143
0003e0 82 8a d7 3d 06 4f 4f be 70 cf 18 bc 60 01 39 be
       0.10524465 -0.20244989 -0.009326801 -0.18066931
0003f0 dd ca 97 3d 74 06 3f 3d d0 97 ef bd 5c 98 41 bd
       0.0741174 0.046637014 -0.11698878 -0.04726444

fc3.bias f4 [10]
000000 f7 8a 7f 3d 95 5a 02 bd bf b8 ad 3c af b8 bf 3d
       0.062388387 -0.031824667 0.021206258 0.093613975
000010 8c 0a bd 3d 2b 32 9f bd 03 0a 69 3e 53 90 d3 bd
       0.09230527 -0.07773241 0.22757725 -0.10330262
000020 f9 48 07 bd e2 63 25 3e
       -0.033028577 0.16151384

fc4.weight f4 [4, 10]
000000 92 80 64 3e 51 c3 1b be 8d a6 4f 3e 71 b3 9d bd
       0.2231467 -0.15211226 0.20278378 -0.07700241
000010 07 25 2c 3e 89 02 22 bc da f6 81 bd 8f 04 73 3e
       0.16811 -0.0098883 -0.06345911 0.23732208
000020 a5 7b 97 bc aa ed a2 3e 69 49 85 be ff d2 17 3e
       -0.018491575 0.31821948 -0.2603257 0.14826582
000030 17 b1 5c be 9b ae 0d be 66 9c 2d 3e 4b 41 4d be
       -0.2155193 -0.13836138 0.16954193 -0.20044439
000040 9b a2 b1 bc 3f 13 88 3e d3 6b c7 bc 35 3e 85 3e
       -0.021683982 0.26577184 -0.024343407 0.26024023
000050 cb fd f3 be bc ac c3 bd 73 a8 8a be f5 86 6c 3e
       -0.47654566 -0.09554431 -0.27081642 0.23098357
000060 e0 73 7c 3e 73 6d 13 be 3f dc c6 be 8c c6 7a be
       0.24653578 -0.1439722 -0.3883991 -0.24489802
000070 55 8f f1 be 7d d3 0d 3d 05 07 61 be 2f 15 ed be
       -0.47179666 0.03462552 -0.21975334 -0.46305224
000080 09 1b df be b4 5b 1a 3e 67 19 00 be ea be 46 be
       -0.43575314 0.15074044 -0.1250969 -0.19408765
000090 31 80 50 be d0 86 0b be 7c 20 3c bd c3 25 a0 bd
       -0.20361401 -0.13625646 -0.045929417 -0.078197025

fc4.bias f4 [4]
000000 0b 09 a6 bd e6 98 84 bc 48 d3 33 3d 20 18 9c bc
       -0.081071936 -0.016186189 0.043902665 -0.019054472
