tasks/attack_war/defender_list/defender_2/defense_project-model.pth (torch, 251649 bytes, 12 tensors)

conv1.weight f4 [6, 3, 5, 5]
0	0xbd74e860	-0.059791923
1	0xbce5ea80	-0.02806592
2	0xbd99ac22	-0.07503535
3	0xbd9cc7b6	-0.07655279
4	0xbda64893	-0.08119311
5	0xbc276e91	-0.010219232
6	0xbdb90e8a	-0.09035976
7	0x3d6c9aaa	0.057764687
8	0xbd0ba233	-0.034090232
9	0xbd025b83	-0.031825554
10	0xbd3c93c3	-0.046039354
11	0xbd3de4f3	-0.04636092
12	0xbdecaff5	-0.11556999
13	0xbdcf890f	-0.10133564
14	0xbdbea597	-0.093089275
15	0xbc32c99d	-0.010912326
16	0x3c019828	0.007909812
17	0x3ceb37c6	0.028713118
18	0xbdd7020b	-0.104984365
19	0xbdb46bc3	-0.088096164
20	0x3cceb73b	0.025233855
21	0x3cf3b679	0.029750096
22	0xbd8eef72	-0.06979264
23	0xb92b2928	-0.00016323163
24	0xbda00405	-0.07813267
25	0xbd0de39b	-0.03464089
26	0x3c98cef9	0.01865338
27	0xbd8eb8f0	-0.06968868
28	0xbcc1cdf4	-0.023657776
29	0xbd2f8ecc	-0.04286079
30	0xbd45e8ab	-0.048317593
31	0x3ce1929f	0.027535735
32	0xbd834ac7	-0.06410747
33	0xbcfe4521	-0.031038823
34	0xbd933095	-0.07187001
35	0xbdc36bbf	-0.09542035
36	0xbd8a2eb7	-0.067471914
37	0x3d983dd7	0.0743367
38	0x3cc3b66f	0.023890702
39	0x3b848373	0.0040439903
40	0x3cbe56ed	0.023234809
41	0xbd577148	-0.052598268
42	0x3bcc20f1	0.006229513
43	0xbd916912	-0.07100119
44	0xbd63459e	-0.055486314
45	0xbd69395f	-0.05693948
46	0x3d10f680	0.03539133
47	0x3b38485d	0.0028119304
48	0xbd9000e9	-0.070314236
49	0xbd0d21d7	-0.0344561
50	0x3e118b2c	0.14213246
51	0x3e10bc67	0.1413437
52	0x3e2166fa	0.15761939
53	0x3e04592e	0.12924644
54	0x3e2a532f	0.16633295
55	0x3c88ce9f	0.016700087
56	0x3d8fdca9	0.070245095
57	0x3c92819d	0.01788407
58	0x3d0eac6c	0.034832403
59	0x3d0a3fb8	0.033752173
60	0x3e1b19ae	0.15146515
61	0x3e1574fe	0.1459541
62	0x3d0e45a0	0.03473437
63	0x3e08efc4	0.13372713
64	0x3e08e2e2	0.13367799
65	0x3dc1dcf2	0.0946597
66	0x3dd24507	0.10267072
67	0x3de9dc71	0.11418999
68	0x3e2b6b78	0.16740215
69	0x3e4c1331	0.19929196
70	0x3cc7fa43	0.024411326
71	0x3cb8885c	0.022525959
72	0x3dd7a381	0.10529233
73	0x3e09d19d	0.13458867
74	0x3e2167b8	0.15762222
75	0x3e2acb52	0.16679123
76	0x3d05a73d	0.032630194
77	0xbe1f6aa9	-0.15568031
78	0xbb48a026	-0.0030613034
79	0xbd9a45ad	-0.07532821
80	0xbd957aa4	-0.072987825
81	0x3e3c25ce	0.18373796
82	0x3de6482b	0.11244234
83	0xbe42e812	-0.1903384
84	0x3d1d4e09	0.0384045
85	0x3caf76c8	0.021418944
86	0xbbeb2aca	-0.0071767317
87	0xbd9da67c	-0.0769777
88	0xbc71f776	-0.014768472
89	0xbe1725d0	-0.14760518
90	0x3dfbb7c0	0.12290907
91	0x3df3f5d5	0.11912123
92	0x3dffea3e	0.1249585
93	0x3d39437e	0.04523038
94	0xbe1bb430	-0.15205455
95	0xbcf3a8cd	-0.029743576
96	0x3e05aac4	0.13053423
97	0x3dd34a75	0.10316936
98	0xbd5ce890	-0.053932726
99	0xbceb94c8	-0.028757468
100	0x3e13c722	0.14431432
101	0x3dbe8cd7	0.09304207
102	0xbdabbc63	-0.08385541
103	0xbdb753dd	-0.089515425
104	0xbe1c1a71	-0.15244462
105	0x3d49c6af	0.049261745
106	0xbdcf7e8b	-0.10131558
107	0xbe0b59d6	-0.13608488
108	0xbdd63cd0	-0.10460818
109	0xbd78e28a	-0.06076292
110	0x3b243a0f	0.002505902
111	0x3e0be5c7	0.13661872
112	0xbda67026	-0.08126859
113	0x3ce68106	0.028137695
114	0xbc7374ff	-0.014859437
115	0xbdbd192f	-0.09233319
116	0xbc81edfc	-0.01586055
117	0x3cce0bd9	0.025152134
118	0xbd88b96b	-0.06675991
119	0xbd67b310	-0.05656725
120	0x3e001e70	0.12511611
121	0x3d9f687c	0.07783601
122	0xbbb93758	-0.0056523494
123	0x3d9c94e4	0.07645586
124	0xbe1e8405	-0.15480049
125	0xbceed4ee	-0.029154267
126	0xba1a4659	-0.00058851164
127	0xbda37a7a	-0.07982345
128	0xbdd03b25	-0.10167531
129	0xbe045f35	-0.12926944
130	0x3d379a14	0.044824675
131	0x3d9ed68a	0.07755764
132	0xbdceed13	-0.10103812
133	0xbd98d5c5	-0.07462648
134	0x3cc0cc64	0.023534961
135	0x3d66027c	0.056154713
136	0x3d724b73	0.059153985
137	0xbc64d393	-0.013966459
138	0xbd5b4e2b	-0.053541344
139	0xbcc431db	-0.023949554
140	0x3e26c4ec	0.16286057
141	0x3dfe2ee9	0.12411291
142	0x3e1670d5	0.1469148
143	0xbd2556fe	-0.040366165
144	0xbe39afd1	-0.18133475
145	0xbb377aff	-0.0027996895
146	0x3e2105b0	0.15724826
147	0x3d8642de	0.06555723
148	0xbcee46b8	-0.029086456
149	0xbdd3a2ef	-0.103338115
150	0xbd782d53	-0.0605901
151	0xbd673d28	-0.056454808
152	0x3cd13f16	0.025542777
153	0x3db27760	0.08714175
154	0x3dee6338	0.11640018
155	0xbd2d14a9	-0.04225603
156	0x3dfc6f5e	0.12325929
157	0x3c8c53f8	0.017129883
158	0x3d54bea9	0.05193964
159	0x3cbad3d0	0.022806078
160	0xbdb65c85	-0.089043655
161	0xbdba86bd	-0.091077305
162	0xbe0472f0	-0.1293447
163	0xbdfb7a5b	-0.12279197
164	0xbd7a6ac9	-0.061136995
165	0xbe440d39	-0.19145669
166	0xbe843f73	-0.25829658
167	0xbe11e4fa	-0.14247504
168	0xbe882f62	-0.2659865
169	0xbe03a064	-0.12854153
170	0x3d82ba10	0.06383145
171	0xbd48972f	-0.048972305
172	0x3dd5e335	0.10443727
173	0x3d903f1e	0.07043289
174	0xbcf42807	-0.029804243
175	0x3d9267bf	0.07148694
176	0x3bd523f4	0.00650453
177	0xbc841dec	-0.01612755
178	0x3dafdf7c	0.08587548
179	0xbd00efaa	-0.03147856
180	0x3da5e35f	0.08100008
181	0x3d95876f	0.073012225
182	0x3e2c658c	0.16835612
183	0x3e0157ed	0.12631197
184	0x3e064f04	0.1311608
185	0xbd126dbc	-0.035749182
186	0xbdc49a6a	-0.09599765
187	0xbdbffceb	-0.09374412
188	0xbe0021fb	-0.12512963
189	0xbcb21c1d	-0.021741921
190	0xbd06c865	-0.032905955
191	0xbd51dbe5	-0.0512351
192	0xbe341d9c	-0.1758942
193	0xbda8e1ce	-0.08246194
194	0xbdf55249	-0.11978585
195	0xbd5a67a0	-0.05332148
196	0xbd456ea3	-0.048201215
197	0x3d13e758	0.0361093
198	0xbce35521	-0.027750554
199	0x3d1c0f0e	0.038100295
200	0x3d85aef8	0.06527513
201	0x3e12500a	0.14288345
202	0xbc9e2217	-0.019303365
203	0xbc1599f9	-0.009130948
204	0x3cc52084	0.024063356
205	0x3e4ec610	0.20192742
206	0x3d9b3785	0.07578949
207	0x3e7e2341	0.24818136
208	0x3e3483af	0.17628358
209	0x3e1944f7	0.14967714
210	0x3a6337c2	0.00086676714
211	0xbd1eb1bd	-0.038743723
212	0x3cc32da1	0.023825468
213	0xbd0265f0	-0.031835496
214	0x3c437e10	0.011931911
215	0xbd4d014b	-0.05005006
216	0xbe1a02cc	-0.1504013
217	0xbe0a28a6	-0.13492069
218	0x3d3c248e	0.0459333
219	0xbdd4e121	-0.103945024
220	0x3c8e7605	0.01739026
221	0x3e1a4c6f	0.1506822
222	0x3da805f1	0.08204258
223	0x3d967d1c	0.073480815
224	0x3b8843d5	0.004158477
225	0x3e072cc9	0.13200678
226	0xbe21055a	-0.15724698
227	0xbdc6a258	-0.09698933
228	0xbd9e8bad	-0.07741485
229	0xbd1d56aa	-0.038412727
230	0x3d537318	0.051623434
231	0x3e5ec2fd	0.2175407
232	0x3c944ceb	0.018103084
233	0x3e20f7b6	0.15719494
234	0x3e1983db	0.14991705
235	0xbe3c4720	-0.18386507
236	0xbc4efb26	-0.012633121
237	0xbe51f0ee	-0.20502064
238	0xbe073a93	-0.13205938
239	0xbc4214a7	-0.011845744
240	0x3dcf7b2c	0.10130915
241	0x3e0926a2	0.13393643
242	0xbd23088d	-0.039803077
243	0x3c4d51ec	0.012531739
244	0x3dd21449	0.10257775
245	0xbe18e1aa	-0.14929834
246	0x3e20b1ec	0.15692872
247	0xbdcce5ef	-0.10004794
248	0x3b5bc471	0.0033533836
249	0x3c7b0351	0.015320615
250	0xbc9e504e	-0.019325402
251	0x3d9bb470	0.07602775
252	0x3e3982ca	0.18116298
253	0xbb8fa62c	-0.004383823
254	0xbcff0ba2	-0.031133477
255	0xbd81d85a	-0.06340094

conv1.bias f4 [6]
0	0xbdfe7339	-0.12424321
1	0x3da34475	0.079720415
2	0x3d3dcd8d	0.046338607
3	0xbba2f2d8	-0.004972797
4	0xbeb99872	-0.3624912
5	0x3d8647ca	0.065566614

conv2.weight f4 [16, 6, 5, 5]
0	0x3ba3fb88	0.00500435
1	0xbc8b11e0	-0.016976297
2	0xbd8b6849	-0.06807
3	0x3d00f94f	0.03148776
4	0x3d850a04	0.06496051
5	0xbdf348d7	-0.118791275
6	0xbdcda9a5	-0.10042123
7	0xbd897fcf	-0.06713831
8	0x3ddc07cf	0.10743677
9	0x3e367388	0.17817509
10	0xbdf06ba8	-0.11739284
11	0xbe2152c5	-0.1575423
12	0xbcb08398	-0.021547124
13	0x3dc9d407	0.09854894
14	0x3e45a140	0.19299793
15	0xbc1212ff	-0.008915662
16	0xbcbce56d	-0.023058617
17	0x3d5df818	0.05419168
18	0x3e27dce6	0.1639286
19	0x3e02421b	0.1272053
20	0xbdf1e5bb	-0.11811396
21	0x3d0285f0	0.031866014
22	0x3d63807b	0.05554245
23	0x3e5337ee	0.20626804
24	0x3e188d0a	0.14897552
25	0x3d0143a5	0.03155865
26	0x3c04257a	0.008065576
27	0x3d4062c6	0.046969198
28	0xbd04eea6	-0.032454155
29	0x3d0c793a	0.0342953
30	0xbbbf03b8	-0.0058293007
31	0xbc784350	-0.015152767
32	0xbdd6ed6b	-0.10494503
33	0xbda4631f	-0.08026718
34	0x3c64cc25	0.0139646875
35	0x3b42d09d	0.0029726394
36	0xbd26b152	-0.04069645
37	0xbdb8ebad	-0.090293266
38	0xbb556824	-0.0032563293
39	0xbd1bb00c	-0.03800969
40	0x3ceca294	0.028886117
41	0x3cdbe797	0.02684383
42	0x3d0cff82	0.03442336
43	0xbd0532d4	-0.032519177
44	0xbd3aedac	-0.045636818
45	0xbd4866bb	-0.048926096
46	0xbd8b62e4	-0.06805971
47	0x3b85e81a	0.0040865066
48	0x3d073924	0.033013478
49	0x3d56a983	0.052407753
50	0x3dcd69dc	0.10029957
51	0x3d54f674	0.05199285
52	0xbc4a74bb	-0.012356932
53	0xbd7a3458	-0.061085075
54	0xbdd9a36a	-0.10626872
55	0x3dcfd1b1	0.10147417
56	0xbcb0a36f	-0.021562306
57	0xbd47c0a0	-0.048767686
58	0xbdec3cd3	-0.11535039
59	0xbdfd1081	-0.123566635
60	0xbd3804da	-0.0449265
61	0xbda269ff	-0.079303734
62	0xbdd49527	-0.10380011
63	0xbdb0e691	-0.08637727
64	0xbbc73f53	-0.006080547
65	0xbd61085d	-0.054939616
66	0xbd64887f	-0.055794235
67	0xbe04f60f	-0.12984489
68	0xbaabfa26	-0.0013120815
69	0x3dff0c50	0.1245352
70	0x3debaefa	0.115079835
71	0x39d62eed	0.00040852223
72	0xbd21ccee	-0.039502077
73	0x3c2e4815	0.010637303
74	0x3e2d13f1	0.16902138
75	0xbd72321f	-0.05912983
76	0xbdd37c94	-0.10326496
77	0xbd42625f	-0.047457095
78	0xbcaa1a03	-0.020764356
79	0x3c8c1a1a	0.01710229
80	0xbde0de61	-0.109799154
81	0xbdf132ad	-0.11777244
82	0x3d8ab26e	0.06772314
83	0x3d7458e7	0.059655096
84	0x3c2977f9	0.010343545
85	0xbd383fdb	-0.044982772
86	0x3cd2deb4	0.025740959
87	0x3e1a508f	0.15069793
88	0x3db1185c	0.08647224
89	0xbc00dc4a	-0.007865021
90	0xbc157847	-0.009122915
91	0x3d80d7a2	0.06291129
92	0x3e071e89	0.13195242
93	0x3da62912	0.08113302
94	0xbde33627	-0.11094313
95	0xbd1cc1ae	-0.038270645
96	0x3d4c0a1c	0.04981433
97	0x3ce2d5d5	0.027689854
98	0xbc4b0c7a	-0.012393111
99	0xbd43d77a	-0.047812916
100	0xbe23fb5c	-0.16013855
101	0xbe2e127c	-0.16999239
102	0xbd1d446d	-0.038395334
103	0xbba09936	-0.0049010767
104	0xbcb47be4	-0.022031732
105	0xbe768ee6	-0.24077949
106	0xbe4dbdd8	-0.20091951
107	0xbcc1c221	-0.023652138
108	0x3c2cff50	0.010558918
109	0x3e609142	0.21930411
110	0xbe835a89	-0.2565501
111	0xbe5d3c99	-0.21605147
112	0x3d00eba9	0.031474743
113	0x3e2de400	0.16981506
114	0x3e7f14fb	0.24910347
115	0xbe5155b2	-0.20442846
116	0xbe5570d5	-0.20843823
117	0xbcbfa47f	-0.023393868
118	0x3e0ae1ff	0.13562773
119	0x3e673bac	0.22581357
120	0xbe649f49	-0.22326387
121	0xbe3bdfd8	-0.18347108
122	0x3d7142b9	0.058901522
123	0x3e377f1c	0.17919582
124	0x3db6b1d1	0.089206345
125	0xbd677a6f	-0.056513246
126	0xbd7f13ca	-0.06227473
127	0x3d474f4c	0.048659608
128	0x3969fc09	0.00022314502
129	0xbd2869ee	-0.041116647
130	0x3d9d758d	0.07688437
131	0x3d73b729	0.059500847
132	0x3da558df	0.080735914
133	0x3d473b38	0.04864046
134	0xbd44a922	-0.04801286
135	0xbbd579a9	-0.006514747
136	0xbd643195	-0.055711348
137	0x3d37905d	0.04481541
138	0xbbda82b0	-0.006668411
139	0xbce4407c	-0.02786278
140	0xbc36384f	-0.011121823
141	0x3d25785d	0.04039799
142	0x3d439f0a	0.047759093
143	0x3d5d6d80	0.054059505
144	0xbdccd593	-0.100016735
145	0x3de3d919	0.111253925
146	0xbcc2d314	-0.02378229
147	0x3d8ab990	0.067736745
148	0xbced3fc1	-0.028961064
149	0xbd1638bd	-0.036675204
150	0x3ded5dcd	0.11590157
151	0x3d3543c1	0.04425407
152	0x3bf88e34	0.0075853113
153	0x3d138de0	0.036023974
154	0x3d873ea4	0.066037446
155	0x3ca2dd8c	0.019881032
156	0x3db2d7b1	0.08732546
157	0xba060d86	-0.00051137095
158	0x3d6be12e	0.057587795
159	0x3e0aca66	0.13553771
160	0x3d9480d4	0.072511345
161	0x3d0cbd86	0.03436043
162	0x3d9fed05	0.0780888
163	0x3d5e79cb	0.05431537
164	0x3d7ac663	0.061224353
165	0x3dac605f	0.08416819
166	0x3d291acb	0.041285317
167	0xbd55a6ef	-0.052161153
168	0x3c8ef122	0.017448965
169	0x3d64b660	0.05583799
170	0x3cd4bf54	0.025970139
171	0xbcf6c76f	-0.030124394
172	0xbdbd75ff	-0.092510216
173	0xbc13f094	-0.009029526
174	0x3d8ca658	0.06867665
175	0x3c9e433e	0.019319173
176	0x3cd60642	0.02612603
177	0x3d33b951	0.043877903
178	0xbc6a9897	-0.014318607
179	0xbd51b939	-0.051202033
180	0x3bfc31c0	0.0076963603
181	0xbd8b8157	-0.06811779
182	0x3cc220a0	0.023697197
183	0xbcf21dbd	-0.029555196
184	0xbdcb0b4a	-0.099142626
185	0xbc235bc4	-0.009970609
186	0xbcfaf41c	-0.030633979
187	0x3a0f97b2	0.00054776215
188	0xbdb44fa1	-0.088042505
189	0xbcf60300	-0.030030727
190	0xbd502382	-0.050815113
191	0xbd298972	-0.041390844
192	0xbc90be61	-0.017668905
193	0xbd6ede2e	-0.058317356
194	0xbc5c5619	-0.013448262
195	0xbdb3153d	-0.08744285
196	0xbd5689a2	-0.05237735
197	0xbcc3b48b	-0.0238898
198	0xbc930366	-0.017945956
199	0xbbc5f571	-0.006041222
200	0x3d250444	0.04028727
201	0x3d91887c	0.071061105
202	0x3c89232c	0.016740404
203	0x3d3ea997	0.046548452
204	0x3d549c64	0.05190696
205	0x3d3a1396	0.045428835
206	0x3d995309	0.07486541
207	0xbcae5254	-0.021279491
208	0x3ca87a87	0.020566238
209	0x3d79f57c	0.061025128
210	0xbcefa519	-0.02925353
211	0xbcb1390e	-0.021633651
212	0xbdac1bca	-0.08403738
213	0xbd19d859	-0.03755984
214	0xbd8d4762	-0.06898381
215	0x3d41ea44	0.047342554
216	0xbcd229c3	-0.02565468
217	0xbcd32b2f	-0.025777427
218	0xbc9309d0	-0.017949015
219	0x3d1d3602	0.038381584
220	0x3d86530c	0.06558809
221	0xbc777443	-0.015103403
222	0xbcd02486	-0.02540804
223	0xbd13fa44	-0.036127344
224	0x3d32a57c	0.04361485
225	0xbd8593e8	-0.065223515
226	0x3a0bcc09	0.0005332833
227	0x3bf4abaa	0.007466753
228	0x3cbbccab	0.022924742
229	0x3d03b437	0.03215429
230	0xbd9be133	-0.07611313
231	0xbd508994	-0.050912455
232	0x3c5d44a8	0.013505138
233	0x3d391eca	0.04519538
234	0x3d4b780b	0.04967503
235	0xbdc7b2e9	-0.09750921
236	0x3c5973f3	0.013272273
237	0x3d77dcb6	0.06051322
238	0xbb1e55b0	-0.002415996
239	0xbd872990	-0.06599724
240	0x3d01a3b7	0.03165027
241	0x3d0e5cbd	0.03475641
242	0x3d2ca203	0.042146694
243	0x3cd03e3d	0.025420303
244	0xbd32a41a	-0.04361353
245	0x3ce288e0	0.027653158
246	0x3d27ca05	0.040964145
247	0x3c2502c9	0.010071465
248	0xbd1577dd	-0.036491264
249	0x3b27c4ee	0.0025599557
250	0x3dd0a888	0.10188395
251	0x3e0241ab	0.12720363
252	0x3ce86812	0.028369937
253	0x3dd5704a	0.10421808
254	0x3d512f34	0.051070407
255	0x3d6bff9f	0.057616826

conv2.bias f4 [16]
0	0x3e04edb1	0.12981297
1	0xbe92a376	-0.28640336
2	0x3eb93e91	0.36180547
3	0x3e830614	0.25590575
4	0xbc5e52d2	-0.013569551
5	0x3e6ec096	0.23315653
6	0x3cf53ab9	0.029935228
7	0xbe94c901	-0.29059604
8	0x3e7620b4	0.24035913
9	0xbe5a64e4	-0.21327549
10	0x3e01288c	0.12613124
11	0xbe9069e6	-0.28205794
12	0x3c9695db	0.018382004
13	0xbd86e27b	-0.065861665
14	0xbda09590	-0.07841027
15	0x3e178cdc	0.14799827

fc1.weight f4 [120, 400]
0	0xbe7badb1	-0.24577977
1	0xbc98f0a6	-0.018669438
2	0xbe2f2895	-0.17105325
3	0xbda2bfdc	-0.079467505
4	0xbe15d927	-0.14633618
5	0xbd37df7a	-0.04489086
6	0x3e17ecc3	0.14836411
7	0xbe48a09f	-0.19592522
8	0xbdd54f0c	-0.104154676
9	0xbe37c781	-0.17947198
10	0x3bd49bed	0.0064883144
11	0x3d7bdffc	0.061492905
12	0xbd99cb3a	-0.075094655
13	0xbd85606c	-0.06512532
14	0xbd94d1e2	-0.072665945
15	0x3c8883c9	0.016664403
16	0xbdcdfb81	-0.10057736
17	0xbdc1f158	-0.09469861
18	0x3c54a9e3	0.012979957
19	0xbda4a0af	-0.080384605
20	0x3dd23209	0.1026345
21	0xbd2154a9	-0.03938738
22	0xbdfcbfb0	-0.12341249
23	0xbdc1573d	-0.094404675
24	0xbd16d6fb	-0.036826115
25	0xbd08486b	-0.03327219
26	0x3cf730a1	0.030174555
27	0x3cdbbeb8	0.02682434
28	0x3d6b8d56	0.057507835
29	0x3d4d2602	0.050085075
30	0xbb82610d	-0.0039788545
31	0x3d474689	0.048651252
32	0x3d359598	0.044332117
33	0x3d01caad	0.031687427
34	0x3ce194af	0.027536718
35	0xbda3863a	-0.07984586
36	0x3d06cc3f	0.032909628
37	0x3d07bfc3	0.033141863
38	0x3d410b2c	0.047129795
39	0xbd0bd7f5	-0.0341415
40	0xbc5f7ab3	-0.013640094
41	0xbd04a5ef	-0.03238481
42	0x3d4446a4	0.04791893
43	0x3d2f930d	0.042864848
44	0xbcd21f41	-0.025649669
45	0x3d1f486a	0.03888742
46	0xbcabdc8a	-0.020979185
47	0x3ca3e5d9	0.02000706
48	0x3d95c28d	0.07312498
49	0x3d19577c	0.037436947
50	0x3e4abfd1	0.19799735
51	0x3d770d22	0.06031526
52	0x3d538998	0.05164489
53	0x3cfcaa91	0.030843051
54	0x3de0d73e	0.10978554
55	0x3df75dc0	0.12078428
56	0x3d847e3d	0.064693905
57	0xbc67c3f5	-0.014145841
58	0x3ac85789	0.0015284877
59	0x3d46dbe3	0.048549544
60	0x3d2e2d9e	0.042523973
61	0xbc68fe71	-0.01422082
62	0xbdc792e9	-0.09744818
63	0xbd6c29a1	-0.057656888
64	0x3dd663f4	0.10468283
65	0x3cf588a2	0.029972378
66	0x3d1913d1	0.037372414
67	0x3cef4d12	0.029211555
68	0x3cc154d8	0.023600027
69	0x3d4a7614	0.049429014
70	0x3d929c9b	0.071587764
71	0x3dab9ceb	0.08379539
72	0x3ddab16b	0.10678371
73	0x3df1dd7d	0.11809824
74	0x3e1b4059	0.15161265
75	0x3db8555c	0.09000656
76	0x3d872036	0.065979406
77	0x3d39faf8	0.045405358
78	0x3d7b1700	0.06130123
79	0x3dd3d9b6	0.103442594
80	0x3d004cc0	0.031323195
81	0x3cd62612	0.0261412
82	0x3df22871	0.1182412
83	0x3cd3049d	0.025759036
84	0xbcbf3822	-0.023342196
85	0xbe0b7271	-0.13617875
86	0xbb90883a	-0.0044107707
87	0x3c5fc833	0.013658571
88	0xbd0343f7	-0.03204724
89	0xbe14b58f	-0.14522384
90	0xbe0d46e4	-0.13796574
91	0xbe17f737	-0.14840399
92	0xbd1cf1e8	-0.038316637
93	0xbddc7b6e	-0.1076573
94	0xbda744a7	-0.08167391
95	0xbd4595f0	-0.048238695
96	0xbcb2d257	-0.021828813
97	0xbd4b9dd0	-0.04971105
98	0x3cbf9ead	0.023391092
99	0x3da7df71	0.08196915
100	0xbd717338	-0.05894777
101	0x3c3c8003	0.01150513
102	0xbc7e30ae	-0.015514536
103	0xbcb93a95	-0.022610942
104	0x3cf52146	0.029923093
105	0x3b002e9a	0.0019559027
106	0x3c6baa3c	0.014383849
107	0x3d1ab7ba	0.03777287
108	0x3d1c980d	0.038230944
109	0x3d070656	0.032965027
110	0x3aa61ea4	0.0012673927
111	0xbd0a25c2	-0.033727415
112	0xbd19cba3	-0.03754772
113	0x3ce179d9	0.027523922
114	0x3c355f69	0.011070111
115	0xbcb4aa7c	-0.02205395
116	0x3d09b225	0.033617157
117	0x3d4e45f4	0.05035968
118	0x3d16c9f4	0.03681369
119	0x3b4573ff	0.0030128954
120	0x3c9b2624	0.018939085
121	0xbcc480fb	-0.023987284
122	0x3cf0de85	0.02940298
123	0xbcec6fb1	-0.028861852
124	0x3d352d80	0.044232845
125	0x3d360890	0.04444176
126	0xbc32684f	-0.010889127
127	0xbe2fd19c	-0.17169803
128	0xbdf6c726	-0.12049703
129	0x3d4f0150	0.05053836
130	0x3dd406b8	0.10352844
131	0x3e3185ce	0.17336199
132	0x3c87e14c	0.016586922
133	0xbde90bef	-0.11379229
134	0xbd816279	-0.0631761
135	0xbbd36295	-0.006450961
136	0x3e129105	0.14313133
137	0x3cea4d6d	0.028601373
138	0x3ce9a164	0.02851934
139	0xbdbef69e	-0.09324382
140	0xbe03299d	-0.12808843
141	0xbd00cc9a	-0.031445123
142	0xbc129785	-0.008947258
143	0x3d6586d0	0.05603677
144	0xbd4627c1	-0.048377756
145	0xbd0901bb	-0.033448916
146	0xbbc1b718	-0.005911719
147	0xbd4283c1	-0.04748893
148	0xba9881aa	-0.0011635323
149	0xbd82eba2	-0.063926
150	0x3ceb6c08	0.028738037
151	0x3d052e17	0.032514658
152	0xbceb5848	-0.02872862
153	0xbccabc2e	-0.024747934
154	0x3de4fa9a	0.11180611
155	0xbd8ec657	-0.06971424
156	0xbcc0021a	-0.023438502
157	0xbd899148	-0.06717163
158	0xbccf83e0	-0.025331438
159	0x3b314d15	0.0027054
160	0xbe42ef39	-0.19036569
161	0xbe0ace46	-0.1355525
162	0xbe2f1d24	-0.1710096
163	0xbdabc252	-0.08386673
164	0xbdcd0252	-0.10010208
165	0xbe324c54	-0.1741193
166	0xbd26dbeb	-0.040737074
167	0xbddd4c27	-0.108055405
168	0xbe24fcaf	-0.16112016
169	0xbd57462d	-0.05255716
170	0x3db80d70	0.08986938
171	0x3d23fa05	0.04003336
172	0x3d225479	0.03963134
173	0x3dabfc62	0.083977476
174	0x3de5d6f7	0.11222642
175	0xbee4d7c0	-0.44695854
176	0xbec858ad	-0.39130154
177	0xbea05bf3	-0.31320152
178	0xbe853e23	-0.2602397
179	0xbe9f67ce	-0.31133884
180	0xbe5c656f	-0.21523069
181	0xbdb113f0	-0.08646381
182	0xbd5cd994	-0.053918436
183	0xbd4f8127	-0.05066028
184	0xbc328a59	-0.010897242
185	0x3d449ace	0.047999196
186	0x3db93f4b	0.09045275
187	0x3da59b3a	0.08086248
188	0x3dd9f086	0.10641579
189	0x3d44cd03	0.048047077
190	0x3d8d2fa6	0.06893854
191	0x3db8c77d	0.09022424
192	0x3d5189f0	0.051156938
193	0x3de76e6d	0.11300359
194	0x3e0719c7	0.13193427
195	0x3dd1e8a4	0.10249451
196	0x3e166b3b	0.14689343
197	0x3dd08532	0.10181655
198	0x3dd3eea9	0.10348255
199	0x3de38184	0.111086875
200	0x3e24faf7	0.1611136
201	0x3da2052b	0.07911142
202	0x3c926a5e	0.017872985
203	0x3c86f916	0.016476195
204	0x3d8ed8f0	0.06974971
205	0xbd1518d1	-0.03640062
206	0xbd247f0d	-0.040160228
207	0xbbb57f93	-0.0055388897
208	0xbd7b26a5	-0.06131615
209	0xbd99aba7	-0.07503443
210	0xbdcc68fc	-0.09980962
211	0x3cb2e421	0.021837296
212	0xbd003621	-0.03130162
213	0xbd6ab8ed	-0.057305265
214	0xbdc96f35	-0.09835664
215	0xbe260401	-0.16212465
216	0xbdda7c66	-0.10668258
217	0x3bb14e38	0.0054109357
218	0xbd2d8378	-0.042361706
219	0xbd87e779	-0.06635947
220	0x3d7b11d0	0.061296284
221	0x3c8a660a	0.01689436
222	0x3d55457c	0.05206822
223	0x3e06877f	0.13137625
224	0x3cdb4f94	0.026771344
225	0xbcf4fbb7	-0.029905183
226	0xbdd7cd39	-0.1053719
227	0xbde77bef	-0.11302935
228	0xbde3424b	-0.11096629
229	0x3d2fd50f	0.042927798
230	0x3d68d14f	0.056840237
231	0x3c4d4a7c	0.0125299655
232	0xbc5fd9aa	-0.013662735
233	0xbd22be97	-0.039732542
234	0x3d528fbc	0.051406607
235	0x3c3e9308	0.011631735
236	0x3af0d63e	0.0018374396
237	0x3cf94fa8	0.03043349
238	0xbd363e92	-0.044493265
239	0x3c35f457	0.011105618
240	0xbcb7b96a	-0.02242728
241	0x3b9e6573	0.004833871
242	0x38a1c331	7.7134355e-05
243	0x3ce8fd72	0.028441165
244	0x3dd43b14	0.10362831
245	0x3da0ff12	0.07861151
246	0x3e1abb69	0.15110554
247	0x3dae4861	0.08509899
248	0x3deb9418	0.11502856
249	0x3d9aaac6	0.07552104
250	0xbd12ca4b	-0.035837453
251	0xbdee321a	-0.1163065
252	0xbe731663	-0.23739009
253	0xbe361f60	-0.17785406
254	0xbd47cde1	-0.048780326
255	0x3ba3252c	0.0049787965

fc1.bias f4 [120]
0	0x3e15ee7e	0.14641759
1	0xbd36c7c8	-0.04462412
2	0xbd115abf	-0.035486933
3	0xbcd74227	-0.026276661
4	0x3cdac6a5	0.02670605
5	0x3e201c39	0.15635766
6	0x3abcc9d5	0.0014403412
7	0xbe94d89d	-0.29071513
8	0xbdaf75ec	-0.08567414
9	0xbe9862d3	-0.29762897
10	0x3d5b0713	0.053473543
11	0xbe8c3ee0	-0.2739172
12	0x3dc41252	0.09573807
13	0x3c84c765	0.01620836
14	0x3d943870	0.07237327
15	0x3e9220b5	0.28540578
16	0xbc11729e	-0.0088774245
17	0xbcfccb7f	-0.030858753
18	0xbd2aac92	-0.041668482
19	0x3e204d63	0.1565452
20	0xbcb63108	-0.022240177
21	0xbd68c6e3	-0.0568303
22	0xbb820826	-0.0039682565
23	0x3d987f9c	0.074462146
24	0xbd04e53c	-0.032445177
25	0xbd7501b0	-0.059816062
26	0x3d268ad7	0.04065975
27	0x3cd2ee3d	0.025748366
28	0x3ebd2b09	0.36946896
29	0x3cde4ed0	0.02713719
30	0xbe1c3e75	-0.152582
31	0x3bc0dbf6	0.0058855964
32	0xbe021604	-0.12703711
33	0xbbf46cb4	-0.0074592475
34	0x3e2a87d9	0.16653384
35	0xbcd51090	-0.026008874
36	0xbcd05333	-0.025430297
37	0x3da60903	0.081071876
38	0x3d3cb0cc	0.046067044
39	0xbd722cc2	-0.059124716
40	0x3cc565d6	0.02409641
41	0xbc850b4d	-0.01624074
42	0x3c175c3a	0.009238297
43	0xbe626e14	-0.22112304
44	0x3f1a17a1	0.60192305
45	0xbd8596ad	-0.0652288
46	0x3d3cc01f	0.04608166
47	0x3d62de2a	0.055387653
48	0x3ef2fa56	0.47456616
49	0xbd414118	-0.04718122
50	0x3df5cc71	0.12001885
51	0xbe70b380	-0.23505974
52	0xbd625361	-0.055255298
53	0xbd819493	-0.063271664
54	0xbd2127c3	-0.03934456
55	0xbd78b04b	-0.060715
56	0xbe72d9da	-0.23715916
57	0x3dad959d	0.08475802
58	0x3e435304	0.19074637
59	0xbcb20550	-0.021731049
60	0x3e8515e5	0.25993267
61	0x3e28cae4	0.16483647
62	0x3eb75ff7	0.35815403
63	0xbd5234fd	-0.051320065
64	0x3de42000	0.11138916
65	0x3ec95417	0.39321968
66	0x3cc569d7	0.02409832
67	0xbebe60ea	-0.37183315
68	0x3de2b239	0.110691495
69	0x3c95632e	0.01823577
70	0x3c3a63c6	0.011376327
71	0xbef9dbdf	-0.4880056
72	0xbd5ed279	-0.05439994
73	0x3edb6597	0.42850944
74	0xbd5c3baf	-0.053767856
75	0xbcf0e0a0	-0.029403985
76	0xbd85dcdd	-0.06536267
77	0x3c47f0f5	0.012203445
78	0x3ca5140f	0.020151166
79	0x3e7b4a02	0.2453995
80	0xbd3fed05	-0.0468569
81	0xbd331152	-0.04371769
82	0xbd1e7bb8	-0.038692206
83	0xbca0be94	-0.019622125
84	0xbcc64d6c	-0.02420684
85	0x3efb777f	0.49114606
86	0xbbc71c20	-0.006076351
87	0x3e4ae15c	0.1981253
88	0xbc359ee2	-0.011085244
89	0x3cc1942b	0.023630222
90	0xbd26fcf5	-0.040768582
91	0x3d2319a0	0.03981936
92	0xbce9b6df	-0.028529583
93	0x3e264fe3	0.16241412
94	0x3e06e005	0.13171394
95	0x3bcf32b4	0.006323183
96	0xbcd462c7	-0.025926007
97	0xbcaa2a46	-0.02077211
98	0x3cdd2d15	0.026999036
99	0xbbc965ab	-0.006146153
100	0x3c9b3968	0.018948272
101	0xbc20027d	-0.009766218
102	0xbd3e1e2c	-0.046415493
103	0xbd754978	-0.05988452
104	0x3d8700ea	0.06591971
105	0xbd2a5b1e	-0.041590802
106	0x3cda2132	0.026627157
107	0x3cf2e199	0.029648589
108	0x3d332ce2	0.043743975
109	0xbd34b6d5	-0.044119675
110	0xbd4ed9b0	-0.05050057
111	0xbe78969a	-0.242762
112	0x3c04b020	0.008098632
113	0x3ea89479	0.32925776
114	0xbf002748	-0.5005994
115	0xbc1d5d88	-0.009604819
116	0x3eba7c1f	0.36422822
117	0x3bd719a3	0.0065643354
118	0xbce2405a	-0.027618576
119	0x3e0a584d	0.13510247

fc2.weight f4 [84, 120]
0	0x3e5b6bcd	0.21427841
1	0x3d99241a	0.07477589
2	0xbce99eee	-0.028518166
3	0x3ce716e3	0.028209155
4	0x3d9bddf2	0.07610692
5	0x3e1297f0	0.14315772
6	0xbd07f775	-0.033194978
7	0xbdfedded	-0.12444673
8	0x3dd0dec6	0.10198741
9	0xbd786aa9	-0.060648594
10	0xbc4dc0df	-0.012558191
11	0xbe007460	-0.12544394
12	0xbd157617	-0.036489572
13	0xbcb37747	-0.021907462
14	0xbe5a4fb7	-0.21319471
15	0x3d5153a2	0.05110515
16	0x3d65a617	0.0560666
17	0xbc408ab3	-0.0117518185
18	0xbd6ef220	-0.058336377
19	0xbc6f207e	-0.014595149
20	0xbd02a130	-0.031892
21	0x3d18e920	0.0373317
22	0x3b817c74	0.0039516035
23	0x3cf3e1ff	0.02977085
24	0xbcfb0622	-0.030642573
25	0xbd1918d6	-0.0373772
26	0x3e2d6b26	0.16935405
27	0x3cb1d727	0.021709038
28	0x3d49185a	0.04909549
29	0x3caf2519	0.021379994
30	0xbce7dc93	-0.02830342
31	0x3cc2454d	0.023714686
32	0xbd9c2de7	-0.07625943
33	0xbdbb56f3	-0.091474436
34	0xbdbf91e3	-0.093539976
35	0x3d877b02	0.06615259
36	0xbd9eb850	-0.077499986
37	0xbd772ab3	-0.060343456
38	0x3c9cc37f	0.019136189
39	0xbd1ca497	-0.038242903
40	0x3dcf4050	0.101196885
41	0xbceed613	-0.029154813
42	0xb9476f58	-0.00019019598
43	0x3d830a43	0.06398442
44	0x3e0d3923	0.13791327
45	0xbe2a75d7	-0.16646515
46	0xbdcf0623	-0.10108592
47	0x3dceba51	0.10094131
48	0x3de6c7c7	0.11268573
49	0xbd9abb7f	-0.07555293
50	0xbd8db250	-0.06918776
51	0xbc2fc4c0	-0.010728061
52	0xbd8cf037	-0.06881755
53	0x3e228d13	0.15874128
54	0x3d6454a1	0.05574477
55	0xbc57ff02	-0.013183357
56	0x3d46f59d	0.04857408
57	0xbd2dd51b	-0.04243956
58	0xbe45be91	-0.19310977
59	0xbc9002f9	-0.017579542
60	0xba4e6b5b	-0.00078742736
61	0x3e1817c7	0.1485282
62	0x3c333d85	0.01093996
63	0x3b7bf21e	0.0038443874
64	0xbd699d24	-0.057034627
65	0xbca381c9	-0.019959347
66	0x3c789bd8	0.015173875
67	0xbe0d1766	-0.13778457
68	0x3db23f5c	0.08703491
69	0xbde07b0d	-0.1096097
70	0xbd297370	-0.041369855
71	0xbe04d388	-0.12971318
72	0x3d600ce1	0.054699782
73	0x3e99b017	0.30017158
74	0xbcd7e2e2	-0.026353303
75	0x3d4c44b2	0.0498702
76	0xbd46b502	-0.048512466
77	0xbd011f76	-0.031524144
78	0xbd30e2dc	-0.0431851
79	0x3bf5d5a9	0.007502277
80	0xbb6a087b	-0.003571062
81	0x3da4e145	0.08050779
82	0xbdc87c62	-0.09789349
83	0xbd67368a	-0.056448497
84	0x3da45244	0.080235034
85	0x3d37060a	0.044683494
86	0xbd823ab5	-0.06358854
87	0xbded67a3	-0.11592033
88	0x3d5ad99f	0.053430196
89	0x3d8b18eb	0.06791862
90	0xbcd0adec	-0.025473557
91	0xbcaa9540	-0.020823121
92	0x3d6330eb	0.055466574
93	0xbdcc8f69	-0.09988291
94	0xbe19a004	-0.15002447
95	0x3d0d60f4	0.03451629
96	0xbd79d6d1	-0.06099588
97	0x3d445d36	0.047940455
98	0xbd935218	-0.071933925
99	0x3c9e0469	0.019289212
100	0x3d8d9a85	0.06914238
101	0x3d991f53	0.07476678
102	0x3d79c606	0.060979865
103	0x3dacbae6	0.084340855
104	0x3de679ea	0.11253722
105	0xbd327037	-0.043564048
106	0x3d71e6f5	0.05905815
107	0xbbdecfaf	-0.00679966
108	0x3d7a577b	0.061118584
109	0x3c92c38f	0.017915515
110	0xbcc8fd82	-0.024534944
111	0xbd0238e4	-0.031792536
112	0xbc2d9be1	-0.010596246
113	0x3dce796c	0.10081753
114	0xbd4cc269	-0.04999009
115	0x3ca05ae9	0.0195746
116	0xbcf387dd	-0.02972787
117	0x3d3b98b3	0.045799922
118	0xbd848189	-0.06470019
119	0x3cea7c4c	0.028623722
120	0xbddbefa3	-0.107390665
121	0x3cadf4a1	0.021234812
122	0x3d5d0a1b	0.053964715
123	0xbca8c881	-0.02060342
124	0xbda9add2	-0.08285107
125	0xbe8862a7	-0.26637766
126	0xbd028f45	-0.031874914
127	0xbda0ba2e	-0.07848011
128	0x3cf75e8d	0.030196453
129	0xbdec45bd	-0.11536739
130	0x3cd4f493	0.025995528
131	0xbdcab964	-0.09898642
132	0x3de66944	0.112505466
133	0xbd4e4025	-0.05035414
134	0x3d9db36b	0.07700237
135	0x3e023464	0.12715298
136	0x3ca5e904	0.020252712
137	0x3dba3aa3	0.09093215
138	0xbdbd3ea8	-0.09240466
139	0xbe0fe35a	-0.14051571
140	0x3d9bd385	0.076087035
141	0x3d25cf9e	0.040481202
142	0x3d8a553d	0.06754539
143	0x3da16ff6	0.07882683
144	0xbd873c7e	-0.06603335
145	0x3d3f2307	0.046664264
146	0xbc5a9029	-0.0133400345
147	0x3d727964	0.0591978
148	0x3e358a01	0.17728426
149	0xbc746764	-0.014917228
150	0x3c82e784	0.015979536
151	0xbd80f909	-0.062975
152	0x3b27063c	0.0025485894
153	0xbd1becd4	-0.038067654
154	0x3e90c72b	0.28276953
155	0x3d2b558b	0.041829627
156	0x3c5d710f	0.013515725
157	0xbd1f8487	-0.038944747
158	0xbda62177	-0.08111852
159	0x3d8c297c	0.0684385
160	0x3ddb02aa	0.106938675
161	0x3d09c191	0.033631865
162	0x3e7eebc5	0.24894626
163	0x3d6532d2	0.05595667
164	0x3e9c7b34	0.30562747
165	0x3e13b954	0.14426166
166	0x3e9a085a	0.30084497
167	0xbe985317	-0.29750893
168	0x3dfd3f20	0.12365556
169	0x3d3b4808	0.04572299
170	0xbc31b190	-0.010845557
171	0xbdf2deec	-0.11858925
172	0xbd13c85f	-0.03607976
173	0xbbe552ff	-0.0069984193
174	0x3cb2897f	0.021794079
175	0xbdb49b08	-0.08818632
176	0xbd44cc0f	-0.048046168
177	0x3d9979b2	0.07493915
178	0x3d2b83d5	0.04187377
179	0xbd915c32	-0.07097663
180	0xbdcd1372	-0.100134745
181	0x3e47b720	0.1950345
182	0x3e7ca593	0.24672537
183	0x3d533c84	0.051571384
184	0x3b1dc7fa	0.0024075494
185	0xbd2f422c	-0.042787716
186	0xbbab9390	-0.0052360967
187	0xbd8f8748	-0.07008225
188	0xbe855e7d	-0.2604865
189	0xbd88bb6a	-0.066763714
190	0xbd9b4985	-0.07582382
191	0xbe760527	-0.24025403
192	0xbd8a1a7c	-0.06743333
193	0x3e3b1f1a	0.18273583
194	0x3ba3bcc5	0.0049968683
195	0x3cad6870	0.021167964
196	0x3d4df526	0.05028262
197	0xbdc00e74	-0.09377757
198	0xbd8229e2	-0.06355645
199	0x3cc1d3b3	0.023660516
200	0x3d41bb42	0.047297724
201	0x3c96b5fe	0.018397328
202	0x3dabe4af	0.08393227
203	0xbd04faef	-0.03246587
204	0xbd2387f5	-0.03992458
205	0xbe584416	-0.21119723
206	0xbdb2cd04	-0.0873051
207	0x3e9932e7	0.29921648
208	0x3d1d35ee	0.03838151
209	0x3d6911bb	0.056901675
210	0x3c2982ee	0.0103461575
211	0x3d509e6e	0.05093234
212	0x3d4bb83f	0.049736258
213	0x3d3efb72	0.046626516
214	0x3d78f1c3	0.060777437
215	0x3d09f290	0.03367859
216	0xbd2e78a7	-0.04259553
217	0xbd890590	-0.06690514
218	0xbc702a64	-0.014658544
219	0xb8d7792b	-0.00010274568
220	0xbcd98b85	-0.026555786
221	0x3be8a6ca	0.007099961
222	0x3c4539a1	0.012037666
223	0x3cd1c03e	0.025604364
224	0x3de2b760	0.11070132
225	0xbd886458	-0.06659764
226	0x3d183684	0.037161365
227	0x3c050e03	0.008121016
228	0x3dff0875	0.12452785
229	0xbd577abd	-0.052607287
230	0xbd4f51df	-0.050615188
231	0xbd07b2f7	-0.03312966
232	0x3e4de33d	0.20106216
233	0x3d92d589	0.07169635
234	0xbbbe20f6	-0.005802269
235	0x3d35d9da	0.044397213
236	0xbcd3c622	-0.025851313
237	0x3cffef8c	0.031242155
238	0x3d451ad5	0.048121292
239	0x3d452411	0.0481301
240	0x3dad9db0	0.08477342
241	0x3d4bf33e	0.04979252
242	0x3d8b641c	0.06806204
243	0xbbb1112c	-0.0054036584
244	0x3d785bf4	0.06063457
245	0x3e7355eb	0.23763244
246	0xbd813f5b	-0.06310912
247	0x3d95c19e	0.0731232
248	0x3e00c98a	0.12576881
249	0x3dbe117f	0.09280681
250	0xbc955f49	-0.018233912
251	0x3e14eed8	0.14544237
252	0x3d162a03	0.03666116
253	0x3dacc978	0.084368646
254	0x3e993b07	0.29927847
255	0xbb8e1719	-0.0043362495

fc2.bias f4 [84]
0	0x3eb33bb1	0.35006478
1	0x3e979096	0.29602498
2	0x3dabad96	0.08382718
3	0xbd651eee	-0.0559377
4	0x3ec0c458	0.37649798
5	0xbc839e04	-0.016066559
6	0xbbd148d0	-0.0063868538
7	0x3e8f32b3	0.27968368
8	0x3e3fe878	0.18741024
9	0xbdc7eb70	-0.09761703
10	0xbca9902c	-0.02069863
11	0xb8b9ac8c	-8.853627e-05
12	0x3e22a487	0.15883075
13	0xbdb0de7e	-0.08636187
14	0x3ecbe1c3	0.3982068
15	0x3df9ef03	0.12203791
16	0x3f1299db	0.57266015
17	0x3e2f97af	0.17147706
18	0x3d24fa37	0.040277686
19	0x3da870e2	0.08224656
20	0xbe237f97	-0.1596664
21	0x3e9199ed	0.2843775
22	0xbd593926	-0.053033017
23	0x3e3c00a2	0.18359616
24	0x3eb80dc3	0.35948
25	0x3e23095a	0.15921536
26	0x3c7b8222	0.01535085
27	0x3e5cfca2	0.21580747
28	0xbe40d425	-0.18830927
29	0xbd0e90a3	-0.034805905
30	0xbdab217a	-0.083559945
31	0xbe038a75	-0.12845786
32	0x3e23e2f4	0.16004544
33	0xbe00b85f	-0.12570332
34	0xbe00f946	-0.1259509
35	0x3da36f5c	0.079802245
36	0x3f19e415	0.6011365
37	0x3e52de1e	0.20592543
38	0xbd83b19a	-0.06430359
39	0x3e3e6bc2	0.18595794
40	0xbba1a212	-0.0049326504
41	0x3ea4df01	0.32201388
42	0x3ee0704d	0.4383568
43	0xbe43e10a	-0.19128814
44	0x3e798426	0.24366817
45	0xbd556dec	-0.052106783
46	0x3eac2551	0.3362222
47	0xbe34daab	-0.1766154
48	0xbd96835f	-0.07349276
49	0x3bfafc2d	0.007659456
50	0xbdd6f8b4	-0.10496655
51	0xbe1cf15f	-0.15326451
52	0xbde28e6f	-0.11062323
53	0x3dd7d7ee	0.10539232
54	0x3dc3f0f6	0.09567444
55	0x3cf6cca4	0.030126877
56	0x3e863a16	0.2621619
57	0x3d022dbc	0.031781897
58	0xbdb19cd9	-0.086724944
59	0x3ef334d2	0.47501236
60	0x3d9d3d18	0.07677668
61	0xbddb343c	-0.10703322
62	0xbd789f66	-0.06069889
63	0x3dcec6ff	0.10096549
64	0x3e2de090	0.16980195
65	0x3dc60805	0.09669498
66	0x3d2edab3	0.042689037
67	0x3e665b36	0.22495732
68	0x3dce84b6	0.10083906
69	0x3e876e5b	0.26451382
70	0x3d03e323	0.032199036
71	0x3e3e1ca6	0.18565616
72	0x3e80bd64	0.25144494
73	0x3ea1dd28	0.3161404
74	0x3e74d412	0.23909023
75	0x3d90979c	0.07060167
76	0xbe0be57c	-0.1366176
77	0x3c5845c4	0.013200227
78	0x3e4146ca	0.1887466
79	0xbd347f72	-0.044066854
80	0x3ead7d74	0.33884776
81	0xbdf0057d	-0.11719797
82	0x3e7251c6	0.23664007
83	0x3e48f784	0.1962567

fc3.weight f4 [10, 84]
0	0xbe1b04ea	-0.15138593
1	0x3e004739	0.1252717
2	0xb948f92f	-0.00019166314
3	0x3db0e4ba	0.08637376
4	0xbdf4a6a2	-0.11945845
5	0x3da74074	0.0816659
6	0x3e27f118	0.16400564
7	0xbe331dcd	-0.17491837
8	0x3be32c40	0.0069327652
9	0x3deae2a9	0.11469013
10	0x3e1ff6df	0.15621518
11	0xbe9a45b4	-0.30131304
12	0x3c785e99	0.015159273
13	0x3c828158	0.015930817
14	0x3d37dbff	0.04488754
15	0x3de0ef3e	0.10983132
16	0xbe27af69	-0.16375507
17	0xbb97e9ef	-0.0046360414
18	0xbd868f7a	-0.06570335
19	0x3d324324	0.04352106
20	0x3dac0c1c	0.08400747
21	0xbdb4e0b1	-0.08831919
22	0x3e20f6d0	0.15719151
23	0xbd61474f	-0.054999646
24	0xbe209c01	-0.15684511
25	0xbd887316	-0.06662576
26	0x3db354ae	0.08756386
27	0x3dac2575	0.08405582
28	0xbbfddabe	-0.0077470234
29	0x3c93ea96	0.018056195
30	0x3da59436	0.080849096
31	0x3da93794	0.08262554
32	0x3d985baf	0.07439362
33	0xbda0ee6f	-0.078579776
34	0x3e8b0b4b	0.27157053
35	0x3e52cffa	0.2058715
36	0xbe09877d	-0.13430591
37	0x3e0620d5	0.13098462
38	0x3e201f55	0.15636952
39	0xbd46070a	-0.048346557
40	0x3ca81336	0.020516973
41	0xbe2a88f2	-0.16653803
42	0xbd290d37	-0.04127237
43	0x3c12ba9c	0.008955624
44	0x3e02bec6	0.12768087
45	0xbdea0e16	-0.11428468
46	0x3d2a2735	0.041541297
47	0x3d6b7a03	0.057489406
48	0xbd37b6cc	-0.044852063
49	0xbdbb91b3	-0.09158649
50	0xbe0c97db	-0.13729803
51	0x3dca5d98	0.09881133
52	0xbb1e39a4	-0.0024143243
53	0x3cf64a53	0.030064737
54	0x3d0219b5	0.031762797
55	0x3dcd16be	0.10014103
56	0xbc3a0aa3	-0.011355075
57	0x3dafdf31	0.08587492
58	0x3b37f4b5	0.002806944
59	0xbd9f619c	-0.077822894
60	0xbdd287c5	-0.10279802
61	0xbcf79fed	-0.030227626
62	0xbd6cdf6e	-0.057830267
63	0x3e819521	0.2530909
64	0xbc7b06cd	-0.015321446
65	0x3dfcfb5e	0.12352632
66	0x3d9845f4	0.074352175
67	0xbd25862f	-0.04041117
68	0xbd64a6e0	-0.055823207
69	0xbdcc55f7	-0.09977334
70	0x3e106bc6	0.14103612
71	0x3e65f791	0.2245772
72	0x3d0074b4	0.031361297
73	0xbdeef574	-0.1166791
74	0x3d419fc9	0.047271524
75	0x3c8e3641	0.017359855
76	0xbd275663	-0.04085387
77	0x3e14213f	0.14465807
78	0xbe1a7061	-0.15081932
79	0x3ab82c0d	0.0014051214
80	0xbdcc97c4	-0.099898845
81	0x3dd0ad74	0.101893336
82	0xbc121a9d	-0.008917478
83	0xbb7dd94c	-0.0038734255
84	0x3df2e46e	0.11859976
85	0x3ca0fe24	0.019652434
86	0x3e11e423	0.14247184
87	0xbda13456	-0.078713104
88	0x3ddfb3ba	0.10922952
89	0x3ddb1974	0.10698214
90	0xbe073ef5	-0.1320761
91	0x3e88fca7	0.26755258
92	0x3dffcee4	0.12490633
93	0x3e0a511a	0.135075
94	0xbe824fc7	-0.2545149
95	0x3e58a054	0.2115491
96	0x3e2896de	0.16463801
97	0x3daa8358	0.08325833
98	0x3bedbd63	0.0072552427
99	0x3e04cc6a	0.12968603
100	0x3e88e4de	0.26737112
101	0x3d838229	0.064213105
102	0x3e247716	0.16061053
103	0x3dfd2010	0.12359631
104	0xbe3d3c39	-0.18480004
105	0x3e5e82f6	0.21729645
106	0xbe2ad1b9	-0.16681565
107	0x3dfc8009	0.12329108
108	0x3e02c0f5	0.1276892
109	0x3e75818f	0.23975204
110	0x3dae7adb	0.085195266
111	0x3e4ca413	0.19984464
112	0xbbbb8aea	-0.005723347
113	0x3d69ee66	0.05711212
114	0x3d9ad97b	0.07561012
115	0x3d95935a	0.07303496
116	0x3e11c461	0.14235069
117	0xbe0b0f02	-0.13579944
118	0xbe0f2169	-0.13977589
119	0xbdb0e2b3	-0.086369894
120	0x3e821f97	0.25414726
121	0xbd4e3e53	-0.050352406
122	0xbdffcfb4	-0.12490788
123	0x3e239d03	0.15977864
124	0x3e28bd48	0.16478455
125	0x3e9fdc97	0.31222984
126	0x3e711318	0.2354244
127	0xbda4577c	-0.08024499
128	0x3e7eca63	0.24881892
129	0x3cadd7d3	0.021221077
130	0xbda9288b	-0.08259686
131	0x3b7b6de2	0.0038365056
132	0xbdd9ae03	-0.10628893
133	0xbdd3c61a	-0.10340519
134	0xbeae037b	-0.3398703
135	0x3d59d129	0.053177986
136	0x3df5015c	0.1196315
137	0x3e247359	0.16059627
138	0xbe462452	-0.19349793
139	0x3d3df6d6	0.04637798
140	0xbe09ccf1	-0.13457085
141	0xbbb6bae3	-0.005576478
142	0xbd28e4d7	-0.041233864
143	0x3e4301f8	0.1904372
144	0x3d85bd21	0.06530214
145	0x3e4cb4ff	0.1999092
146	0xbd757c11	-0.059932772
147	0xbdd7a72e	-0.10529934
148	0x3d335684	0.04378368
149	0x3e24e683	0.16103558
150	0x3d62579a	0.055259325
151	0xbc5c2215	-0.01343586
152	0x3e0ebb9c	0.13938755
153	0xbbc7bf24	-0.006095784
154	0xbe248eaf	-0.16070054
155	0xbee1e693	-0.44121227
156	0xbc1e5fcb	-0.0096663935
157	0x3c263d49	0.010146447
158	0x3e22a3b7	0.15882765
159	0xbd66242b	-0.056186836
160	0xbcf148e1	-0.029453697
161	0x3dd97d9b	0.106196605
162	0x3d9001b7	0.07031577
163	0x3d61016d	0.054933
164	0xbdfc3aa6	-0.12315874
165	0x3dc74e03	0.097316764
166	0x3e2322fc	0.15931314
167	0x3d18a0d4	0.037262753
168	0x3e5376ac	0.20650738
169	0x3de2567a	0.1105165
170	0x3e090173	0.13379459
171	0x3d10ca28	0.03534904
172	0xbe2ea816	-0.17056307
173	0xbab37e26	-0.0013694211
174	0x3dbf1c2b	0.093315445
175	0xbe5eba27	-0.21750699
176	0x3e23ac0d	0.15983601
177	0x3d68b089	0.056808982
178	0xbdbbf9c5	-0.09178499
179	0xbdbd114f	-0.09231817
180	0x3dc93f53	0.09826531
181	0xbd749b11	-0.059718195
182	0xbe804598	-0.25053096
183	0x3da2f2a9	0.0795644
184	0xbe951c30	-0.29123068
185	0x3dccf171	0.10006989
186	0x3d0a4639	0.033758376
187	0x3e0b7407	0.1361848
188	0xbc82017d	-0.01586985
189	0x3dbddfa1	0.092711695
190	0xbd831f90	-0.064025044
191	0x3e76a403	0.24086003
192	0xbe5e63e9	-0.217178
193	0xbc66218a	-0.014046082
194	0xbd2f1ea3	-0.042753827
195	0x3e105d1d	0.1409802
196	0xbc6e336b	-0.014538626
197	0x3d828349	0.06372697
198	0xbd853e0e	-0.065059766
199	0x3d6a6f77	0.057235207
200	0x3d43254a	0.047642983
201	0xbe8ed935	-0.2790009
202	0xbc8f8499	-0.017519282
203	0x3e3f3c63	0.1867538
204	0xbea88d5d	-0.32920352
205	0x3e30f413	0.17280607
206	0x39e29911	0.00043220122
207	0x3d4ec1e2	0.05047787
208	0x3e177c02	0.14793399
209	0xbe52e5cc	-0.20595473
210	0xbe7a4c2c	-0.2444312
211	0x3d8515e8	0.06498319
212	0xbc1155e3	-0.008870575
213	0x3dea1577	0.11429875
214	0x3d7bd8d3	0.061486077
215	0x3cfe0a53	0.031010782
216	0x3d4b61fe	0.049654
217	0xbdb7f575	-0.08982364
218	0xbdcd1789	-0.100142546
219	0x3d5ca1af	0.05386513
220	0x3db9bb6a	0.090689495
221	0x3e1d27b3	0.15347175
222	0x3e7675a7	0.24068318
223	0x3d99f0a7	0.07516604
224	0x3d11eb28	0.035624653
225	0xbdd32aa5	-0.10310868
226	0x3d32f46d	0.043690134
227	0x3d1db93e	0.03850674
228	0x3d3cb9e5	0.04607572
229	0x3e593edb	0.21215384
230	0x3be424ee	0.00696241
231	0x3f10b1d6	0.56521356
232	0xbd2255a1	-0.039632443
233	0x3dcce765	0.100050725
234	0x3db66b8a	0.0890723
235	0x3e55bf2c	0.20873708
236	0x3e1f9712	0.15584973
237	0xbe562139	-0.20911111
238	0x3e50c4f9	0.20387639
239	0x3e427b30	0.18992305
240	0x3e07fff6	0.13281235
241	0xbe29fdd2	-0.16600731
242	0x3e3740e4	0.17895848
243	0xbc5f5f6a	-0.013633588
244	0x3d63a2a0	0.055575013
245	0x3e37d9fa	0.17954245
246	0xbe6284d3	-0.22120981
247	0x3a93c4f1	0.0011273903
248	0xbe09a252	-0.13440827
249	0xbd38868a	-0.04505018
250	0x3c713aa7	0.014723456
251	0xbd2470c1	-0.040146593
252	0x3e8b1606	0.2716524
253	0x3e4418c5	0.19150074
254	0xbe039fec	-0.12853974
255	0xbc004dc4	-0.007831041

fc3.bias f4 [10]
0	0xbd879b81	-0.06621457
1	0x3deb499c	0.11488649
2	0xbd89163d	-0.06693695
3	0x3e51cb8e	0.20487806
4	0xbd4e98a2	-0.05043853
5	0xbe12d91b	-0.14340632
6	0x3e31f43e	0.17378327
7	0xbdcbe08a	-0.09954937
8	0xbdc20822	-0.094742075
9	0xbc4b01c7	-0.0123905605

fc4.weight f4 [4, 10]
0	0x3e6e2e8b	0.23259942
1	0xbe53a0d9	-0.20666827
2	0x3ea08533	0.31351623
3	0xbe5030b3	-0.20331077
4	0x3cdb4658	0.026766941
5	0xbc8cbf83	-0.017181164
6	0xbd45650a	-0.04819206
7	0x3e44b887	0.19211017
8	0xbdd917d8	-0.10600251
9	0x3e9316c8	0.28728318
10	0xbed0e117	-0.4079673
11	0x3e2eab1f	0.17057465
12	0xbe824d41	-0.25449565
13	0xbebcab2e	-0.3684935
14	0x3e556408	0.2083894
15	0xbe3fe6b9	-0.18740357
16	0x3e181033	0.1484993
17	0x3e9e1ea3	0.3088275
18	0x3ccdfab7	0.025143964
19	0x3e884af3	0.26619682
20	0xbe325227	-0.17414151
21	0x3e441c49	0.19151415
22	0xbdfe7851	-0.12425292
23	0x3ec3cb44	0.38241017
24	0x3e31418d	0.17310162
25	0xbe3e96c8	-0.18612206
26	0xbeea5ffd	-0.45776358
27	0xbe4d9430	-0.2007606
28	0xbeb1e96b	-0.34748396
29	0x3e0eda6c	0.13950509
30	0x3d89e1f4	0.0673255
31	0xbec91a08	-0.39277673
32	0xbecc3a18	-0.39888072
33	0x3e72fcdf	0.23729275
34	0xb7166219	-8.963537e-06
35	0xbe518d98	-0.2046417
36	0xbe0bde83	-0.136591
37	0xbdbfcd75	-0.0936536
38	0x3eae1fbd	0.3400859
39	0x3dda260a	0.106517866

fc4.bias f4 [4]
0	0xbef07e3f	-0.46971318
1	0xbe50db16	-0.20396075
2	0x3f0d3ca4	0.55170655
3	0x3e7912dd	0.24323602
