tasks/attack_homework/defender/lenet_mnist_model.pth (torch, 90231 bytes, 8 tensors)

conv1.weight f4 [10, 1, 5, 5]
0.17388925 0.20670569 0.19137745 -0.043490034 -0.1365652 -0.020457694 0.27985972 0.3903296
0.25849026 -0.061241124 0.1889603 0.25855228 0.08126401 0.31148252 0.32855362 0.06632106
0.009570138 0.12245702 -0.13057487 -0.010343198 -0.104368374 -0.18412556 0.13681413 -0.10208542
0.117779866 0.08689434 0.4214721 0.453911 0.09176189 0.42961866 0.082428575 0.18400456
0.035082895 0.2788608 0.28802973 -0.039038315 -0.16345093 -0.31992498 0.11570607 0.13437708
-0.3237043 -0.38107795 -0.25918868 -0.3729666 -0.0056512975 -0.34395808 -0.34165877 -0.30679488
-0.15917125 -0.04690317 -0.17729728 0.058964957 0.16269672 0.18817666 -0.21725777 0.036940806
0.05834698 0.17841747 0.008684669 -0.3361058 0.10767295 0.06742136 0.116039135 -0.14871292
-0.20566505 0.33768833 0.29867494 -0.20516333 -0.46813753 -0.27196795 0.28131407 0.073900074
-0.2274587 0.058233682 0.3038603 0.22962414 0.246015 0.34120688 0.26400736 0.1542541
-0.018024897 0.12990431 0.30095503 0.17553806 0.079462215 0.11286296 0.2830529 0.22631879
0.18823235 -0.00868331 0.16352025 0.22604825 -0.022464847 -0.049572002 0.16326568 -0.27913406
-0.1342779 -0.18643437 -0.2093295 0.02606519 0.35533425 0.2599692 0.11638209 -0.21744013
-0.36437568 0.19002554 0.36550462 -0.15103567 -0.42136914 -0.3343656 0.4211019 0.09130573
0.07234136 -0.37917683 -0.29976174 0.13165022 0.015927535 -0.17804979 -0.28510633 -0.3904796
0.1587327 0.16051058 -0.20417623 -0.1640785 -0.28218278 -0.101752244 -0.115868345 -0.13634925
0.07264845 0.018484117 -0.29218346 -0.3225205 -0.18974704 -0.09004837 0.30996835 -0.09463923
-0.10848053 0.0789172 0.3778811 0.380623 0.051252477 0.14996493 0.37079698 0.32628855
0.36163718 0.23407541 0.1416874 -0.07116442 0.0011098257 0.27968475 -0.104441 -0.22734241
0.18862282 0.22633831 -0.020045517 -0.35160482 0.09748916 0.08728993 0.30828413 0.016253954
-0.16935246 0.13115156 0.070630416 0.30391663 0.25288534 0.13883226 0.11742556 0.3601441
0.2855294 0.23108949 -0.10504569 0.085588045 0.26851618 0.14194913 0.06747949 -0.2582383
-0.291695 -0.05623563 0.34921682 0.07959375 -0.35635126 0.16316766 0.05476857 0.33718225
0.3927299 -0.17883515 0.2418167 0.41478035 0.3834379 0.009363237 0.1543367 0.14305124
0.12919821 -0.0012736825 0.0067372285 -0.098693885 -0.20866497 0.14515106 0.010797586 -0.23220474
-0.3344564 -0.12285993 0.041556813 0.081700765 0.19215575 -0.21304761 0.21445799 0.13404949
0.1994413 -0.09668997 0.300235 0.22745769 0.26096353 0.18695614 0.10507555 0.27574953
0.2716269 -0.060460325 0.037723504 -0.13165466 0.19872727 0.14417233 -0.010641195 0.14788154
-0.16763346 0.21032326 0.046401598 -0.3736794 -0.43863705 -0.18390831 0.32502142 0.25788254
0.008607087 -0.03881579 -0.2281718 0.3866906 0.37292433 0.48606694 0.44223875 -0.0032480666
-0.0913974 0.003335228 -0.011083971 0.17354606 0.12732464 -0.048920672 -0.28410524 -0.1232078
-0.11489541 0.039879397
00000000: 0610 323e a8aa 533e 73f8 433e 9b22 32bd
00000010: bfd7 0bbe e596 a7bc c649 8f3e 48d9 c73e
00000020: d658 843e f9d7 7abd cf7e 413e f760 843e
00000030: bf6d a63d a37a 9f3e 2e38 a83e 56d3 873d
00000040: 11cc 1c3c bfca fa3d 6bb5 05be 8476 29bc
00000050: 16bf d5bd 698b 3cbe 0119 0c3e 2912 d1bd
00000060: 9236 f13d a9f5 b13d 31cb d73e 0667 e83e
00000070: a8ed bb3d faf6 db3e 50d0 a83d b16b 3c3e
00000080: 15b3 0f3d d8c6 8e3e a278 933e a4e6 1fbd
00000090: ae5f 27be 35cd a3be 4ef7 ec3d 259a 093e
000000a0: 92bc a5be a61c c3be 61b4 84be 7af5 bebe
000000b0: 852e b9bb 461b b0be e6ed aebe 3814 9dbe
000000c0: cafd 22be 8a1d 40bd 6b8d 35be 3d85 713d
000000d0: f899 263e 62b1 403e d278 5ebe 3e4f 173d
000000e0: 3efd 6e3d 12b3 363e 244a 0e3c 0f16 acbe
000000f0: a383 dc3d 3614 8a3d eda5 ed3d 3348 18be
00000100: dc99 52be 7ce5 ac3e eceb 983e 5616 52be
00000110: b9af efbe 623f 8bbe 6608 903e ec58 973d
00000120: efea 68be 7186 6e3d 9493 9b3e 9722 6b3e
00000130: 5beb 7b3e abb2 ae3e f92b 873e c9f4 1d3e
00000140: f3a8 93bc a305 053e c716 9a3e 40c0 333e
00000150: 16bd a23d b224 e73d 4fec 903e 1dc0 673e
00000160: fbbf 403e 7144 0ebc da71 273e 3179 673e
00000170: 3308 b8bc 030c 4bbd 1e2f 273e a9ea 8ebe
00000180: 2580 09be a7e8 3ebe 795a 56be aa86 d53c
00000190: 5fee b53e af1a 853e bc59 ee3d a0a8 5ebe
000001a0: 738f babe 0e96 423e 6c23 bb3e 18a9 1abe
000001b0: b2bd d7be f831 abbe ab9a d73e 80fe ba3d
000001c0: b527 943d 7723 c2be 5f7a 99be 51cf 063e
000001d0: 767a 823c af52 36be 75f9 91be f1ec c7be
000001e0: d38a 223e e35c 243e 9313 51be 3204 28be
000001f0: 437a 90be 7b63 d0bd 624c edbd 239f 0bbe
00000200: b6c8 943d 016c 973c 1299 95be 6821 a5be
00000210: 0c4d 42be 486b b8bd 2cb4 9e3e 36d2 c1bd
00000220: 0a2b debd 579f a13d a279 c13e 05e1 c23e
00000230: 1eee 513d 6890 193e 1ad9 bd3e 4b0f a73e
00000240: 8228 b93e 77b1 6f3e 8016 113e a7be 91bd
00000250: 9277 913a d732 8f3e 2ae5 d5bd 73cc 68be
00000260: 5726 413e 3bc5 673e 7f36 a4bc 8c05 b4be
00000270: 66a8 c73d 10c5 b23d 6bd7 9d3e 0327 853c
00000280: bb6a 2dbe 984c 063e aea6 903d f69a 9b3e
00000290: 307a 813e 0b2a 0e3e d07c f03d cf64 b83e
000002a0: e930 923e b9a2 6c3e 3222 d7bd c948 af3d
000002b0: f47a 893e 1d5b 113e b032 8a3d cf37 84be
000002c0: 0c59 95be 5557 66bd 8ccc b23e 0c02 a33d
000002d0: ac73 b6be 6c15 273e 0255 603d 27a3 ac3e
000002e0: e513 c93e 9020 37be cc9e 773e 175e d43e
000002f0: f951 c43e 4368 193c 710a 1e3e 067c 123e
00000300: 894c 043e b1f1 a6ba f8c3 dc3b 0520 cabd
00000310: 45ac 55be 7ba2 143e 5ce8 303c 14c7 6dbe
00000320: df3d abbe fd9d fbbd 7a37 2a3d bb52 a73d
00000330: 7ac4 443e 2729 5abe e09a 5b3e 4544 093e
00000340: 573a 4c3e 6405 c6bd 67b8 993e abea 683e
00000350: 039d 853e 6e71 3f3e da31 d73d 0b2f 8d3e
00000360: ae12 8b3e 3fa5 77bd f683 1a3d 7bd0 06be
00000370: 297f 4b3e e9a1 133e 6858 2ebc 426e 173e
00000380: 1ba8 2bbe fb5e 573e 9a0f 3e3d e852 bfbe
00000390: 0995 e0be 7652 3cbe 3569 a63e 2e09 843e
000003a0: bd04 0d3c 4efd 1ebd dea5 69be 4ffc c53e
000003b0: f0ef be3e c4dd f83e 1e6d e23e 84dd 54bb
000003c0: 8f2e bbbd d793 5a3b 8b99 35bc 0fb6 313e
000003d0: 6461 023e 0b61 48bd 3e76 91be 5f54 fcbd
000003e0: 494e ebbd 9458 233d

conv1.bias f4 [10]
-0.029457714 0.34608147 0.1969121 -0.0067935265 0.24281593 0.076141946 -0.0013487093 0.0052060816
0.042662825 0.0012953681
00000000: 4e51 f1bc 9731 b13e 53a3 493e 3b9c debb
00000010: bda4 783e 4ff0 9b3d 2dc7 b0ba c797 aa3b
00000020: 37bf 2e3d 57c9 a93a

conv2.weight f4 [20, 10, 5, 5]
0.029518416 -0.10756503 -0.06330988 -0.048908502 -0.12685451 0.10177374 0.061095595 -0.049726147
-0.08132643 -0.16138676 -0.012172421 0.113856815 0.12952226 -0.0022910733 -0.042074773 -0.010510624
0.034709666 0.011730302 0.13185853 0.102001615 0.08439764 0.03176876 0.06365842 0.11197749
-0.020042812 -0.10092011 -0.08581248 -0.023060756 0.030635798 0.070129216 -0.04155495 -0.04073149
-0.15672554 -0.07309024 -0.076391086 -0.0061153793 -0.06593346 -0.09176845 -0.098171294 0.0026491778
-0.04825862 0.011119595 0.06615141 -0.011871588 0.04031936 0.032525413 0.022756485 0.0099426415
-0.008510701 0.017799895 0.08266941 0.01073449 0.03264391 -0.025699222 -0.005443065 0.13493058
-0.0049037826 -0.0037762295 0.078259334 0.16041116 0.096474394 0.024501916 -0.049725797 -0.00022416833
0.023283415 0.032657504 0.14270084 0.027671332 -0.05305691 0.03682745 -0.08315212 -0.011077283
-0.03668949 -0.0034233076 0.035726964 0.05155832 -0.040311307 -0.13838542 -0.12084908 -0.062449425
-0.006986726 -0.0762678 -0.07747162 -0.19031517 -0.13247323 -0.02211505 0.063847415 0.049167674
-0.037281867 -0.11792582 0.059317615 0.10500352 0.008637291 0.045409285 0.09916248 0.027385827
0.06396976 -0.0114763845 0.015431747 -0.004798689 -0.06257546 -0.04917237 0.032310057 -0.028311139
-0.008860627 0.070560835 -0.041226074 -0.019712267 -0.023239486 -0.08713092 0.09865801 -0.038785793
-0.14362535 -0.11153131 -0.09712183 -0.027581917 -0.12541996 -0.034147017 0.0066447034 -0.0052755265
-0.026046837 -0.039322242 -0.021061245 0.016740968 0.04599893 0.0063327067 -0.031492338 -0.08267619
-0.0325101 -0.14285985 -0.011323476 0.030332146 0.052874822 0.014752603 0.027100055 0.06434802
0.060781557 0.09636943 0.018118495 0.07986775 0.024850398 0.045057423 0.06897286 0.05803821
0.026896322 -0.012373786 0.036080446 0.06817581 0.03527053 -0.011127516 0.014709529 -0.027723707
-0.09363408 -0.15646608 -0.12571211 -0.03425307 0.045743324 -0.086719155 -0.048204735 -0.06794738
0.08758879 0.03586584 -0.02750701 0.050836142 0.045842063 0.06843874 0.05451499 0.044157024
0.08123792 0.021131149 0.03816596 0.0030646103 0.025320098 0.019515729 -0.035766732 -0.037450887
-0.062368784 -0.10386946 -0.14467934 -0.09307862 0.024212008 -0.061216503 -0.048138477 -0.1185753
-0.15481548 0.0006529971 0.0027699603 -0.017221123 0.029736256 -0.048695296 0.059623107 0.087507136
0.040598795 0.07322218 -0.019702515 0.14594845 0.08004344 0.027443642 0.07230917 0.041495945
0.05982101 -0.053665925 -0.06100436 -0.028437003 -0.11872505 0.093931645 -0.023583341 0.0044331895
-0.018228238 -0.022348523 0.00011446568 0.02717537 0.03279267 -0.033834826 -0.006964939 0.10544691
0.09104764 -0.007785492 0.055917036 0.0006648072 0.119339295 0.0032738757 0.08754473 0.006523081
0.010705866 0.12497739 0.08622319 -0.08584951 -0.1643331 -0.086361945 0.077227674 0.11173387
-0.06492519 -0.08129266 -0.10368853 0.029285625 -0.002981263 0.040685378 0.20531158 0.13219549
-0.07087577 -0.011081842 0.01661222 0.049894605 0.08588889 0.07635979 -0.016716009 0.027794821
0.09010966 0.039233282 -0.0031885232 0.04939479 0.045767657 0.0028402407 -0.013139373 -0.0029782357
00000000: 9bd0 f13c 0e4b dcbd 9ca8 81bd 4854 48bd
00000010: 26e6 01be c06e d03d 603f 7a3d a5ad 4bbd
00000020: 798e a6bd 9242 25be d66e 47bc c32d e93d
00000030: 7ca1 043e d525 16bb 9956 2cbd c134 2cbc
00000040: b92b 0e3d 7430 403c ec05 073e 39e6 d03d
00000050: abd8 ac3d f61f 023d 595f 823d 7454 e53d
00000060: d330 a4bc 34af cebd 74be afbd e9e9 bcbc
00000070: edf7 fa3c e89f 8f3d 8635 2abd 10d6 26bd
00000080: a97c 20be 56b0 95bd ee72 9cbd 8563 c8bb
00000090: 1f08 87bd 19f1 bbbd 080e c9bd d49d 2d3b
000000a0: d5aa 45bd f62e 363c 647a 873d 0d81 42bc
000000b0: ea25 253d 5e39 053d cf6b ba3c 76e6 223c
000000c0: 7870 0bbc 16d1 913c 944e a93d b7df 2f3c
000000d0: 9fb5 053d 2d87 d2bc bd5b b2bb 3e2b 0a3e
000000e0: e9af a0bb 9e7a 77bb 6e46 a03d d342 243e
000000f0: 5e94 c53d 3eb8 c83c 47ad 4bbd ba0e 6bb9
00000100: dcbc be3c e0c3 053d 2b20 123e fdae e23c
00000110: 3452 59bd 61d8 163d a94b aabd 7e7d 35bc
00000120: b847 16bd 9259 60bb 7056 123d d12e 533d
00000130: 781d 25bd e8b4 0dbe b97f f7bd f8ca 7fbd
00000140: e8f0 e4bb 4b32 9cbd 71a9 9ebd fbe1 42be
00000150: 10a7 07be 9f2a b5bc 6fc2 823d 0b64 493d
00000160: dfb4 18bd 1883 f1bd 07f7 723d 160c d73d
00000170: 6d83 0d3c 16ff 393d b315 cb3d 3e58 e03c
00000180: 9402 833d 7207 3cbc 70d5 7c3c 523e 9dbb
00000190: 9027 80bd f868 49bd 8d57 043d c3ec e7bc
000001a0: 2a2c 11bc 3382 903d acdc 28bd 9f7b a1bc
000001b0: bc60 bebc b271 b2bd 360d ca3d dadd 1ebd
000001c0: 8612 13be 876a e4bd cfe7 c6bd 79f3 e1bc
000001d0: 176e 00be bedd 0bbd d0bb d93b 53de acbb
000001e0: 2d60 d5bc 5c10 21bd a288 acbc 5b24 893c
000001f0: 6069 3c3d 9882 cf3b 1cfe 00bd 2252 a9bd
00000200: 5029 05bd da49 12be 1a86 39bc 1f7b f83c
00000210: 4593 583d e7b4 713c ef00 de3c e5c8 833d
00000220: 15f6 783d 565d c53d 3d6d 943c b491 a33d
00000230: 1093 cb3c 228e 383d a541 8d3d 79b9 6d3d
00000240: ad55 dc3c 6cbb 4abc 17c9 133d c29f 8b3d
00000250: d577 103d 2f50 36bc 3c00 713c d41c e3bc
00000260: 39c3 bfbd a538 20be adba 00be f24c 0cbd
00000270: 5a5d 3b3d d099 b1bd 5472 45bd ff27 8bbd
00000280: c061 b33d 0fe8 123d 6256 e1bc 8f39 503d
00000290: e3c4 3b3d 9c29 8c3d 1c4b 5f3d ffdd 343d
000002a0: 1160 a63d 3b1b ad3c e953 1c3d a1d7 483b
000002b0: 186c cf3c 73df 9f3c 2380 12bd 1a66 19bd
000002c0: 6976 7fbd 83b9 d4bd d226 14be 01a0 bebd
000002d0: 4358 c63c 28be 7abd da2c 45bd 9bd7 f2bd
000002e0: f387 1ebe e52d 2b3a 3988 353b 5013 8dbc
000002f0: 7399 f33c b874 47bd 5c37 743d f136 b33d
00000300: ec4a 263d 83f5 953d 2b67 a1bc 8373 153e
00000310: d1ed a33d 7dd1 e03c d516 943d a7f7 293d
00000320: e006 753d cdd0 5bbd b5df 79bd b8f4 e8bc
00000330: 1e26 f3bd 3c5f c03d da31 c1bc 4a44 913b
00000340: 6353 95bc 4014 b7bc 4b0d f038 e29e de3c
00000350: 9b51 063d 6396 0abd 253a e4bb 8df4 d73d
00000360: 2f77 ba3d 711d ffbb 4309 653d 7546 2e3a
00000370: 2968 f43d 858e 563b a74a b33d 92bf d53b
00000380: a867 2f3c 25f4 ff3d c995 b03d ded1 afbd
00000390: f046 28be 88de b0bd 8b29 9e3d bad4 e43d
000003a0: 7ff7 84bd c47c a6bd a75a d4bd 68e8 ef3c
000003b0: 4b61 43bb b6a5 263d 333d 523e 415e 073e
000003c0: 5127 91bd 9d90 35bc 5a16 883c 495e 4c3d
000003d0: 84e6 af3d 8662 9c3d 03f0 88bc f7b1 e33c
000003e0: 6a8b b83d 14b3 203d 8bf6 50bb 3152 4a3d
000003f0: de76 3b3d 5523 3a3b 8646 57bc 812e 43bb

conv2.bias f4 [20]
-0.015352309 0.059440464 0.005974496 0.09755384 -0.04094096 0.01477347 -0.013269246 0.12168688
-0.031659473 0.007978567 0.022913309 0.041301478 -0.05729403 0.07248527 -0.056344397 0.023193354
-0.03708346 -0.04182104 0.024012487 0.020978604
00000000: 4088 7bbc d877 733d b4c5 c33b 4fca c73d
00000010: b5b1 27bd 6d0c 723c 4067 59bc f936 f93d
00000020: 5dad 01bd 89b8 023c b1b4 bb3c bd2b 293d
00000030: 25ad 6abd 2873 943d 62c9 66bd fdff bd3c
00000040: d3e4 17bd 8a4c 2bbd d6b5 c43c 52db ab3c

fc1.weight f4 [50, 320]
0.037157208 0.05452721 0.06188638 -0.026403343 0.04272165 -0.08265322 -0.006640436 0.019790765
0.048840024 0.013712405 -0.047318317 0.029043784 0.010877997 -0.14655961 -0.15588242 -0.0023094628
0.10458254 0.03864183 -0.062331185 -0.11289283 -0.003831978 0.028730715 -0.05131366 0.007644689
0.09056565 0.10963737 -0.01947479 0.028431274 0.0340824 -0.053375345 0.012299869 -0.04962856
0.17270528 0.046658844 -0.077658094 -0.13291436 -0.0021871745 0.047105845 -0.029303687 -0.06901093
0.12622653 0.048586257 -0.069645196 0.042166717 0.045133688 0.0039424733 -0.03629378 0.06672664
0.15064712 0.012039893 -0.0890099 -0.12266507 0.06320027 -0.011407015 -0.019459259 -0.00423933
0.056561906 -0.006523561 -0.0040501454 -0.0056335563 -0.0035166019 0.011244852 -0.03496224 -0.012946874
0.08644618 -0.014797704 0.021282332 0.00053872104 -0.010254027 -0.021479536 -0.0020789471 0.022638116
-0.08005569 0.00024583167 -0.0015686379 0.099839374 -0.03236762 -0.077306226 -0.059747692 0.06700545
0.030785825 -0.1426818 -0.032646447 -0.055680748 0.018555416 0.01731058 0.058892 0.09277178
-0.04958902 -0.09149728 -0.013475374 0.11279543 0.03906079 -0.06836216 -0.08358467 0.06348381
0.15381971 0.05939698 -0.05622132 -0.11713164 0.03333912 -0.013512064 0.011606601 -0.059066776
-0.014465542 0.04144833 -0.051333603 0.041018713 0.13908331 0.005686968 -0.1367928 0.038626045
-0.09994889 -0.037993222 0.032599863 0.14038675 -0.06625972 0.009536217 -0.15251319 0.03518
-0.05593558 -0.1030319 -0.03364303 -0.020053132 0.08578001 0.061805055 0.050408144 -0.04540928
-0.034965687 -0.042945232 -0.0629339 0.059620067 -0.07551348 -0.031696543 -0.071025476 0.10730914
0.009019744 -0.0895549 -0.0016981292 0.06612441 -0.02825744 -0.052775644 0.027615162 -0.0018521674
0.05763452 -0.04158125 -0.09009953 -0.037069865 0.0015698439 -0.0076337997 -0.10774621 0.07515804
0.10831529 -0.0064919586 -0.09664188 0.019123012 -0.110399455 -0.009713306 -0.012851577 0.007961415
0.002401166 -0.016329437 0.05765196 0.13029672 0.0023125 -0.04088587 0.06488262 -0.016191315
-0.07507205 -0.026787048 0.008733946 -0.040471766 0.020508805 0.06961057 0.05497462 0.049690578
0.0018839751 -0.066615224 -0.020706039 -0.07516356 0.018754432 0.0281073 0.013471214 -0.04623835
0.018923527 -0.08601911 -0.003622638 0.019934308 0.049590465 0.03336373 -0.0685798 0.045978665
0.013380259 0.025543358 -0.026595412 0.0663778 0.059959706 -0.006547101 -0.025867186 0.0681892
0.06502946 0.000724105 -0.122315 -0.018281313 0.14265092 -0.039486576 -0.16267088 -0.03577373
0.03404731 0.051650595 -0.01822909 -0.19322968 0.019891487 0.06228284 -0.041185074 -0.020465923
-0.003328316 0.076431215 -0.02497003 -0.024496913 0.06543686 0.029966664 -0.0017856115 -0.080541134
0.031062245 -0.0019701833 0.0485232 0.049998622 0.042932175 0.050206665 0.013431105 -0.0153050795
-0.019065045 -0.014224087 0.026832202 0.027853658 0.03628837 -0.049878404 -0.0008662667 0.061487615
0.067471966 0.060385823 0.009584811 -0.15860188 -0.052553102 0.11926611 -0.06831033 -0.029645067
0.06587419 0.0694688 -0.03129556 0.09198394 -0.01078639 0.0014735917 -0.018664546 -0.08293837
00000000: 2832 183d ec57 5f3d 937c 7d3d d34b d8bc
00000010: e6fc 2e3d 1746 a9bd 0498 d9bb 3e20 a23c
00000020: 7a0c 483d ffa9 603c dad0 41bd 3bed ed3c
00000030: a039 323c b913 16be a49f 1fbe 5b5a 17bb
00000040: 5f2f d63d e546 1e3d fc4e 7fbd 5b34 e7bd
00000050: ec21 7bbb ad5c eb3c 462e 52bd 4d80 fa3b
00000060: 7c7a b93d 8f89 e03d 9889 9fbc b4e8 e83c
00000070: fd99 0b3d 1ba0 5abd 6485 493c 5147 4bbd
00000080: a7d9 303e 581d 3f3d 350b 9fbd b41a 08be
00000090: b356 0fbb 0ff2 403d 490e f0bc 9a55 8dbd
000000a0: 8741 013e 6202 473d 24a2 8ebd 02b7 2c3d
000000b0: 1ade 383d dd2f 813b c9a8 14bd faa7 883d
000000c0: 3d43 1a3e f942 453c d34a b6bd d337 fbbd
000000d0: 256f 813d 7de4 3abc 0669 9fbc 14ea 8abb
000000e0: 75ad 673d 99c3 d5bb 15b7 84bb b299 b8bb
000000f0: ca76 66bb 543c 383c 9134 0fbd 201f 54bc
00000100: b20a b13d 1272 72bc 4958 ae3c f538 0d3a
00000110: 8200 28bc daf5 afbc f23e 08bb 9273 b93c
00000120: 3df4 a3bd f8e2 8039 c19a cdba 9678 cc3d
00000130: e993 04bd ba52 9ebd ffb9 74bd 273a 893d
00000140: 8e32 fc3c 2e1b 12be 48b8 05bd 7f11 64bd
00000150: 8701 983c ebce 8d3c bd38 713d 22ff bd3d
00000160: db1d 4bbd ed62 bbbd d1c7 5cbc 4a01 e73d
00000170: 35fe 1f3d 7601 8cbd 712e abbd cd03 823d
00000180: ea82 1d3e 3f4a 733d 5448 66bd b7e2 efbd
00000190: 9a8e 083d b461 5dbc 9d29 3e3c 01f0 71bd
000001a0: e100 6dbc b9c5 293d 2f43 52bd 3d03 283d
000001b0: db6b 0e3e bf59 ba3b 6913 0cbe 5836 1e3d
000001c0: 01b2 ccbd c89e 1bbd 6f87 053d 8bc1 0f3e
000001d0: 2db3 87bd cb3d 1c3c 6b2c 1cbe e718 103d
000001e0: b51c 65bd 6402 d3bd 46cd 09bd 7746 a4bc
000001f0: 6ead af3d 4c27 7d3d c578 4e3d 15ff 39bd
00000200: 2e38 0fbd 57e7 2fbd 7de3 80bd 2c34 743d
00000210: d0a6 9abd 3cd4 01bd ce75 91bd e5c4 db3d
00000220: 8cc7 133c 8f68 b7bd c393 deba 3c6c 873d
00000230: 267c e7bc 462b 58bd 3139 e23c 6dc4 f2ba
00000240: 2d12 6c3d 1a51 2abd 1a86 b8bd 92d6 17bd
00000250: 38c3 cd3a f424 fabb 0caa dcbd 75ec 993d
00000260: 68d4 dd3d 7fba d4bb 2eec c5bd dda7 9c3c
00000270: 1c19 e2bd 8f24 1fbc 6c8f 52bc 9870 023c
00000280: e15c 1d3b 50c5 85bc 7624 6c3d 816c 053e
00000290: 508d 173b f177 27bd 2ee1 843d a6a3 84bc
000002a0: 60bf 99bd 8370 dbbc d318 0f3c b9c5 25bd
000002b0: 1502 a83c fd8f 8e3d 112d 613d 5988 4b3d
000002c0: b7ef f63a 906d 88bd b69f a9bc 5aef 99bd
000002d0: e5a2 993c 4841 e63c 5eb6 5c3c 6d64 3dbd
000002e0: 8305 9b3c ca2a b0bd c869 6dbb 464d a33c
000002f0: 5f1f 4b3d 68a8 083d 9173 8cbd 2054 3c3d
00000300: e038 5b3c 4e40 d13c 9fde d9bc 16f1 873d
00000310: 4f98 753d 1089 d6bb 6ce7 d3bc c7a6 8b3d
00000320: 2a2e 853d ddd1 3d3a 4980 fabd b1c2 95bc
00000330: 1513 123e adbc 21bd 3293 26be 7a87 12bd
00000340: 3175 0b3d 938f 533d 2c55 95bc 00de 45be
00000350: 79f3 a23c 4b1c 7f3d aeb1 28bd 27a8 a7bc
00000360: e01f 5abb f887 9c3d f38d ccbc c0ad c8bc
00000370: c303 863d a67c f53c 2e0b eaba c0f2 a4bd
00000380: 4076 fe3c 311e 01bb 43c0 463d 5bcb 4c3d
00000390: a6d9 2f3d 81a5 4d3d 230e 5c3c 28c2 7abc
000003a0: 4c2e 9cbc 250c 69bc 35cf db3c 5b2d e43c
000003b0: 1da3 143d 4c4d 4cbd 2d16 63ba 70da 7b3d
000003c0: be2e 8a3d 2057 773d 9c09 1d3c 8868 22be
000003d0: ec41 57bd ca41 f43d 49e6 8bbd 36da f2bc
000003e0: 0ce9 863d a945 8e3d c62f 00bd 1362 bc3d
000003f0: 66b9 30bc 8825 c13a 64e6 98bc 98db a9bd

fc1.bias f4 [50]
0.011426758 0.04643779 3.6613656e-05 0.032857683 0.064563476 0.06926623 0.0036290758 0.0035097878
0.065283954 0.10365199 0.012769406 -0.033644587 0.0436287 0.06355667 0.022806693 -0.050900437
0.01107571 -0.0049107024 -0.016197521 0.00318394 0.08110464 0.034772143 0.026920171 0.019721307
0.02962091 -0.011087325 0.04317396 -0.029468019 0.022036867 0.015239301 0.037555415 0.10083752
0.017875792 0.009723907 0.055337142 0.021773966 -0.009538853 0.05452659 0.052247774 0.14409512
-0.012395417 0.010161144 0.06403764 0.0066086506 0.02838851 0.04565536 0.041974794 0.07750677
0.06624154 0.08996725
00000000: 4c37 3b3c 8d35 3e3d 9d91 1938 c795 063d
00000010: db39 843d 74db 8d3d cad5 6d3b 7804 663b
00000020: 98b3 853d 7f47 d43d c536 513c e8ce 09bd
00000030: 02b4 323d 002a 823d 1ad5 ba3c fa7c 50bd
00000040: e576 353c f5e9 a0bb aab0 84bc a6a9 503b
00000050: 311a a63d 3c6d 0e3d b187 dc3c 948e a13c
00000060: 8da7 f23c 9da7 35bc 2ed7 303d ea66 f1bc
00000070: a986 b43c 43ae 793c b5d3 193d e783 ce3d
00000080: 4170 923c 0651 1f3c 33a9 623d 515f b23c
00000090: d948 1cbc 4657 5f3d c301 563d ac8d 133e
000000a0: 2616 4bbc ed7a 263c 2b26 833d 618d d83b
000000b0: 058f e83c 1d01 3b3d c3ed 2b3d dfbb 9e3d
000000c0: a5a9 873d c040 b83d

fc2.weight f4 [10, 50]
-0.13382237 -0.17376918 -0.12982874 0.13015535 -0.11933418 -0.16435932 -0.17796427 -0.06847516
0.13231297 -0.28160867 0.12514143 0.033338614 0.08391091 -0.24055567 0.049831692 0.18097043
-0.19231239 -0.2672821 -0.1622527 0.14498197 -0.10454392 -0.19258983 -0.071918495 -0.15343933
0.10366386 0.20046994 -0.23850547 0.114834554 -0.11619211 0.07290553 -0.01769078 0.09255595
0.083917335 0.1024571 -0.25171798 -0.19869022 0.15938164 0.09383714 -0.10488648 -0.24227451
0.1512438 0.09082194 -0.12572347 -0.043525953 -0.17974639 0.1355234 0.14525692 -0.18530884
0.021858295 -0.20599 -0.10296279 0.1344546 0.05848808 0.059971485 0.08636688 0.21748294
0.017214624 0.076960884 -0.2772228 0.045204423 -0.22788103 0.10102547 -0.23337415 0.14261289
-0.2684806 -0.15020478 0.0984866 -0.20507115 -0.007882131 -0.14428939 0.14948834 -0.07884225
0.06745534 0.069470584 0.08182251 -0.2579902 -0.13250424 -0.28980494 0.10535937 -0.18018165
0.04479267 -0.03287515 -0.27780002 -0.24165091 -0.065483965 -0.24426217 -0.23187023 -0.25834438
-0.003791121 0.13999765 0.14255062 -0.19648427 0.1638179 0.118855886 -0.18348287 -0.23733029
0.14772664 0.18489562 0.11194439 -0.10225568 0.0751938 -0.13186961 -0.28294352 -0.045462612
-0.019783627 -0.18232852 0.10335134 -0.16543065 -0.15016389 -0.2236129 0.112051286 0.1418696
-0.22267516 0.17454983 -0.039931882 0.054669574 -0.017831098 -0.22741671 0.12469269 -0.06310878
-0.14480633 -0.017507695 0.091042876 -0.20727967 0.0996349 -0.09911239 -0.02974731 0.109059796
0.13997452 0.16841885 0.082315326 -0.1140856 -0.11927948 0.10801838 -0.07327991 0.08445123
0.06144613 0.0793094 0.1048261 -0.015046431 -0.081662804 -0.19165008 -0.06014707 0.11346463
-0.20182851 0.090100236 0.14060493 -0.08523455 -0.039606355 -0.21319683 0.10997341 -0.17183088
-0.029746924 -0.02592502 -0.28089225 -0.22799258 0.120366804 -0.13546944 -0.2103916 0.07246101
0.074485384 -0.059522547 0.0071519613 -0.11690623 -0.062046774 -0.026705906 -0.089344 -3.709481e-05
0.1555529 -0.037674036 -0.1059714 0.007322471 0.08300958 -0.20752499 0.08685845 -0.104657814
-0.19223718 0.097442366 -0.066580206 -0.010958169 0.115412556 -0.1259982 0.10818441 -0.14116408
0.15281841 -0.05589206 -0.14984027 -0.09272278 0.04645412 -0.2060876 -0.122024834 -0.19359526
0.17806385 -0.040114157 0.18644436 -0.15286957 7.7572746e-05 -0.16444336 0.15568222 0.13364401
0.1139015 0.16335382 -0.047390755 0.0098684225 -0.15247189 -0.058750123 -0.17117842 0.13966258
-0.15845454 0.08490727 -0.054000728 0.10476478 0.0477207 -0.16532646 -0.29884726 -0.110419385
0.10402109 0.0593004 -0.12975045 -0.13165045 0.19132678 0.13720396 -0.24514668 0.107575454
-0.22156614 -0.120953284 0.13722102 -0.08456712 -0.13461532 -0.008816044 -0.27357677 -0.2813415
-0.109609686 0.14767823 0.14459558 0.046964467 -0.072144635 -0.05377835 -0.26824415 -0.11623627
-0.01872095 -0.1857861 -0.059144255 -0.17901139 -0.23186608 0.108354986 0.052828368 -0.13463947
0.105804354 -0.16793776 -0.08155088 -0.14835648 0.20399697 0.1261272 -0.042439602 -0.09235945
00000000: bb08 09be 8cf0 31be d3f1 04be 7247 053e
00000010: 7b65 f4bd cf4d 28be 443c 36be b43c 8cbd
00000020: 0d7d 073e 032f 90be 1325 003e 128e 083d
00000030: 7cd9 ab3d 3a54 76be 511c 4c3d 5050 393e
00000040: 8aed 44be 33d9 88be 9225 26be 2776 143e
00000050: 1f1b d6bd 4536 45be 014a 93bd 331f 1dbe
00000060: b84d d43d fe47 4d3e c73a 74be 612e eb3d
00000070: 21f6 edbd 7f4f 953d 41ec 90bc f98d bd3d
00000080: dadc ab3d 07d5 d13d 2ee1 80be 7375 4bbe
00000090: f134 233e b02d c03d b9ce d6bd cf16 78be
000000a0: a8df 1a3e da00 ba3d a7bd 00be 4548 32bd
000000b0: 700f 38be a5c6 0a3e 3bbe 143e 9ac1 3dbe
000000c0: 2b10 b33c 0bef 52be 28de d2bd 77ae 093e
000000d0: 3291 6f3d a9a4 753d 1ee1 b03d d9b3 5e3e
000000e0: af05 8d3c ab9d 9d3d 26f0 8dbe 4628 393d
000000f0: a559 69be 71e6 ce3d a2f9 6ebe 1d09 123e
00000100: 4a76 89be 48cf 19be 58b3 c93d 2cfe 51be
00000110: 0e24 01bc 99c0 13be 7913 193e 0c78 a1bd
00000120: 0626 8a3d 9846 8e3d 8f92 a73d 4b17 84be
00000130: 31af 07be 5061 94be a7c6 d73d 8a81 38be
00000140: 8578 373d 18a8 06bd ce3b 8ebe 5673 77be
00000150: 751c 86bd dd1f 7abe 646f 6dbe b745 84be
00000160: 7574 78bb 8b5b 0f3e caf8 113e 2c33 49be
00000170: e1bf 273e b76a f33d efe2 3bbe b606 73be
00000180: a745 173e 4755 3d3e 1a43 e53d 6d6b d1bd
00000190: 35ff 993d d408 07be f9dd 90be 0137 3abd
000001a0: 4611 a2bc 54b4 3abe dea9 d33d a766 29be
000001b0: 90c4 19be c8fa 64be 257b e53d 4446 113e
000001c0: f504 64be 31bd 323e 9d8f 23bd 34ed 5f3d
000001d0: 8612 92bc eddf 68be e25e ff3d 2d3f 81bd
000001e0: 1c48 14be 4c6c 8fbc b074 ba3d 1f41 54be
000001f0: 620d cc3d 70fb cabd a1b0 f3bc be5a df3d
00000200: 7b55 0f3e fe75 2c3e f094 a83d b6a5 e9bd
00000210: cd48 f4bd be38 dd3d c713 96bd c4f4 ac3d
00000220: f0ae 7b3d f76c a23d 11af d63d 4e85 76bc
00000230: d43e a7bd eb3f 44be c65c 76bd 2560 e83d
00000240: 22ac 4ebe 7986 b83d bdfa 0f3e 748f aebd
00000250: 463a 22bd 4550 5abe bd39 e13d 6ff4 2fbe
00000260: d2af f3bc b560 d4bc 1cd1 8fbe e376 69be
00000270: df82 f63d 80b8 0abe e570 57be 7066 943d
00000280: cb8b 983d eacd 73bd 005b ea3b 896c efbd
00000290: c224 7ebd 58c6 dabc fdf9 b6bd 4096 1bb8
000002a0: 4249 1f3e 1750 1abd 8907 d9bd 57f1 ef3b
000002b0: ed00 aa3d 6e81 54be d8e2 b13d d656 d6bd
000002c0: d3d9 44be dd8f c73d 345b 88bd e489 33bc
000002d0: 6b5d ec3d ac05 01be ca8f dd3d 518d 10be
000002e0: 6e7c 1c3e 13ef 64bd ba6f 19be 71e5 bdbd
000002f0: ad46 3e3d a108 53be 28e8 f9bd d63d 46be
00000300: 5f56 363e be4e 24bd 45eb 3e3e d789 1cbe
00000310: 8dae a238 d763 28be 296b 1f3e fad9 083e
00000320: 3145 e93d 3946 273e cf1c 42bd 2aaf 213c
00000330: 9721 1cbe f8a3 70bd 6549 2fbe b503 0f3e
00000340: e841 22be dde3 ad3d de2f 5dbd eb8e d63d
00000350: c876 433d 574b 29be 8202 99be 8f23 e2bd
00000360: 0209 d53d fae4 723d 4ddd 04be 60cf 06be
00000370: 2beb 433e 327f 0c3e bb07 7bbe 8550 dc3d
00000380: 3ce2 62be 5bb6 f7bd ab83 0c3e 8731 adbd
00000390: 99d8 09be 2b71 10bc 4112 8cbe fe0b 90be
000003a0: 0b7b e0bd f638 173e dd10 143e d05d 403d
000003b0: 91c0 93bd b046 5cbd 4c57 89be 480d eebd
000003c0: ae5c 99bc b63e 3ebe 3f41 72bd c34e 37be
000003d0: 4d6e 6dbe 38e9 dd3d 8f62 583d eede 09be
000003e0: f4af d83d e0f7 2bbe 2604 a7bd c3ea 17be
000003f0: 95e4 503e 7d27 013e 26d5 2dbd f426 bdbd

fc2.bias f4 [10]
-0.030659037 -0.03895696 0.001344544 0.048814166 0.047426112 -0.016656231 -0.12546645 -0.06334236
0.06751547 0.13414124
00000000: a928 fbbc 5591 1fbd 693b b03a 5df1 473d
00000010: e241 423d a672 88bc 477a 00be a4b9 81bd
00000020: 8d45 8a3d 525c 093e
